{"format": "graph-model", "generatedBy": "1.15.0", "convertedBy": "TensorFlow.js Converter v2.7.0", "userDefinedMetadata": {"signature": {"inputs": {"image_tensor:0": {"name": "image_tensor:0", "dtype": "DT_UINT8", "tensorShape": {"dim": [{"size": "-1"}, {"size": "-1"}, {"size": "-1"}, {"size": "3"}]}}}, "outputs": {"detection_boxes:0": {"name": "detection_boxes:0", "dtype": "DT_FLOAT", "tensorShape": {"dim": [{"size": "-1"}, {"size": "100"}, {"size": "4"}]}}, "detection_classes:0": {"name": "detection_classes:0", "dtype": "DT_FLOAT", "tensorShape": {"dim": [{"size": "-1"}, {"size": "100"}]}}, "detection_multiclass_scores:0": {"name": "detection_multiclass_scores:0", "dtype": "DT_FLOAT", "tensorShape": {"dim": [{"size": "-1"}, {"size": "100"}, {"size": "7"}]}}, "detection_scores:0": {"name": "detection_scores:0", "dtype": "DT_FLOAT", "tensorShape": {"dim": [{"size": "-1"}, {"size": "100"}]}}, "num_detections:0": {"name": "num_detections:0", "dtype": "DT_FLOAT", "tensorShape": {"dim": [{"size": "-1"}]}}, "raw_detection_boxes:0": {"name": "raw_detection_boxes:0", "dtype": "DT_FLOAT", "tensorShape": {"dim": [{"size": "-1"}, {"size": "-1"}, {"size": "4"}]}}, "raw_detection_scores:0": {"name": "raw_detection_scores:0", "dtype": "DT_FLOAT", "tensorShape": {"dim": [{"size": "-1"}, {"size": "-1"}, {"size": "7"}]}}}}}, "modelTopology": {"node": [{"name": "Postprocessor/BatchMultiClassNonMaxSuppression/map/TensorArrayStack/range/start", "op": "Const", "attr": {"value": {"tensor": {"dtype": "DT_INT32", "tensorShape": {}}}, "dtype": {"type": "DT_INT32"}}}, {"name": "Postprocessor/BatchMultiClassNonMaxSuppression/map/TensorArrayStack/range/delta", "op": "Const", "attr": {"value": {"tensor": {"dtype": "DT_INT32", "tensorShape": {}}}, "dtype": {"type": "DT_INT32"}}}, {"name": "Postprocessor/BatchMultiClassNonMaxSuppression/map/TensorArrayStack_2/range/start", "op": "Const", "attr": {"value": {"tensor": {"dtype": "DT_INT32", "tensorShape": {}}}, "dtype": {"type": "DT_INT32"}}}, {"name": "Postprocessor/BatchMultiClassNonMaxSuppression/map/TensorArrayStack_2/range/delta", "op": "Const", "attr": {"value": {"tensor": {"dtype": "DT_INT32", "tensorShape": {}}}, "dtype": {"type": "DT_INT32"}}}, {"name": "add/y", "op": "Const", "attr": {"value": {"tensor": {"dtype": "DT_FLOAT", "tensorShape": {}}}, "dtype": {"type": "DT_FLOAT"}}}, {"name": "Postprocessor/BatchMultiClassNonMaxSuppression/map/TensorArrayStack_5/range/start", "op": "Const", "attr": {"value": {"tensor": {"dtype": "DT_INT32", "tensorShape": {}}}, "dtype": {"type": "DT_INT32"}}}, {"name": "Postprocessor/BatchMultiClassNonMaxSuppression/map/TensorArrayStack_5/range/delta", "op": "Const", "attr": {"value": {"tensor": {"dtype": "DT_INT32", "tensorShape": {}}}, "dtype": {"type": "DT_INT32"}}}, {"name": "Postprocessor/BatchMultiClassNonMaxSuppression/map/TensorArrayUnstack_5/range/start", "op": "Const", "attr": {"value": {"tensor": {"dtype": "DT_INT32", "tensorShape": {}}}, "dtype": {"type": "DT_INT32"}}}, {"name": "Postprocessor/BatchMultiClassNonMaxSuppression/map/TensorArrayUnstack_5/strided_slice/stack", "op": "Const", "attr": {"value": {"tensor": {"dtype": "DT_INT32", "tensorShape": {"dim": [{"size": "1"}]}}}, "dtype": {"type": "DT_INT32"}}}, {"name": "Postprocessor/BatchMultiClassNonMaxSuppression/map/TensorArrayUnstack_5/strided_slice/stack_1", "op": "Const", "attr": {"value": {"tensor": {"dtype": "DT_INT32", "tensorShape": {"dim": [{"size": "1"}]}}}, "dtype": {"type": "DT_INT32"}}}, {"name": "Postprocessor/BatchMultiClassNonMaxSuppression/map/TensorArrayUnstack_5/strided_slice/stack_2", "op": "Const", "attr": {"value": {"tensor": {"dtype": "DT_INT32", "tensorShape": {"dim": [{"size": "1"}]}}}, "dtype": {"type": "DT_INT32"}}}, {"name": "Postprocessor/BatchMultiClassNonMaxSuppression/map/TensorArrayUnstack_5/range/delta", "op": "Const", "attr": {"value": {"tensor": {"dtype": "DT_INT32", "tensorShape": {}}}, "dtype": {"type": "DT_INT32"}}}, {"name": "Postprocessor/BatchMultiClassNonMaxSuppression/map/TensorArrayStack_1/range/start", "op": "Const", "attr": {"value": {"tensor": {"dtype": "DT_INT32", "tensorShape": {}}}, "dtype": {"type": "DT_INT32"}}}, {"name": "Postprocessor/BatchMultiClassNonMaxSuppression/map/TensorArrayStack_1/range/delta", "op": "Const", "attr": {"value": {"tensor": {"dtype": "DT_INT32", "tensorShape": {}}}, "dtype": {"type": "DT_INT32"}}}, {"name": "Postprocessor/BatchMultiClassNonMaxSuppression/map/TensorArrayStack_6/range/start", "op": "Const", "attr": {"value": {"tensor": {"dtype": "DT_INT32", "tensorShape": {}}}, "dtype": {"type": "DT_INT32"}}}, {"name": "Postprocessor/BatchMultiClassNonMaxSuppression/map/TensorArrayStack_6/range/delta", "op": "Const", "attr": {"value": {"tensor": {"dtype": "DT_INT32", "tensorShape": {}}}, "dtype": {"type": "DT_INT32"}}}, {"name": "Postprocessor/BatchMultiClassNonMaxSuppression/map/TensorArrayUnstack_1/range/start", "op": "Const", "attr": {"value": {"tensor": {"dtype": "DT_INT32", "tensorShape": {}}}, "dtype": {"type": "DT_INT32"}}}, {"name": "Postprocessor/BatchMultiClassNonMaxSuppression/map/TensorArrayUnstack_1/strided_slice/stack", "op": "Const", "attr": {"value": {"tensor": {"dtype": "DT_INT32", "tensorShape": {"dim": [{"size": "1"}]}}}, "dtype": {"type": "DT_INT32"}}}, {"name": "Postprocessor/BatchMultiClassNonMaxSuppression/map/TensorArrayUnstack_1/strided_slice/stack_1", "op": "Const", "attr": {"value": {"tensor": {"dtype": "DT_INT32", "tensorShape": {"dim": [{"size": "1"}]}}}, "dtype": {"type": "DT_INT32"}}}, {"name": "Postprocessor/BatchMultiClassNonMaxSuppression/map/TensorArrayUnstack_1/strided_slice/stack_2", "op": "Const", "attr": {"value": {"tensor": {"dtype": "DT_INT32", "tensorShape": {"dim": [{"size": "1"}]}}}, "dtype": {"type": "DT_INT32"}}}, {"name": "Postprocessor/BatchMultiClassNonMaxSuppression/map/TensorArrayUnstack_1/range/delta", "op": "Const", "attr": {"value": {"tensor": {"dtype": "DT_INT32", "tensorShape": {}}}, "dtype": {"type": "DT_INT32"}}}, {"name": "Postprocessor/Slice/begin", "op": "Const", "attr": {"value": {"tensor": {"dtype": "DT_INT32", "tensorShape": {"dim": [{"size": "3"}]}}}, "dtype": {"type": "DT_INT32"}}}, {"name": "Postprocessor/Slice/size", "op": "Const", "attr": {"value": {"tensor": {"dtype": "DT_INT32", "tensorShape": {"dim": [{"size": "3"}]}}}, "dtype": {"type": "DT_INT32"}}}, {"name": "Postprocessor/BatchMultiClassNonMaxSuppression/map/TensorArrayUnstack/range/start", "op": "Const", "attr": {"value": {"tensor": {"dtype": "DT_INT32", "tensorShape": {}}}, "dtype": {"type": "DT_INT32"}}}, {"name": "Postprocessor/BatchMultiClassNonMaxSuppression/map/TensorArrayUnstack/strided_slice/stack", "op": "Const", "attr": {"value": {"tensor": {"dtype": "DT_INT32", "tensorShape": {"dim": [{"size": "1"}]}}}, "dtype": {"type": "DT_INT32"}}}, {"name": "Postprocessor/BatchMultiClassNonMaxSuppression/map/TensorArrayUnstack/strided_slice/stack_1", "op": "Const", "attr": {"value": {"tensor": {"dtype": "DT_INT32", "tensorShape": {"dim": [{"size": "1"}]}}}, "dtype": {"type": "DT_INT32"}}}, {"name": "Postprocessor/BatchMultiClassNonMaxSuppression/map/TensorArrayUnstack/strided_slice/stack_2", "op": "Const", "attr": {"value": {"tensor": {"dtype": "DT_INT32", "tensorShape": {"dim": [{"size": "1"}]}}}, "dtype": {"type": "DT_INT32"}}}, {"name": "Postprocessor/BatchMultiClassNonMaxSuppression/map/TensorArrayUnstack/range/delta", "op": "Const", "attr": {"value": {"tensor": {"dtype": "DT_INT32", "tensorShape": {}}}, "dtype": {"type": "DT_INT32"}}}, {"name": "Postprocessor/BatchMultiClassNonMaxSuppression/map/TensorArrayUnstack_6/range/start", "op": "Const", "attr": {"value": {"tensor": {"dtype": "DT_INT32", "tensorShape": {}}}, "dtype": {"type": "DT_INT32"}}}, {"name": "Postprocessor/BatchMultiClassNonMaxSuppression/map/TensorArrayUnstack_6/strided_slice/stack", "op": "Const", "attr": {"value": {"tensor": {"dtype": "DT_INT32", "tensorShape": {"dim": [{"size": "1"}]}}}, "dtype": {"type": "DT_INT32"}}}, {"name": "Postprocessor/BatchMultiClassNonMaxSuppression/map/TensorArrayUnstack_6/strided_slice/stack_1", "op": "Const", "attr": {"value": {"tensor": {"dtype": "DT_INT32", "tensorShape": {"dim": [{"size": "1"}]}}}, "dtype": {"type": "DT_INT32"}}}, {"name": "Postprocessor/BatchMultiClassNonMaxSuppression/map/TensorArrayUnstack_6/strided_slice/stack_2", "op": "Const", "attr": {"value": {"tensor": {"dtype": "DT_INT32", "tensorShape": {"dim": [{"size": "1"}]}}}, "dtype": {"type": "DT_INT32"}}}, {"name": "Postprocessor/BatchMultiClassNonMaxSuppression/map/TensorArrayUnstack_6/range/delta", "op": "Const", "attr": {"value": {"tensor": {"dtype": "DT_INT32", "tensorShape": {}}}, "dtype": {"type": "DT_INT32"}}}, {"name": "Postprocessor/BatchMultiClassNonMaxSuppression/strided_slice/stack", "op": "Const", "attr": {"value": {"tensor": {"dtype": "DT_INT32", "tensorShape": {"dim": [{"size": "1"}]}}}, "dtype": {"type": "DT_INT32"}}}, {"name": "Postprocessor/BatchMultiClassNonMaxSuppression/strided_slice/stack_1", "op": "Const", "attr": {"value": {"tensor": {"dtype": "DT_INT32", "tensorShape": {"dim": [{"size": "1"}]}}}, "dtype": {"type": "DT_INT32"}}}, {"name": "Postprocessor/BatchMultiClassNonMaxSuppression/strided_slice/stack_2", "op": "Const", "attr": {"value": {"tensor": {"dtype": "DT_INT32", "tensorShape": {"dim": [{"size": "1"}]}}}, "dtype": {"type": "DT_INT32"}}}, {"name": "Postprocessor/BatchMultiClassNonMaxSuppression/ones/Const", "op": "Const", "attr": {"value": {"tensor": {"dtype": "DT_INT32", "tensorShape": {}}}, "dtype": {"type": "DT_INT32"}}}, {"name": "Postprocessor/BatchMultiClassNonMaxSuppression/strided_slice_1/stack", "op": "Const", "attr": {"value": {"tensor": {"dtype": "DT_INT32", "tensorShape": {"dim": [{"size": "1"}]}}}, "dtype": {"type": "DT_INT32"}}}, {"name": "Postprocessor/BatchMultiClassNonMaxSuppression/strided_slice_1/stack_1", "op": "Const", "attr": {"value": {"tensor": {"dtype": "DT_INT32", "tensorShape": {"dim": [{"size": "1"}]}}}, "dtype": {"type": "DT_INT32"}}}, {"name": "Postprocessor/BatchMultiClassNonMaxSuppression/strided_slice_1/stack_2", "op": "Const", "attr": {"value": {"tensor": {"dtype": "DT_INT32", "tensorShape": {"dim": [{"size": "1"}]}}}, "dtype": {"type": "DT_INT32"}}}, {"name": "Postprocessor/BatchMultiClassNonMaxSuppression/map/TensorArrayUnstack_3/range/start", "op": "Const", "attr": {"value": {"tensor": {"dtype": "DT_INT32", "tensorShape": {}}}, "dtype": {"type": "DT_INT32"}}}, {"name": "Postprocessor/BatchMultiClassNonMaxSuppression/map/TensorArrayUnstack_3/strided_slice/stack", "op": "Const", "attr": {"value": {"tensor": {"dtype": "DT_INT32", "tensorShape": {"dim": [{"size": "1"}]}}}, "dtype": {"type": "DT_INT32"}}}, {"name": "Postprocessor/BatchMultiClassNonMaxSuppression/map/TensorArrayUnstack_3/strided_slice/stack_1", "op": "Const", "attr": {"value": {"tensor": {"dtype": "DT_INT32", "tensorShape": {"dim": [{"size": "1"}]}}}, "dtype": {"type": "DT_INT32"}}}, {"name": "Postprocessor/BatchMultiClassNonMaxSuppression/map/TensorArrayUnstack_3/strided_slice/stack_2", "op": "Const", "attr": {"value": {"tensor": {"dtype": "DT_INT32", "tensorShape": {"dim": [{"size": "1"}]}}}, "dtype": {"type": "DT_INT32"}}}, {"name": "Postprocessor/BatchMultiClassNonMaxSuppression/map/TensorArrayUnstack_3/range/delta", "op": "Const", "attr": {"value": {"tensor": {"dtype": "DT_INT32", "tensorShape": {}}}, "dtype": {"type": "DT_INT32"}}}, {"name": "ConstantFolding/Postprocessor/truediv_recip", "op": "Const", "attr": {"value": {"tensor": {"dtype": "DT_FLOAT", "tensorShape": {}}}, "dtype": {"type": "DT_FLOAT"}}}, {"name": "Preprocessor/map/TensorArrayStack_1/range/start", "op": "Const", "attr": {"value": {"tensor": {"dtype": "DT_INT32", "tensorShape": {}}}, "dtype": {"type": "DT_INT32"}}}, {"name": "Preprocessor/map/TensorArrayStack_1/range/delta", "op": "Const", "attr": {"value": {"tensor": {"dtype": "DT_INT32", "tensorShape": {}}}, "dtype": {"type": "DT_INT32"}}}, {"name": "ConstantFolding/Postprocessor/truediv_1_recip", "op": "Const", "attr": {"value": {"tensor": {"dtype": "DT_FLOAT", "tensorShape": {}}}, "dtype": {"type": "DT_FLOAT"}}}, {"name": "Postprocessor/BatchMultiClassNonMaxSuppression/map/Const", "op": "Const", "attr": {"value": {"tensor": {"dtype": "DT_INT32", "tensorShape": {}}}, "dtype": {"type": "DT_INT32"}}}, {"name": "Postprocessor/BatchMultiClassNonMaxSuppression/map/while/iteration_counter", "op": "Const", "attr": {"value": {"tensor": {"dtype": "DT_INT32", "tensorShape": {}}}, "dtype": {"type": "DT_INT32"}}}, {"name": "Postprocessor/BatchMultiClassNonMaxSuppression/map/strided_slice/stack", "op": "Const", "attr": {"value": {"tensor": {"dtype": "DT_INT32", "tensorShape": {"dim": [{"size": "1"}]}}}, "dtype": {"type": "DT_INT32"}}}, {"name": "Postprocessor/BatchMultiClassNonMaxSuppression/map/strided_slice/stack_1", "op": "Const", "attr": {"value": {"tensor": {"dtype": "DT_INT32", "tensorShape": {"dim": [{"size": "1"}]}}}, "dtype": {"type": "DT_INT32"}}}, {"name": "Postprocessor/BatchMultiClassNonMaxSuppression/map/strided_slice/stack_2", "op": "Const", "attr": {"value": {"tensor": {"dtype": "DT_INT32", "tensorShape": {"dim": [{"size": "1"}]}}}, "dtype": {"type": "DT_INT32"}}}, {"name": "ConstantFolding/Postprocessor/Decode/truediv_4_recip", "op": "Const", "attr": {"value": {"tensor": {"dtype": "DT_FLOAT", "tensorShape": {}}}, "dtype": {"type": "DT_FLOAT"}}}, {"name": "ConstantFolding/Postprocessor/Decode/truediv_5_recip", "op": "Const", "attr": {"value": {"tensor": {"dtype": "DT_FLOAT", "tensorShape": {}}}, "dtype": {"type": "DT_FLOAT"}}}, {"name": "ConstantFolding/Postprocessor/Decode/truediv_recip", "op": "Const", "attr": {"value": {"tensor": {"dtype": "DT_FLOAT", "tensorShape": {}}}, "dtype": {"type": "DT_FLOAT"}}}, {"name": "ConstantFolding/Postprocessor/Decode/get_center_coordinates_and_sizes/truediv_recip", "op": "Const", "attr": {"value": {"tensor": {"dtype": "DT_FLOAT", "tensorShape": {}}}, "dtype": {"type": "DT_FLOAT"}}}, {"name": "ConstantFolding/Postprocessor/Decode/truediv_2_recip", "op": "Const", "attr": {"value": {"tensor": {"dtype": "DT_FLOAT", "tensorShape": {}}}, "dtype": {"type": "DT_FLOAT"}}}, {"name": "ConstantFolding/Postprocessor/Decode/truediv_6_recip", "op": "Const", "attr": {"value": {"tensor": {"dtype": "DT_FLOAT", "tensorShape": {}}}, "dtype": {"type": "DT_FLOAT"}}}, {"name": "ConstantFolding/Postprocessor/Decode/truediv_1_recip", "op": "Const", "attr": {"value": {"tensor": {"dtype": "DT_FLOAT", "tensorShape": {}}}, "dtype": {"type": "DT_FLOAT"}}}, {"name": "ConstantFolding/Postprocessor/Decode/get_center_coordinates_and_sizes/truediv_1_recip", "op": "Const", "attr": {"value": {"tensor": {"dtype": "DT_FLOAT", "tensorShape": {}}}, "dtype": {"type": "DT_FLOAT"}}}, {"name": "Postprocessor/Reshape_1/shape", "op": "Const", "attr": {"value": {"tensor": {"dtype": "DT_INT32", "tensorShape": {"dim": [{"size": "2"}]}}}, "dtype": {"type": "DT_INT32"}}}, {"name": "Postprocessor/Decode/transpose/perm", "op": "Const", "attr": {"value": {"tensor": {"dtype": "DT_INT32", "tensorShape": {"dim": [{"size": "2"}]}}}, "dtype": {"type": "DT_INT32"}}}, {"name": "ConstantFolding/Postprocessor/Decode/truediv_3_recip", "op": "Const", "attr": {"value": {"tensor": {"dtype": "DT_FLOAT", "tensorShape": {}}}, "dtype": {"type": "DT_FLOAT"}}}, {"name": "Postprocessor/ExpandDims", "op": "Const", "attr": {"value": {"tensor": {"dtype": "DT_FLOAT", "tensorShape": {"dim": [{"size": "1"}, {"size": "1917"}, {"size": "4"}]}}}, "dtype": {"type": "DT_FLOAT"}}}, {"name": "Postprocessor/Tile/multiples/1", "op": "Const", "attr": {"value": {"tensor": {"dtype": "DT_INT32", "tensorShape": {}}}, "dtype": {"type": "DT_INT32"}}}, {"name": "Postprocessor/Tile/multiples/2", "op": "Const", "attr": {"value": {"tensor": {"dtype": "DT_INT32", "tensorShape": {}}}, "dtype": {"type": "DT_INT32"}}}, {"name": "Postprocessor/Reshape/shape", "op": "Const", "attr": {"value": {"tensor": {"dtype": "DT_INT32", "tensorShape": {"dim": [{"size": "2"}]}}}, "dtype": {"type": "DT_INT32"}}}, {"name": "Postprocessor/Decode/get_center_coordinates_and_sizes/transpose/perm", "op": "Const", "attr": {"value": {"tensor": {"dtype": "DT_INT32", "tensorShape": {"dim": [{"size": "2"}]}}}, "dtype": {"type": "DT_INT32"}}}, {"name": "ConstantFolding/Postprocessor/Decode/truediv_7_recip", "op": "Const", "attr": {"value": {"tensor": {"dtype": "DT_FLOAT", "tensorShape": {}}}, "dtype": {"type": "DT_FLOAT"}}}, {"name": "Postprocessor/Decode/transpose_1/perm", "op": "Const", "attr": {"value": {"tensor": {"dtype": "DT_INT32", "tensorShape": {"dim": [{"size": "2"}]}}}, "dtype": {"type": "DT_INT32"}}}, {"name": "Postprocessor/strided_slice/stack", "op": "Const", "attr": {"value": {"tensor": {"dtype": "DT_INT32", "tensorShape": {"dim": [{"size": "1"}]}}}, "dtype": {"type": "DT_INT32"}}}, {"name": "Postprocessor/strided_slice/stack_1", "op": "Const", "attr": {"value": {"tensor": {"dtype": "DT_INT32", "tensorShape": {"dim": [{"size": "1"}]}}}, "dtype": {"type": "DT_INT32"}}}, {"name": "Postprocessor/strided_slice/stack_2", "op": "Const", "attr": {"value": {"tensor": {"dtype": "DT_INT32", "tensorShape": {"dim": [{"size": "1"}]}}}, "dtype": {"type": "DT_INT32"}}}, {"name": "BoxPredictor_0/BoxEncodingPredictor/weights", "op": "Const", "attr": {"value": {"tensor": {"dtype": "DT_FLOAT", "tensorShape": {"dim": [{"size": "3"}, {"size": "3"}, {"size": "576"}, {"size": "12"}]}}}, "dtype": {"type": "DT_FLOAT"}}}, {"name": "BoxPredictor_0/BoxEncodingPredictor/biases", "op": "Const", "attr": {"value": {"tensor": {"dtype": "DT_FLOAT", "tensorShape": {"dim": [{"size": "12"}]}}}, "dtype": {"type": "DT_FLOAT"}}}, {"name": "BoxPredictor_0/strided_slice/stack", "op": "Const", "attr": {"value": {"tensor": {"dtype": "DT_INT32", "tensorShape": {"dim": [{"size": "1"}]}}}, "dtype": {"type": "DT_INT32"}}}, {"name": "BoxPredictor_0/strided_slice/stack_1", "op": "Const", "attr": {"value": {"tensor": {"dtype": "DT_INT32", "tensorShape": {"dim": [{"size": "1"}]}}}, "dtype": {"type": "DT_INT32"}}}, {"name": "BoxPredictor_0/strided_slice/stack_2", "op": "Const", "attr": {"value": {"tensor": {"dtype": "DT_INT32", "tensorShape": {"dim": [{"size": "1"}]}}}, "dtype": {"type": "DT_INT32"}}}, {"name": "BoxPredictor_0/Reshape/shape/1", "op": "Const", "attr": {"value": {"tensor": {"dtype": "DT_INT32", "tensorShape": {}}}, "dtype": {"type": "DT_INT32"}}}, {"name": "BoxPredictor_0/Reshape/shape/2", "op": "Const", "attr": {"value": {"tensor": {"dtype": "DT_INT32", "tensorShape": {}}}, "dtype": {"type": "DT_INT32"}}}, {"name": "BoxPredictor_0/Reshape/shape/3", "op": "Const", "attr": {"value": {"tensor": {"dtype": "DT_INT32", "tensorShape": {}}}, "dtype": {"type": "DT_INT32"}}}, {"name": "BoxPredictor_1/BoxEncodingPredictor/weights", "op": "Const", "attr": {"value": {"tensor": {"dtype": "DT_FLOAT", "tensorShape": {"dim": [{"size": "3"}, {"size": "3"}, {"size": "1024"}, {"size": "24"}]}}}, "dtype": {"type": "DT_FLOAT"}}}, {"name": "BoxPredictor_1/BoxEncodingPredictor/biases", "op": "Const", "attr": {"value": {"tensor": {"dtype": "DT_FLOAT", "tensorShape": {"dim": [{"size": "24"}]}}}, "dtype": {"type": "DT_FLOAT"}}}, {"name": "BoxPredictor_1/strided_slice/stack", "op": "Const", "attr": {"value": {"tensor": {"dtype": "DT_INT32", "tensorShape": {"dim": [{"size": "1"}]}}}, "dtype": {"type": "DT_INT32"}}}, {"name": "BoxPredictor_1/strided_slice/stack_1", "op": "Const", "attr": {"value": {"tensor": {"dtype": "DT_INT32", "tensorShape": {"dim": [{"size": "1"}]}}}, "dtype": {"type": "DT_INT32"}}}, {"name": "BoxPredictor_1/strided_slice/stack_2", "op": "Const", "attr": {"value": {"tensor": {"dtype": "DT_INT32", "tensorShape": {"dim": [{"size": "1"}]}}}, "dtype": {"type": "DT_INT32"}}}, {"name": "BoxPredictor_1/Reshape/shape/1", "op": "Const", "attr": {"value": {"tensor": {"dtype": "DT_INT32", "tensorShape": {}}}, "dtype": {"type": "DT_INT32"}}}, {"name": "BoxPredictor_1/Reshape/shape/2", "op": "Const", "attr": {"value": {"tensor": {"dtype": "DT_INT32", "tensorShape": {}}}, "dtype": {"type": "DT_INT32"}}}, {"name": "BoxPredictor_1/Reshape/shape/3", "op": "Const", "attr": {"value": {"tensor": {"dtype": "DT_INT32", "tensorShape": {}}}, "dtype": {"type": "DT_INT32"}}}, {"name": "BoxPredictor_2/BoxEncodingPredictor/weights", "op": "Const", "attr": {"value": {"tensor": {"dtype": "DT_FLOAT", "tensorShape": {"dim": [{"size": "3"}, {"size": "3"}, {"size": "512"}, {"size": "24"}]}}}, "dtype": {"type": "DT_FLOAT"}}}, {"name": "BoxPredictor_2/BoxEncodingPredictor/biases", "op": "Const", "attr": {"value": {"tensor": {"dtype": "DT_FLOAT", "tensorShape": {"dim": [{"size": "24"}]}}}, "dtype": {"type": "DT_FLOAT"}}}, {"name": "BoxPredictor_2/strided_slice/stack", "op": "Const", "attr": {"value": {"tensor": {"dtype": "DT_INT32", "tensorShape": {"dim": [{"size": "1"}]}}}, "dtype": {"type": "DT_INT32"}}}, {"name": "BoxPredictor_2/strided_slice/stack_1", "op": "Const", "attr": {"value": {"tensor": {"dtype": "DT_INT32", "tensorShape": {"dim": [{"size": "1"}]}}}, "dtype": {"type": "DT_INT32"}}}, {"name": "BoxPredictor_2/strided_slice/stack_2", "op": "Const", "attr": {"value": {"tensor": {"dtype": "DT_INT32", "tensorShape": {"dim": [{"size": "1"}]}}}, "dtype": {"type": "DT_INT32"}}}, {"name": "BoxPredictor_2/Reshape/shape/1", "op": "Const", "attr": {"value": {"tensor": {"dtype": "DT_INT32", "tensorShape": {}}}, "dtype": {"type": "DT_INT32"}}}, {"name": "BoxPredictor_2/Reshape/shape/2", "op": "Const", "attr": {"value": {"tensor": {"dtype": "DT_INT32", "tensorShape": {}}}, "dtype": {"type": "DT_INT32"}}}, {"name": "BoxPredictor_2/Reshape/shape/3", "op": "Const", "attr": {"value": {"tensor": {"dtype": "DT_INT32", "tensorShape": {}}}, "dtype": {"type": "DT_INT32"}}}, {"name": "BoxPredictor_3/BoxEncodingPredictor/weights", "op": "Const", "attr": {"value": {"tensor": {"dtype": "DT_FLOAT", "tensorShape": {"dim": [{"size": "3"}, {"size": "3"}, {"size": "256"}, {"size": "24"}]}}}, "dtype": {"type": "DT_FLOAT"}}}, {"name": "BoxPredictor_3/BoxEncodingPredictor/biases", "op": "Const", "attr": {"value": {"tensor": {"dtype": "DT_FLOAT", "tensorShape": {"dim": [{"size": "24"}]}}}, "dtype": {"type": "DT_FLOAT"}}}, {"name": "BoxPredictor_3/strided_slice/stack", "op": "Const", "attr": {"value": {"tensor": {"dtype": "DT_INT32", "tensorShape": {"dim": [{"size": "1"}]}}}, "dtype": {"type": "DT_INT32"}}}, {"name": "BoxPredictor_3/strided_slice/stack_1", "op": "Const", "attr": {"value": {"tensor": {"dtype": "DT_INT32", "tensorShape": {"dim": [{"size": "1"}]}}}, "dtype": {"type": "DT_INT32"}}}, {"name": "BoxPredictor_3/strided_slice/stack_2", "op": "Const", "attr": {"value": {"tensor": {"dtype": "DT_INT32", "tensorShape": {"dim": [{"size": "1"}]}}}, "dtype": {"type": "DT_INT32"}}}, {"name": "BoxPredictor_3/Reshape/shape/1", "op": "Const", "attr": {"value": {"tensor": {"dtype": "DT_INT32", "tensorShape": {}}}, "dtype": {"type": "DT_INT32"}}}, {"name": "BoxPredictor_3/Reshape/shape/2", "op": "Const", "attr": {"value": {"tensor": {"dtype": "DT_INT32", "tensorShape": {}}}, "dtype": {"type": "DT_INT32"}}}, {"name": "BoxPredictor_3/Reshape/shape/3", "op": "Const", "attr": {"value": {"tensor": {"dtype": "DT_INT32", "tensorShape": {}}}, "dtype": {"type": "DT_INT32"}}}, {"name": "BoxPredictor_4/BoxEncodingPredictor/weights", "op": "Const", "attr": {"value": {"tensor": {"dtype": "DT_FLOAT", "tensorShape": {"dim": [{"size": "3"}, {"size": "3"}, {"size": "256"}, {"size": "24"}]}}}, "dtype": {"type": "DT_FLOAT"}}}, {"name": "BoxPredictor_4/BoxEncodingPredictor/biases", "op": "Const", "attr": {"value": {"tensor": {"dtype": "DT_FLOAT", "tensorShape": {"dim": [{"size": "24"}]}}}, "dtype": {"type": "DT_FLOAT"}}}, {"name": "BoxPredictor_4/strided_slice/stack", "op": "Const", "attr": {"value": {"tensor": {"dtype": "DT_INT32", "tensorShape": {"dim": [{"size": "1"}]}}}, "dtype": {"type": "DT_INT32"}}}, {"name": "BoxPredictor_4/strided_slice/stack_1", "op": "Const", "attr": {"value": {"tensor": {"dtype": "DT_INT32", "tensorShape": {"dim": [{"size": "1"}]}}}, "dtype": {"type": "DT_INT32"}}}, {"name": "BoxPredictor_4/strided_slice/stack_2", "op": "Const", "attr": {"value": {"tensor": {"dtype": "DT_INT32", "tensorShape": {"dim": [{"size": "1"}]}}}, "dtype": {"type": "DT_INT32"}}}, {"name": "BoxPredictor_4/Reshape/shape/1", "op": "Const", "attr": {"value": {"tensor": {"dtype": "DT_INT32", "tensorShape": {}}}, "dtype": {"type": "DT_INT32"}}}, {"name": "BoxPredictor_4/Reshape/shape/2", "op": "Const", "attr": {"value": {"tensor": {"dtype": "DT_INT32", "tensorShape": {}}}, "dtype": {"type": "DT_INT32"}}}, {"name": "BoxPredictor_4/Reshape/shape/3", "op": "Const", "attr": {"value": {"tensor": {"dtype": "DT_INT32", "tensorShape": {}}}, "dtype": {"type": "DT_INT32"}}}, {"name": "BoxPredictor_5/BoxEncodingPredictor/weights", "op": "Const", "attr": {"value": {"tensor": {"dtype": "DT_FLOAT", "tensorShape": {"dim": [{"size": "3"}, {"size": "3"}, {"size": "128"}, {"size": "24"}]}}}, "dtype": {"type": "DT_FLOAT"}}}, {"name": "BoxPredictor_5/BoxEncodingPredictor/biases", "op": "Const", "attr": {"value": {"tensor": {"dtype": "DT_FLOAT", "tensorShape": {"dim": [{"size": "24"}]}}}, "dtype": {"type": "DT_FLOAT"}}}, {"name": "BoxPredictor_5/strided_slice/stack", "op": "Const", "attr": {"value": {"tensor": {"dtype": "DT_INT32", "tensorShape": {"dim": [{"size": "1"}]}}}, "dtype": {"type": "DT_INT32"}}}, {"name": "BoxPredictor_5/strided_slice/stack_1", "op": "Const", "attr": {"value": {"tensor": {"dtype": "DT_INT32", "tensorShape": {"dim": [{"size": "1"}]}}}, "dtype": {"type": "DT_INT32"}}}, {"name": "BoxPredictor_5/strided_slice/stack_2", "op": "Const", "attr": {"value": {"tensor": {"dtype": "DT_INT32", "tensorShape": {"dim": [{"size": "1"}]}}}, "dtype": {"type": "DT_INT32"}}}, {"name": "BoxPredictor_5/Reshape/shape/1", "op": "Const", "attr": {"value": {"tensor": {"dtype": "DT_INT32", "tensorShape": {}}}, "dtype": {"type": "DT_INT32"}}}, {"name": "BoxPredictor_5/Reshape/shape/2", "op": "Const", "attr": {"value": {"tensor": {"dtype": "DT_INT32", "tensorShape": {}}}, "dtype": {"type": "DT_INT32"}}}, {"name": "BoxPredictor_5/Reshape/shape/3", "op": "Const", "attr": {"value": {"tensor": {"dtype": "DT_INT32", "tensorShape": {}}}, "dtype": {"type": "DT_INT32"}}}, {"name": "concat/axis", "op": "Const", "attr": {"value": {"tensor": {"dtype": "DT_INT32", "tensorShape": {}}}, "dtype": {"type": "DT_INT32"}}}, {"name": "Postprocessor/strided_slice_1/stack", "op": "Const", "attr": {"value": {"tensor": {"dtype": "DT_INT32", "tensorShape": {"dim": [{"size": "1"}]}}}, "dtype": {"type": "DT_INT32"}}}, {"name": "Postprocessor/strided_slice_1/stack_1", "op": "Const", "attr": {"value": {"tensor": {"dtype": "DT_INT32", "tensorShape": {"dim": [{"size": "1"}]}}}, "dtype": {"type": "DT_INT32"}}}, {"name": "Postprocessor/strided_slice_1/stack_2", "op": "Const", "attr": {"value": {"tensor": {"dtype": "DT_INT32", "tensorShape": {"dim": [{"size": "1"}]}}}, "dtype": {"type": "DT_INT32"}}}, {"name": "Postprocessor/stack/2", "op": "Const", "attr": {"value": {"tensor": {"dtype": "DT_INT32", "tensorShape": {}}}, "dtype": {"type": "DT_INT32"}}}, {"name": "Postprocessor/ExpandDims_1/dim", "op": "Const", "attr": {"value": {"tensor": {"dtype": "DT_INT32", "tensorShape": {}}}, "dtype": {"type": "DT_INT32"}}}, {"name": "BoxPredictor_0/ClassPredictor/weights", "op": "Const", "attr": {"value": {"tensor": {"dtype": "DT_FLOAT", "tensorShape": {"dim": [{"size": "3"}, {"size": "3"}, {"size": "576"}, {"size": "21"}]}}}, "dtype": {"type": "DT_FLOAT"}}}, {"name": "BoxPredictor_0/ClassPredictor/biases", "op": "Const", "attr": {"value": {"tensor": {"dtype": "DT_FLOAT", "tensorShape": {"dim": [{"size": "21"}]}}}, "dtype": {"type": "DT_FLOAT"}}}, {"name": "BoxPredictor_0/strided_slice_1/stack", "op": "Const", "attr": {"value": {"tensor": {"dtype": "DT_INT32", "tensorShape": {"dim": [{"size": "1"}]}}}, "dtype": {"type": "DT_INT32"}}}, {"name": "BoxPredictor_0/strided_slice_1/stack_1", "op": "Const", "attr": {"value": {"tensor": {"dtype": "DT_INT32", "tensorShape": {"dim": [{"size": "1"}]}}}, "dtype": {"type": "DT_INT32"}}}, {"name": "BoxPredictor_0/strided_slice_1/stack_2", "op": "Const", "attr": {"value": {"tensor": {"dtype": "DT_INT32", "tensorShape": {"dim": [{"size": "1"}]}}}, "dtype": {"type": "DT_INT32"}}}, {"name": "BoxPredictor_0/Reshape_1/shape/1", "op": "Const", "attr": {"value": {"tensor": {"dtype": "DT_INT32", "tensorShape": {}}}, "dtype": {"type": "DT_INT32"}}}, {"name": "BoxPredictor_0/Reshape_1/shape/2", "op": "Const", "attr": {"value": {"tensor": {"dtype": "DT_INT32", "tensorShape": {}}}, "dtype": {"type": "DT_INT32"}}}, {"name": "BoxPredictor_1/ClassPredictor/weights", "op": "Const", "attr": {"value": {"tensor": {"dtype": "DT_FLOAT", "tensorShape": {"dim": [{"size": "3"}, {"size": "3"}, {"size": "1024"}, {"size": "42"}]}}}, "dtype": {"type": "DT_FLOAT"}}}, {"name": "BoxPredictor_1/ClassPredictor/biases", "op": "Const", "attr": {"value": {"tensor": {"dtype": "DT_FLOAT", "tensorShape": {"dim": [{"size": "42"}]}}}, "dtype": {"type": "DT_FLOAT"}}}, {"name": "BoxPredictor_1/strided_slice_1/stack", "op": "Const", "attr": {"value": {"tensor": {"dtype": "DT_INT32", "tensorShape": {"dim": [{"size": "1"}]}}}, "dtype": {"type": "DT_INT32"}}}, {"name": "BoxPredictor_1/strided_slice_1/stack_1", "op": "Const", "attr": {"value": {"tensor": {"dtype": "DT_INT32", "tensorShape": {"dim": [{"size": "1"}]}}}, "dtype": {"type": "DT_INT32"}}}, {"name": "BoxPredictor_1/strided_slice_1/stack_2", "op": "Const", "attr": {"value": {"tensor": {"dtype": "DT_INT32", "tensorShape": {"dim": [{"size": "1"}]}}}, "dtype": {"type": "DT_INT32"}}}, {"name": "BoxPredictor_1/Reshape_1/shape/1", "op": "Const", "attr": {"value": {"tensor": {"dtype": "DT_INT32", "tensorShape": {}}}, "dtype": {"type": "DT_INT32"}}}, {"name": "BoxPredictor_1/Reshape_1/shape/2", "op": "Const", "attr": {"value": {"tensor": {"dtype": "DT_INT32", "tensorShape": {}}}, "dtype": {"type": "DT_INT32"}}}, {"name": "BoxPredictor_2/ClassPredictor/weights", "op": "Const", "attr": {"value": {"tensor": {"dtype": "DT_FLOAT", "tensorShape": {"dim": [{"size": "3"}, {"size": "3"}, {"size": "512"}, {"size": "42"}]}}}, "dtype": {"type": "DT_FLOAT"}}}, {"name": "BoxPredictor_2/ClassPredictor/biases", "op": "Const", "attr": {"value": {"tensor": {"dtype": "DT_FLOAT", "tensorShape": {"dim": [{"size": "42"}]}}}, "dtype": {"type": "DT_FLOAT"}}}, {"name": "BoxPredictor_2/strided_slice_1/stack", "op": "Const", "attr": {"value": {"tensor": {"dtype": "DT_INT32", "tensorShape": {"dim": [{"size": "1"}]}}}, "dtype": {"type": "DT_INT32"}}}, {"name": "BoxPredictor_2/strided_slice_1/stack_1", "op": "Const", "attr": {"value": {"tensor": {"dtype": "DT_INT32", "tensorShape": {"dim": [{"size": "1"}]}}}, "dtype": {"type": "DT_INT32"}}}, {"name": "BoxPredictor_2/strided_slice_1/stack_2", "op": "Const", "attr": {"value": {"tensor": {"dtype": "DT_INT32", "tensorShape": {"dim": [{"size": "1"}]}}}, "dtype": {"type": "DT_INT32"}}}, {"name": "BoxPredictor_2/Reshape_1/shape/1", "op": "Const", "attr": {"value": {"tensor": {"dtype": "DT_INT32", "tensorShape": {}}}, "dtype": {"type": "DT_INT32"}}}, {"name": "BoxPredictor_2/Reshape_1/shape/2", "op": "Const", "attr": {"value": {"tensor": {"dtype": "DT_INT32", "tensorShape": {}}}, "dtype": {"type": "DT_INT32"}}}, {"name": "BoxPredictor_3/ClassPredictor/weights", "op": "Const", "attr": {"value": {"tensor": {"dtype": "DT_FLOAT", "tensorShape": {"dim": [{"size": "3"}, {"size": "3"}, {"size": "256"}, {"size": "42"}]}}}, "dtype": {"type": "DT_FLOAT"}}}, {"name": "BoxPredictor_3/ClassPredictor/biases", "op": "Const", "attr": {"value": {"tensor": {"dtype": "DT_FLOAT", "tensorShape": {"dim": [{"size": "42"}]}}}, "dtype": {"type": "DT_FLOAT"}}}, {"name": "BoxPredictor_3/strided_slice_1/stack", "op": "Const", "attr": {"value": {"tensor": {"dtype": "DT_INT32", "tensorShape": {"dim": [{"size": "1"}]}}}, "dtype": {"type": "DT_INT32"}}}, {"name": "BoxPredictor_3/strided_slice_1/stack_1", "op": "Const", "attr": {"value": {"tensor": {"dtype": "DT_INT32", "tensorShape": {"dim": [{"size": "1"}]}}}, "dtype": {"type": "DT_INT32"}}}, {"name": "BoxPredictor_3/strided_slice_1/stack_2", "op": "Const", "attr": {"value": {"tensor": {"dtype": "DT_INT32", "tensorShape": {"dim": [{"size": "1"}]}}}, "dtype": {"type": "DT_INT32"}}}, {"name": "BoxPredictor_3/Reshape_1/shape/1", "op": "Const", "attr": {"value": {"tensor": {"dtype": "DT_INT32", "tensorShape": {}}}, "dtype": {"type": "DT_INT32"}}}, {"name": "BoxPredictor_3/Reshape_1/shape/2", "op": "Const", "attr": {"value": {"tensor": {"dtype": "DT_INT32", "tensorShape": {}}}, "dtype": {"type": "DT_INT32"}}}, {"name": "BoxPredictor_4/ClassPredictor/weights", "op": "Const", "attr": {"value": {"tensor": {"dtype": "DT_FLOAT", "tensorShape": {"dim": [{"size": "3"}, {"size": "3"}, {"size": "256"}, {"size": "42"}]}}}, "dtype": {"type": "DT_FLOAT"}}}, {"name": "BoxPredictor_4/ClassPredictor/biases", "op": "Const", "attr": {"value": {"tensor": {"dtype": "DT_FLOAT", "tensorShape": {"dim": [{"size": "42"}]}}}, "dtype": {"type": "DT_FLOAT"}}}, {"name": "BoxPredictor_4/strided_slice_1/stack", "op": "Const", "attr": {"value": {"tensor": {"dtype": "DT_INT32", "tensorShape": {"dim": [{"size": "1"}]}}}, "dtype": {"type": "DT_INT32"}}}, {"name": "BoxPredictor_4/strided_slice_1/stack_1", "op": "Const", "attr": {"value": {"tensor": {"dtype": "DT_INT32", "tensorShape": {"dim": [{"size": "1"}]}}}, "dtype": {"type": "DT_INT32"}}}, {"name": "BoxPredictor_4/strided_slice_1/stack_2", "op": "Const", "attr": {"value": {"tensor": {"dtype": "DT_INT32", "tensorShape": {"dim": [{"size": "1"}]}}}, "dtype": {"type": "DT_INT32"}}}, {"name": "BoxPredictor_4/Reshape_1/shape/1", "op": "Const", "attr": {"value": {"tensor": {"dtype": "DT_INT32", "tensorShape": {}}}, "dtype": {"type": "DT_INT32"}}}, {"name": "BoxPredictor_4/Reshape_1/shape/2", "op": "Const", "attr": {"value": {"tensor": {"dtype": "DT_INT32", "tensorShape": {}}}, "dtype": {"type": "DT_INT32"}}}, {"name": "BoxPredictor_5/ClassPredictor/weights", "op": "Const", "attr": {"value": {"tensor": {"dtype": "DT_FLOAT", "tensorShape": {"dim": [{"size": "3"}, {"size": "3"}, {"size": "128"}, {"size": "42"}]}}}, "dtype": {"type": "DT_FLOAT"}}}, {"name": "BoxPredictor_5/ClassPredictor/biases", "op": "Const", "attr": {"value": {"tensor": {"dtype": "DT_FLOAT", "tensorShape": {"dim": [{"size": "42"}]}}}, "dtype": {"type": "DT_FLOAT"}}}, {"name": "Preprocessor/map/TensorArrayStack/range/start", "op": "Const", "attr": {"value": {"tensor": {"dtype": "DT_INT32", "tensorShape": {}}}, "dtype": {"type": "DT_INT32"}}}, {"name": "Preprocessor/map/TensorArrayStack/range/delta", "op": "Const", "attr": {"value": {"tensor": {"dtype": "DT_INT32", "tensorShape": {}}}, "dtype": {"type": "DT_INT32"}}}, {"name": "Preprocessor/map/TensorArrayUnstack/range/start", "op": "Const", "attr": {"value": {"tensor": {"dtype": "DT_INT32", "tensorShape": {}}}, "dtype": {"type": "DT_INT32"}}}, {"name": "Preprocessor/map/TensorArrayUnstack/strided_slice/stack", "op": "Const", "attr": {"value": {"tensor": {"dtype": "DT_INT32", "tensorShape": {"dim": [{"size": "1"}]}}}, "dtype": {"type": "DT_INT32"}}}, {"name": "Preprocessor/map/TensorArrayUnstack/strided_slice/stack_1", "op": "Const", "attr": {"value": {"tensor": {"dtype": "DT_INT32", "tensorShape": {"dim": [{"size": "1"}]}}}, "dtype": {"type": "DT_INT32"}}}, {"name": "Preprocessor/map/TensorArrayUnstack/strided_slice/stack_2", "op": "Const", "attr": {"value": {"tensor": {"dtype": "DT_INT32", "tensorShape": {"dim": [{"size": "1"}]}}}, "dtype": {"type": "DT_INT32"}}}, {"name": "Preprocessor/map/TensorArrayUnstack/range/delta", "op": "Const", "attr": {"value": {"tensor": {"dtype": "DT_INT32", "tensorShape": {}}}, "dtype": {"type": "DT_INT32"}}}, {"name": "Preprocessor/map/Const", "op": "Const", "attr": {"value": {"tensor": {"dtype": "DT_INT32", "tensorShape": {}}}, "dtype": {"type": "DT_INT32"}}}, {"name": "Preprocessor/map/while/iteration_counter", "op": "Const", "attr": {"value": {"tensor": {"dtype": "DT_INT32", "tensorShape": {}}}, "dtype": {"type": "DT_INT32"}}}, {"name": "Preprocessor/mul/x", "op": "Const", "attr": {"value": {"tensor": {"dtype": "DT_FLOAT", "tensorShape": {}}}, "dtype": {"type": "DT_FLOAT"}}}, {"name": "image_tensor", "op": "Placeholder", "attr": {"shape": {"shape": {"dim": [{"size": "-1"}, {"size": "-1"}, {"size": "-1"}, {"size": "3"}]}}, "dtype": {"type": "DT_UINT8"}}}, {"name": "Preprocessor/sub/y", "op": "Const", "attr": {"value": {"tensor": {"dtype": "DT_FLOAT", "tensorShape": {}}}, "dtype": {"type": "DT_FLOAT"}}}, {"name": "Preprocessor/map/strided_slice/stack", "op": "Const", "attr": {"value": {"tensor": {"dtype": "DT_INT32", "tensorShape": {"dim": [{"size": "1"}]}}}, "dtype": {"type": "DT_INT32"}}}, {"name": "Preprocessor/map/strided_slice/stack_1", "op": "Const", "attr": {"value": {"tensor": {"dtype": "DT_INT32", "tensorShape": {"dim": [{"size": "1"}]}}}, "dtype": {"type": "DT_INT32"}}}, {"name": "Preprocessor/map/strided_slice/stack_2", "op": "Const", "attr": {"value": {"tensor": {"dtype": "DT_INT32", "tensorShape": {"dim": [{"size": "1"}]}}}, "dtype": {"type": "DT_INT32"}}}, {"name": "FeatureExtractor/InceptionV2/Conv2d_1a_7x7/depthwise_weights", "op": "Const", "attr": {"value": {"tensor": {"dtype": "DT_FLOAT", "tensorShape": {"dim": [{"size": "7"}, {"size": "7"}, {"size": "3"}, {"size": "8"}]}}}, "dtype": {"type": "DT_FLOAT"}}}, {"name": "FeatureExtractor/InceptionV2/InceptionV2/Mixed_3b/concat/axis", "op": "Const", "attr": {"value": {"tensor": {"dtype": "DT_INT32", "tensorShape": {}}}, "dtype": {"type": "DT_INT32"}}}, {"name": "FeatureExtractor/InceptionV2/InceptionV2/Mixed_3c/concat/axis", "op": "Const", "attr": {"value": {"tensor": {"dtype": "DT_INT32", "tensorShape": {}}}, "dtype": {"type": "DT_INT32"}}}, {"name": "FeatureExtractor/InceptionV2/InceptionV2/Mixed_4a/concat/axis", "op": "Const", "attr": {"value": {"tensor": {"dtype": "DT_INT32", "tensorShape": {}}}, "dtype": {"type": "DT_INT32"}}}, {"name": "FeatureExtractor/InceptionV2/InceptionV2/Mixed_4b/concat/axis", "op": "Const", "attr": {"value": {"tensor": {"dtype": "DT_INT32", "tensorShape": {}}}, "dtype": {"type": "DT_INT32"}}}, {"name": "FeatureExtractor/InceptionV2/InceptionV2/Mixed_4c/concat/axis", "op": "Const", "attr": {"value": {"tensor": {"dtype": "DT_INT32", "tensorShape": {}}}, "dtype": {"type": "DT_INT32"}}}, {"name": "FeatureExtractor/InceptionV2/InceptionV2/Mixed_4d/concat/axis", "op": "Const", "attr": {"value": {"tensor": {"dtype": "DT_INT32", "tensorShape": {}}}, "dtype": {"type": "DT_INT32"}}}, {"name": "FeatureExtractor/InceptionV2/InceptionV2/Mixed_4e/concat/axis", "op": "Const", "attr": {"value": {"tensor": {"dtype": "DT_INT32", "tensorShape": {}}}, "dtype": {"type": "DT_INT32"}}}, {"name": "FeatureExtractor/InceptionV2/InceptionV2/Mixed_5a/concat/axis", "op": "Const", "attr": {"value": {"tensor": {"dtype": "DT_INT32", "tensorShape": {}}}, "dtype": {"type": "DT_INT32"}}}, {"name": "FeatureExtractor/InceptionV2/InceptionV2/Mixed_5b/concat/axis", "op": "Const", "attr": {"value": {"tensor": {"dtype": "DT_INT32", "tensorShape": {}}}, "dtype": {"type": "DT_INT32"}}}, {"name": "FeatureExtractor/InceptionV2/InceptionV2/Mixed_5c/concat/axis", "op": "Const", "attr": {"value": {"tensor": {"dtype": "DT_INT32", "tensorShape": {}}}, "dtype": {"type": "DT_INT32"}}}, {"name": "BoxPredictor_5/strided_slice_1/stack", "op": "Const", "attr": {"value": {"tensor": {"dtype": "DT_INT32", "tensorShape": {"dim": [{"size": "1"}]}}}, "dtype": {"type": "DT_INT32"}}}, {"name": "BoxPredictor_5/strided_slice_1/stack_1", "op": "Const", "attr": {"value": {"tensor": {"dtype": "DT_INT32", "tensorShape": {"dim": [{"size": "1"}]}}}, "dtype": {"type": "DT_INT32"}}}, {"name": "BoxPredictor_5/strided_slice_1/stack_2", "op": "Const", "attr": {"value": {"tensor": {"dtype": "DT_INT32", "tensorShape": {"dim": [{"size": "1"}]}}}, "dtype": {"type": "DT_INT32"}}}, {"name": "BoxPredictor_5/Reshape_1/shape/1", "op": "Const", "attr": {"value": {"tensor": {"dtype": "DT_INT32", "tensorShape": {}}}, "dtype": {"type": "DT_INT32"}}}, {"name": "BoxPredictor_5/Reshape_1/shape/2", "op": "Const", "attr": {"value": {"tensor": {"dtype": "DT_INT32", "tensorShape": {}}}, "dtype": {"type": "DT_INT32"}}}, {"name": "concat_1/axis", "op": "Const", "attr": {"value": {"tensor": {"dtype": "DT_INT32", "tensorShape": {}}}, "dtype": {"type": "DT_INT32"}}}, {"name": "FeatureExtractor/InceptionV2/InceptionV2/Conv2d_1a_7x7/separable_conv2d_weights", "op": "Const", "attr": {"value": {"tensor": {"dtype": "DT_FLOAT", "tensorShape": {"dim": [{"size": "1"}, {"size": "1"}, {"size": "24"}, {"size": "64"}]}}}, "dtype": {"type": "DT_FLOAT"}}}, {"name": "FeatureExtractor/InceptionV2/InceptionV2/Conv2d_1a_7x7/separable_conv2d_bn_offset", "op": "Const", "attr": {"value": {"tensor": {"dtype": "DT_FLOAT", "tensorShape": {"dim": [{"size": "64"}]}}}, "dtype": {"type": "DT_FLOAT"}}}, {"name": "FeatureExtractor/InceptionV2/InceptionV2/Conv2d_2b_1x1/Conv2D_weights", "op": "Const", "attr": {"value": {"tensor": {"dtype": "DT_FLOAT", "tensorShape": {"dim": [{"size": "1"}, {"size": "1"}, {"size": "64"}, {"size": "64"}]}}}, "dtype": {"type": "DT_FLOAT"}}}, {"name": "FeatureExtractor/InceptionV2/InceptionV2/Conv2d_2b_1x1/Conv2D_bn_offset", "op": "Const", "attr": {"value": {"tensor": {"dtype": "DT_FLOAT", "tensorShape": {"dim": [{"size": "64"}]}}}, "dtype": {"type": "DT_FLOAT"}}}, {"name": "FeatureExtractor/InceptionV2/InceptionV2/Conv2d_2c_3x3/Conv2D_weights", "op": "Const", "attr": {"value": {"tensor": {"dtype": "DT_FLOAT", "tensorShape": {"dim": [{"size": "3"}, {"size": "3"}, {"size": "64"}, {"size": "192"}]}}}, "dtype": {"type": "DT_FLOAT"}}}, {"name": "FeatureExtractor/InceptionV2/InceptionV2/Conv2d_2c_3x3/Conv2D_bn_offset", "op": "Const", "attr": {"value": {"tensor": {"dtype": "DT_FLOAT", "tensorShape": {"dim": [{"size": "192"}]}}}, "dtype": {"type": "DT_FLOAT"}}}, {"name": "FeatureExtractor/InceptionV2/InceptionV2/Mixed_3b/Branch_0/Conv2d_0a_1x1/Conv2D_weights", "op": "Const", "attr": {"value": {"tensor": {"dtype": "DT_FLOAT", "tensorShape": {"dim": [{"size": "1"}, {"size": "1"}, {"size": "192"}, {"size": "64"}]}}}, "dtype": {"type": "DT_FLOAT"}}}, {"name": "FeatureExtractor/InceptionV2/InceptionV2/Mixed_3b/Branch_0/Conv2d_0a_1x1/Conv2D_bn_offset", "op": "Const", "attr": {"value": {"tensor": {"dtype": "DT_FLOAT", "tensorShape": {"dim": [{"size": "64"}]}}}, "dtype": {"type": "DT_FLOAT"}}}, {"name": "FeatureExtractor/InceptionV2/InceptionV2/Mixed_3b/Branch_1/Conv2d_0a_1x1/Conv2D_weights", "op": "Const", "attr": {"value": {"tensor": {"dtype": "DT_FLOAT", "tensorShape": {"dim": [{"size": "1"}, {"size": "1"}, {"size": "192"}, {"size": "64"}]}}}, "dtype": {"type": "DT_FLOAT"}}}, {"name": "FeatureExtractor/InceptionV2/InceptionV2/Mixed_3b/Branch_1/Conv2d_0a_1x1/Conv2D_bn_offset", "op": "Const", "attr": {"value": {"tensor": {"dtype": "DT_FLOAT", "tensorShape": {"dim": [{"size": "64"}]}}}, "dtype": {"type": "DT_FLOAT"}}}, {"name": "FeatureExtractor/InceptionV2/InceptionV2/Mixed_3b/Branch_2/Conv2d_0a_1x1/Conv2D_weights", "op": "Const", "attr": {"value": {"tensor": {"dtype": "DT_FLOAT", "tensorShape": {"dim": [{"size": "1"}, {"size": "1"}, {"size": "192"}, {"size": "64"}]}}}, "dtype": {"type": "DT_FLOAT"}}}, {"name": "FeatureExtractor/InceptionV2/InceptionV2/Mixed_3b/Branch_2/Conv2d_0a_1x1/Conv2D_bn_offset", "op": "Const", "attr": {"value": {"tensor": {"dtype": "DT_FLOAT", "tensorShape": {"dim": [{"size": "64"}]}}}, "dtype": {"type": "DT_FLOAT"}}}, {"name": "FeatureExtractor/InceptionV2/InceptionV2/Mixed_3b/Branch_3/Conv2d_0b_1x1/Conv2D_weights", "op": "Const", "attr": {"value": {"tensor": {"dtype": "DT_FLOAT", "tensorShape": {"dim": [{"size": "1"}, {"size": "1"}, {"size": "192"}, {"size": "32"}]}}}, "dtype": {"type": "DT_FLOAT"}}}, {"name": "FeatureExtractor/InceptionV2/InceptionV2/Mixed_3b/Branch_3/Conv2d_0b_1x1/Conv2D_bn_offset", "op": "Const", "attr": {"value": {"tensor": {"dtype": "DT_FLOAT", "tensorShape": {"dim": [{"size": "32"}]}}}, "dtype": {"type": "DT_FLOAT"}}}, {"name": "FeatureExtractor/InceptionV2/InceptionV2/Mixed_3b/Branch_1/Conv2d_0b_3x3/Conv2D_weights", "op": "Const", "attr": {"value": {"tensor": {"dtype": "DT_FLOAT", "tensorShape": {"dim": [{"size": "3"}, {"size": "3"}, {"size": "64"}, {"size": "64"}]}}}, "dtype": {"type": "DT_FLOAT"}}}, {"name": "FeatureExtractor/InceptionV2/InceptionV2/Mixed_3b/Branch_1/Conv2d_0b_3x3/Conv2D_bn_offset", "op": "Const", "attr": {"value": {"tensor": {"dtype": "DT_FLOAT", "tensorShape": {"dim": [{"size": "64"}]}}}, "dtype": {"type": "DT_FLOAT"}}}, {"name": "FeatureExtractor/InceptionV2/InceptionV2/Mixed_3b/Branch_2/Conv2d_0b_3x3/Conv2D_weights", "op": "Const", "attr": {"value": {"tensor": {"dtype": "DT_FLOAT", "tensorShape": {"dim": [{"size": "3"}, {"size": "3"}, {"size": "64"}, {"size": "96"}]}}}, "dtype": {"type": "DT_FLOAT"}}}, {"name": "FeatureExtractor/InceptionV2/InceptionV2/Mixed_3b/Branch_2/Conv2d_0b_3x3/Conv2D_bn_offset", "op": "Const", "attr": {"value": {"tensor": {"dtype": "DT_FLOAT", "tensorShape": {"dim": [{"size": "96"}]}}}, "dtype": {"type": "DT_FLOAT"}}}, {"name": "FeatureExtractor/InceptionV2/InceptionV2/Mixed_3b/Branch_2/Conv2d_0c_3x3/Conv2D_weights", "op": "Const", "attr": {"value": {"tensor": {"dtype": "DT_FLOAT", "tensorShape": {"dim": [{"size": "3"}, {"size": "3"}, {"size": "96"}, {"size": "96"}]}}}, "dtype": {"type": "DT_FLOAT"}}}, {"name": "FeatureExtractor/InceptionV2/InceptionV2/Mixed_3b/Branch_2/Conv2d_0c_3x3/Conv2D_bn_offset", "op": "Const", "attr": {"value": {"tensor": {"dtype": "DT_FLOAT", "tensorShape": {"dim": [{"size": "96"}]}}}, "dtype": {"type": "DT_FLOAT"}}}, {"name": "FeatureExtractor/InceptionV2/InceptionV2/Mixed_3c/Branch_0/Conv2d_0a_1x1/Conv2D_weights", "op": "Const", "attr": {"value": {"tensor": {"dtype": "DT_FLOAT", "tensorShape": {"dim": [{"size": "1"}, {"size": "1"}, {"size": "256"}, {"size": "64"}]}}}, "dtype": {"type": "DT_FLOAT"}}}, {"name": "FeatureExtractor/InceptionV2/InceptionV2/Mixed_3c/Branch_0/Conv2d_0a_1x1/Conv2D_bn_offset", "op": "Const", "attr": {"value": {"tensor": {"dtype": "DT_FLOAT", "tensorShape": {"dim": [{"size": "64"}]}}}, "dtype": {"type": "DT_FLOAT"}}}, {"name": "FeatureExtractor/InceptionV2/InceptionV2/Mixed_3c/Branch_1/Conv2d_0a_1x1/Conv2D_weights", "op": "Const", "attr": {"value": {"tensor": {"dtype": "DT_FLOAT", "tensorShape": {"dim": [{"size": "1"}, {"size": "1"}, {"size": "256"}, {"size": "64"}]}}}, "dtype": {"type": "DT_FLOAT"}}}, {"name": "FeatureExtractor/InceptionV2/InceptionV2/Mixed_3c/Branch_1/Conv2d_0a_1x1/Conv2D_bn_offset", "op": "Const", "attr": {"value": {"tensor": {"dtype": "DT_FLOAT", "tensorShape": {"dim": [{"size": "64"}]}}}, "dtype": {"type": "DT_FLOAT"}}}, {"name": "FeatureExtractor/InceptionV2/InceptionV2/Mixed_3c/Branch_2/Conv2d_0a_1x1/Conv2D_weights", "op": "Const", "attr": {"value": {"tensor": {"dtype": "DT_FLOAT", "tensorShape": {"dim": [{"size": "1"}, {"size": "1"}, {"size": "256"}, {"size": "64"}]}}}, "dtype": {"type": "DT_FLOAT"}}}, {"name": "FeatureExtractor/InceptionV2/InceptionV2/Mixed_3c/Branch_2/Conv2d_0a_1x1/Conv2D_bn_offset", "op": "Const", "attr": {"value": {"tensor": {"dtype": "DT_FLOAT", "tensorShape": {"dim": [{"size": "64"}]}}}, "dtype": {"type": "DT_FLOAT"}}}, {"name": "FeatureExtractor/InceptionV2/InceptionV2/Mixed_3c/Branch_3/Conv2d_0b_1x1/Conv2D_weights", "op": "Const", "attr": {"value": {"tensor": {"dtype": "DT_FLOAT", "tensorShape": {"dim": [{"size": "1"}, {"size": "1"}, {"size": "256"}, {"size": "64"}]}}}, "dtype": {"type": "DT_FLOAT"}}}, {"name": "FeatureExtractor/InceptionV2/InceptionV2/Mixed_3c/Branch_3/Conv2d_0b_1x1/Conv2D_bn_offset", "op": "Const", "attr": {"value": {"tensor": {"dtype": "DT_FLOAT", "tensorShape": {"dim": [{"size": "64"}]}}}, "dtype": {"type": "DT_FLOAT"}}}, {"name": "FeatureExtractor/InceptionV2/InceptionV2/Mixed_3c/Branch_1/Conv2d_0b_3x3/Conv2D_weights", "op": "Const", "attr": {"value": {"tensor": {"dtype": "DT_FLOAT", "tensorShape": {"dim": [{"size": "3"}, {"size": "3"}, {"size": "64"}, {"size": "96"}]}}}, "dtype": {"type": "DT_FLOAT"}}}, {"name": "FeatureExtractor/InceptionV2/InceptionV2/Mixed_3c/Branch_1/Conv2d_0b_3x3/Conv2D_bn_offset", "op": "Const", "attr": {"value": {"tensor": {"dtype": "DT_FLOAT", "tensorShape": {"dim": [{"size": "96"}]}}}, "dtype": {"type": "DT_FLOAT"}}}, {"name": "FeatureExtractor/InceptionV2/InceptionV2/Mixed_3c/Branch_2/Conv2d_0b_3x3/Conv2D_weights", "op": "Const", "attr": {"value": {"tensor": {"dtype": "DT_FLOAT", "tensorShape": {"dim": [{"size": "3"}, {"size": "3"}, {"size": "64"}, {"size": "96"}]}}}, "dtype": {"type": "DT_FLOAT"}}}, {"name": "FeatureExtractor/InceptionV2/InceptionV2/Mixed_3c/Branch_2/Conv2d_0b_3x3/Conv2D_bn_offset", "op": "Const", "attr": {"value": {"tensor": {"dtype": "DT_FLOAT", "tensorShape": {"dim": [{"size": "96"}]}}}, "dtype": {"type": "DT_FLOAT"}}}, {"name": "FeatureExtractor/InceptionV2/InceptionV2/Mixed_3c/Branch_2/Conv2d_0c_3x3/Conv2D_weights", "op": "Const", "attr": {"value": {"tensor": {"dtype": "DT_FLOAT", "tensorShape": {"dim": [{"size": "3"}, {"size": "3"}, {"size": "96"}, {"size": "96"}]}}}, "dtype": {"type": "DT_FLOAT"}}}, {"name": "FeatureExtractor/InceptionV2/InceptionV2/Mixed_3c/Branch_2/Conv2d_0c_3x3/Conv2D_bn_offset", "op": "Const", "attr": {"value": {"tensor": {"dtype": "DT_FLOAT", "tensorShape": {"dim": [{"size": "96"}]}}}, "dtype": {"type": "DT_FLOAT"}}}, {"name": "FeatureExtractor/InceptionV2/InceptionV2/Mixed_4a/Branch_0/Conv2d_0a_1x1/Conv2D_weights", "op": "Const", "attr": {"value": {"tensor": {"dtype": "DT_FLOAT", "tensorShape": {"dim": [{"size": "1"}, {"size": "1"}, {"size": "320"}, {"size": "128"}]}}}, "dtype": {"type": "DT_FLOAT"}}}, {"name": "FeatureExtractor/InceptionV2/InceptionV2/Mixed_4a/Branch_0/Conv2d_0a_1x1/Conv2D_bn_offset", "op": "Const", "attr": {"value": {"tensor": {"dtype": "DT_FLOAT", "tensorShape": {"dim": [{"size": "128"}]}}}, "dtype": {"type": "DT_FLOAT"}}}, {"name": "FeatureExtractor/InceptionV2/InceptionV2/Mixed_4a/Branch_1/Conv2d_0a_1x1/Conv2D_weights", "op": "Const", "attr": {"value": {"tensor": {"dtype": "DT_FLOAT", "tensorShape": {"dim": [{"size": "1"}, {"size": "1"}, {"size": "320"}, {"size": "64"}]}}}, "dtype": {"type": "DT_FLOAT"}}}, {"name": "FeatureExtractor/InceptionV2/InceptionV2/Mixed_4a/Branch_1/Conv2d_0a_1x1/Conv2D_bn_offset", "op": "Const", "attr": {"value": {"tensor": {"dtype": "DT_FLOAT", "tensorShape": {"dim": [{"size": "64"}]}}}, "dtype": {"type": "DT_FLOAT"}}}, {"name": "FeatureExtractor/InceptionV2/InceptionV2/Mixed_4a/Branch_0/Conv2d_1a_3x3/Conv2D_weights", "op": "Const", "attr": {"value": {"tensor": {"dtype": "DT_FLOAT", "tensorShape": {"dim": [{"size": "3"}, {"size": "3"}, {"size": "128"}, {"size": "160"}]}}}, "dtype": {"type": "DT_FLOAT"}}}, {"name": "FeatureExtractor/InceptionV2/InceptionV2/Mixed_4a/Branch_0/Conv2d_1a_3x3/Conv2D_bn_offset", "op": "Const", "attr": {"value": {"tensor": {"dtype": "DT_FLOAT", "tensorShape": {"dim": [{"size": "160"}]}}}, "dtype": {"type": "DT_FLOAT"}}}, {"name": "FeatureExtractor/InceptionV2/InceptionV2/Mixed_4a/Branch_1/Conv2d_0b_3x3/Conv2D_weights", "op": "Const", "attr": {"value": {"tensor": {"dtype": "DT_FLOAT", "tensorShape": {"dim": [{"size": "3"}, {"size": "3"}, {"size": "64"}, {"size": "96"}]}}}, "dtype": {"type": "DT_FLOAT"}}}, {"name": "FeatureExtractor/InceptionV2/InceptionV2/Mixed_4a/Branch_1/Conv2d_0b_3x3/Conv2D_bn_offset", "op": "Const", "attr": {"value": {"tensor": {"dtype": "DT_FLOAT", "tensorShape": {"dim": [{"size": "96"}]}}}, "dtype": {"type": "DT_FLOAT"}}}, {"name": "FeatureExtractor/InceptionV2/InceptionV2/Mixed_4a/Branch_1/Conv2d_1a_3x3/Conv2D_weights", "op": "Const", "attr": {"value": {"tensor": {"dtype": "DT_FLOAT", "tensorShape": {"dim": [{"size": "3"}, {"size": "3"}, {"size": "96"}, {"size": "96"}]}}}, "dtype": {"type": "DT_FLOAT"}}}, {"name": "FeatureExtractor/InceptionV2/InceptionV2/Mixed_4a/Branch_1/Conv2d_1a_3x3/Conv2D_bn_offset", "op": "Const", "attr": {"value": {"tensor": {"dtype": "DT_FLOAT", "tensorShape": {"dim": [{"size": "96"}]}}}, "dtype": {"type": "DT_FLOAT"}}}, {"name": "FeatureExtractor/InceptionV2/InceptionV2/Mixed_4b/Branch_0/Conv2d_0a_1x1/Conv2D_weights", "op": "Const", "attr": {"value": {"tensor": {"dtype": "DT_FLOAT", "tensorShape": {"dim": [{"size": "1"}, {"size": "1"}, {"size": "576"}, {"size": "224"}]}}}, "dtype": {"type": "DT_FLOAT"}}}, {"name": "FeatureExtractor/InceptionV2/InceptionV2/Mixed_4b/Branch_0/Conv2d_0a_1x1/Conv2D_bn_offset", "op": "Const", "attr": {"value": {"tensor": {"dtype": "DT_FLOAT", "tensorShape": {"dim": [{"size": "224"}]}}}, "dtype": {"type": "DT_FLOAT"}}}, {"name": "FeatureExtractor/InceptionV2/InceptionV2/Mixed_4b/Branch_1/Conv2d_0a_1x1/Conv2D_weights", "op": "Const", "attr": {"value": {"tensor": {"dtype": "DT_FLOAT", "tensorShape": {"dim": [{"size": "1"}, {"size": "1"}, {"size": "576"}, {"size": "64"}]}}}, "dtype": {"type": "DT_FLOAT"}}}, {"name": "FeatureExtractor/InceptionV2/InceptionV2/Mixed_4b/Branch_1/Conv2d_0a_1x1/Conv2D_bn_offset", "op": "Const", "attr": {"value": {"tensor": {"dtype": "DT_FLOAT", "tensorShape": {"dim": [{"size": "64"}]}}}, "dtype": {"type": "DT_FLOAT"}}}, {"name": "FeatureExtractor/InceptionV2/InceptionV2/Mixed_4b/Branch_2/Conv2d_0a_1x1/Conv2D_weights", "op": "Const", "attr": {"value": {"tensor": {"dtype": "DT_FLOAT", "tensorShape": {"dim": [{"size": "1"}, {"size": "1"}, {"size": "576"}, {"size": "96"}]}}}, "dtype": {"type": "DT_FLOAT"}}}, {"name": "FeatureExtractor/InceptionV2/InceptionV2/Mixed_4b/Branch_2/Conv2d_0a_1x1/Conv2D_bn_offset", "op": "Const", "attr": {"value": {"tensor": {"dtype": "DT_FLOAT", "tensorShape": {"dim": [{"size": "96"}]}}}, "dtype": {"type": "DT_FLOAT"}}}, {"name": "FeatureExtractor/InceptionV2/InceptionV2/Mixed_4b/Branch_3/Conv2d_0b_1x1/Conv2D_weights", "op": "Const", "attr": {"value": {"tensor": {"dtype": "DT_FLOAT", "tensorShape": {"dim": [{"size": "1"}, {"size": "1"}, {"size": "576"}, {"size": "128"}]}}}, "dtype": {"type": "DT_FLOAT"}}}, {"name": "FeatureExtractor/InceptionV2/InceptionV2/Mixed_4b/Branch_3/Conv2d_0b_1x1/Conv2D_bn_offset", "op": "Const", "attr": {"value": {"tensor": {"dtype": "DT_FLOAT", "tensorShape": {"dim": [{"size": "128"}]}}}, "dtype": {"type": "DT_FLOAT"}}}, {"name": "FeatureExtractor/InceptionV2/InceptionV2/Mixed_4b/Branch_1/Conv2d_0b_3x3/Conv2D_weights", "op": "Const", "attr": {"value": {"tensor": {"dtype": "DT_FLOAT", "tensorShape": {"dim": [{"size": "3"}, {"size": "3"}, {"size": "64"}, {"size": "96"}]}}}, "dtype": {"type": "DT_FLOAT"}}}, {"name": "FeatureExtractor/InceptionV2/InceptionV2/Mixed_4b/Branch_1/Conv2d_0b_3x3/Conv2D_bn_offset", "op": "Const", "attr": {"value": {"tensor": {"dtype": "DT_FLOAT", "tensorShape": {"dim": [{"size": "96"}]}}}, "dtype": {"type": "DT_FLOAT"}}}, {"name": "FeatureExtractor/InceptionV2/InceptionV2/Mixed_4b/Branch_2/Conv2d_0b_3x3/Conv2D_weights", "op": "Const", "attr": {"value": {"tensor": {"dtype": "DT_FLOAT", "tensorShape": {"dim": [{"size": "3"}, {"size": "3"}, {"size": "96"}, {"size": "128"}]}}}, "dtype": {"type": "DT_FLOAT"}}}, {"name": "FeatureExtractor/InceptionV2/InceptionV2/Mixed_4b/Branch_2/Conv2d_0b_3x3/Conv2D_bn_offset", "op": "Const", "attr": {"value": {"tensor": {"dtype": "DT_FLOAT", "tensorShape": {"dim": [{"size": "128"}]}}}, "dtype": {"type": "DT_FLOAT"}}}, {"name": "FeatureExtractor/InceptionV2/InceptionV2/Mixed_4b/Branch_2/Conv2d_0c_3x3/Conv2D_weights", "op": "Const", "attr": {"value": {"tensor": {"dtype": "DT_FLOAT", "tensorShape": {"dim": [{"size": "3"}, {"size": "3"}, {"size": "128"}, {"size": "128"}]}}}, "dtype": {"type": "DT_FLOAT"}}}, {"name": "FeatureExtractor/InceptionV2/InceptionV2/Mixed_4b/Branch_2/Conv2d_0c_3x3/Conv2D_bn_offset", "op": "Const", "attr": {"value": {"tensor": {"dtype": "DT_FLOAT", "tensorShape": {"dim": [{"size": "128"}]}}}, "dtype": {"type": "DT_FLOAT"}}}, {"name": "FeatureExtractor/InceptionV2/InceptionV2/Mixed_4c/Branch_0/Conv2d_0a_1x1/Conv2D_weights", "op": "Const", "attr": {"value": {"tensor": {"dtype": "DT_FLOAT", "tensorShape": {"dim": [{"size": "1"}, {"size": "1"}, {"size": "576"}, {"size": "192"}]}}}, "dtype": {"type": "DT_FLOAT"}}}, {"name": "FeatureExtractor/InceptionV2/InceptionV2/Mixed_4c/Branch_0/Conv2d_0a_1x1/Conv2D_bn_offset", "op": "Const", "attr": {"value": {"tensor": {"dtype": "DT_FLOAT", "tensorShape": {"dim": [{"size": "192"}]}}}, "dtype": {"type": "DT_FLOAT"}}}, {"name": "FeatureExtractor/InceptionV2/InceptionV2/Mixed_4c/Branch_1/Conv2d_0a_1x1/Conv2D_weights", "op": "Const", "attr": {"value": {"tensor": {"dtype": "DT_FLOAT", "tensorShape": {"dim": [{"size": "1"}, {"size": "1"}, {"size": "576"}, {"size": "96"}]}}}, "dtype": {"type": "DT_FLOAT"}}}, {"name": "FeatureExtractor/InceptionV2/InceptionV2/Mixed_4c/Branch_1/Conv2d_0a_1x1/Conv2D_bn_offset", "op": "Const", "attr": {"value": {"tensor": {"dtype": "DT_FLOAT", "tensorShape": {"dim": [{"size": "96"}]}}}, "dtype": {"type": "DT_FLOAT"}}}, {"name": "FeatureExtractor/InceptionV2/InceptionV2/Mixed_4c/Branch_2/Conv2d_0a_1x1/Conv2D_weights", "op": "Const", "attr": {"value": {"tensor": {"dtype": "DT_FLOAT", "tensorShape": {"dim": [{"size": "1"}, {"size": "1"}, {"size": "576"}, {"size": "96"}]}}}, "dtype": {"type": "DT_FLOAT"}}}, {"name": "FeatureExtractor/InceptionV2/InceptionV2/Mixed_4c/Branch_2/Conv2d_0a_1x1/Conv2D_bn_offset", "op": "Const", "attr": {"value": {"tensor": {"dtype": "DT_FLOAT", "tensorShape": {"dim": [{"size": "96"}]}}}, "dtype": {"type": "DT_FLOAT"}}}, {"name": "FeatureExtractor/InceptionV2/InceptionV2/Mixed_4c/Branch_3/Conv2d_0b_1x1/Conv2D_weights", "op": "Const", "attr": {"value": {"tensor": {"dtype": "DT_FLOAT", "tensorShape": {"dim": [{"size": "1"}, {"size": "1"}, {"size": "576"}, {"size": "128"}]}}}, "dtype": {"type": "DT_FLOAT"}}}, {"name": "FeatureExtractor/InceptionV2/InceptionV2/Mixed_4c/Branch_3/Conv2d_0b_1x1/Conv2D_bn_offset", "op": "Const", "attr": {"value": {"tensor": {"dtype": "DT_FLOAT", "tensorShape": {"dim": [{"size": "128"}]}}}, "dtype": {"type": "DT_FLOAT"}}}, {"name": "FeatureExtractor/InceptionV2/InceptionV2/Mixed_4c/Branch_1/Conv2d_0b_3x3/Conv2D_weights", "op": "Const", "attr": {"value": {"tensor": {"dtype": "DT_FLOAT", "tensorShape": {"dim": [{"size": "3"}, {"size": "3"}, {"size": "96"}, {"size": "128"}]}}}, "dtype": {"type": "DT_FLOAT"}}}, {"name": "FeatureExtractor/InceptionV2/InceptionV2/Mixed_4c/Branch_1/Conv2d_0b_3x3/Conv2D_bn_offset", "op": "Const", "attr": {"value": {"tensor": {"dtype": "DT_FLOAT", "tensorShape": {"dim": [{"size": "128"}]}}}, "dtype": {"type": "DT_FLOAT"}}}, {"name": "FeatureExtractor/InceptionV2/InceptionV2/Mixed_4c/Branch_2/Conv2d_0b_3x3/Conv2D_weights", "op": "Const", "attr": {"value": {"tensor": {"dtype": "DT_FLOAT", "tensorShape": {"dim": [{"size": "3"}, {"size": "3"}, {"size": "96"}, {"size": "128"}]}}}, "dtype": {"type": "DT_FLOAT"}}}, {"name": "FeatureExtractor/InceptionV2/InceptionV2/Mixed_4c/Branch_2/Conv2d_0b_3x3/Conv2D_bn_offset", "op": "Const", "attr": {"value": {"tensor": {"dtype": "DT_FLOAT", "tensorShape": {"dim": [{"size": "128"}]}}}, "dtype": {"type": "DT_FLOAT"}}}, {"name": "FeatureExtractor/InceptionV2/InceptionV2/Mixed_4c/Branch_2/Conv2d_0c_3x3/Conv2D_weights", "op": "Const", "attr": {"value": {"tensor": {"dtype": "DT_FLOAT", "tensorShape": {"dim": [{"size": "3"}, {"size": "3"}, {"size": "128"}, {"size": "128"}]}}}, "dtype": {"type": "DT_FLOAT"}}}, {"name": "FeatureExtractor/InceptionV2/InceptionV2/Mixed_4c/Branch_2/Conv2d_0c_3x3/Conv2D_bn_offset", "op": "Const", "attr": {"value": {"tensor": {"dtype": "DT_FLOAT", "tensorShape": {"dim": [{"size": "128"}]}}}, "dtype": {"type": "DT_FLOAT"}}}, {"name": "FeatureExtractor/InceptionV2/InceptionV2/Mixed_4d/Branch_0/Conv2d_0a_1x1/Conv2D_weights", "op": "Const", "attr": {"value": {"tensor": {"dtype": "DT_FLOAT", "tensorShape": {"dim": [{"size": "1"}, {"size": "1"}, {"size": "576"}, {"size": "160"}]}}}, "dtype": {"type": "DT_FLOAT"}}}, {"name": "FeatureExtractor/InceptionV2/InceptionV2/Mixed_4d/Branch_0/Conv2d_0a_1x1/Conv2D_bn_offset", "op": "Const", "attr": {"value": {"tensor": {"dtype": "DT_FLOAT", "tensorShape": {"dim": [{"size": "160"}]}}}, "dtype": {"type": "DT_FLOAT"}}}, {"name": "FeatureExtractor/InceptionV2/InceptionV2/Mixed_4d/Branch_1/Conv2d_0a_1x1/Conv2D_weights", "op": "Const", "attr": {"value": {"tensor": {"dtype": "DT_FLOAT", "tensorShape": {"dim": [{"size": "1"}, {"size": "1"}, {"size": "576"}, {"size": "128"}]}}}, "dtype": {"type": "DT_FLOAT"}}}, {"name": "FeatureExtractor/InceptionV2/InceptionV2/Mixed_4d/Branch_1/Conv2d_0a_1x1/Conv2D_bn_offset", "op": "Const", "attr": {"value": {"tensor": {"dtype": "DT_FLOAT", "tensorShape": {"dim": [{"size": "128"}]}}}, "dtype": {"type": "DT_FLOAT"}}}, {"name": "FeatureExtractor/InceptionV2/InceptionV2/Mixed_4d/Branch_2/Conv2d_0a_1x1/Conv2D_weights", "op": "Const", "attr": {"value": {"tensor": {"dtype": "DT_FLOAT", "tensorShape": {"dim": [{"size": "1"}, {"size": "1"}, {"size": "576"}, {"size": "128"}]}}}, "dtype": {"type": "DT_FLOAT"}}}, {"name": "FeatureExtractor/InceptionV2/InceptionV2/Mixed_4d/Branch_2/Conv2d_0a_1x1/Conv2D_bn_offset", "op": "Const", "attr": {"value": {"tensor": {"dtype": "DT_FLOAT", "tensorShape": {"dim": [{"size": "128"}]}}}, "dtype": {"type": "DT_FLOAT"}}}, {"name": "FeatureExtractor/InceptionV2/InceptionV2/Mixed_4d/Branch_3/Conv2d_0b_1x1/Conv2D_weights", "op": "Const", "attr": {"value": {"tensor": {"dtype": "DT_FLOAT", "tensorShape": {"dim": [{"size": "1"}, {"size": "1"}, {"size": "576"}, {"size": "96"}]}}}, "dtype": {"type": "DT_FLOAT"}}}, {"name": "FeatureExtractor/InceptionV2/InceptionV2/Mixed_4d/Branch_3/Conv2d_0b_1x1/Conv2D_bn_offset", "op": "Const", "attr": {"value": {"tensor": {"dtype": "DT_FLOAT", "tensorShape": {"dim": [{"size": "96"}]}}}, "dtype": {"type": "DT_FLOAT"}}}, {"name": "FeatureExtractor/InceptionV2/InceptionV2/Mixed_4d/Branch_1/Conv2d_0b_3x3/Conv2D_weights", "op": "Const", "attr": {"value": {"tensor": {"dtype": "DT_FLOAT", "tensorShape": {"dim": [{"size": "3"}, {"size": "3"}, {"size": "128"}, {"size": "160"}]}}}, "dtype": {"type": "DT_FLOAT"}}}, {"name": "FeatureExtractor/InceptionV2/InceptionV2/Mixed_4d/Branch_1/Conv2d_0b_3x3/Conv2D_bn_offset", "op": "Const", "attr": {"value": {"tensor": {"dtype": "DT_FLOAT", "tensorShape": {"dim": [{"size": "160"}]}}}, "dtype": {"type": "DT_FLOAT"}}}, {"name": "FeatureExtractor/InceptionV2/InceptionV2/Mixed_4d/Branch_2/Conv2d_0b_3x3/Conv2D_weights", "op": "Const", "attr": {"value": {"tensor": {"dtype": "DT_FLOAT", "tensorShape": {"dim": [{"size": "3"}, {"size": "3"}, {"size": "128"}, {"size": "160"}]}}}, "dtype": {"type": "DT_FLOAT"}}}, {"name": "FeatureExtractor/InceptionV2/InceptionV2/Mixed_4d/Branch_2/Conv2d_0b_3x3/Conv2D_bn_offset", "op": "Const", "attr": {"value": {"tensor": {"dtype": "DT_FLOAT", "tensorShape": {"dim": [{"size": "160"}]}}}, "dtype": {"type": "DT_FLOAT"}}}, {"name": "FeatureExtractor/InceptionV2/InceptionV2/Mixed_4d/Branch_2/Conv2d_0c_3x3/Conv2D_weights", "op": "Const", "attr": {"value": {"tensor": {"dtype": "DT_FLOAT", "tensorShape": {"dim": [{"size": "3"}, {"size": "3"}, {"size": "160"}, {"size": "160"}]}}}, "dtype": {"type": "DT_FLOAT"}}}, {"name": "FeatureExtractor/InceptionV2/InceptionV2/Mixed_4d/Branch_2/Conv2d_0c_3x3/Conv2D_bn_offset", "op": "Const", "attr": {"value": {"tensor": {"dtype": "DT_FLOAT", "tensorShape": {"dim": [{"size": "160"}]}}}, "dtype": {"type": "DT_FLOAT"}}}, {"name": "FeatureExtractor/InceptionV2/InceptionV2/Mixed_4e/Branch_0/Conv2d_0a_1x1/Conv2D_weights", "op": "Const", "attr": {"value": {"tensor": {"dtype": "DT_FLOAT", "tensorShape": {"dim": [{"size": "1"}, {"size": "1"}, {"size": "576"}, {"size": "96"}]}}}, "dtype": {"type": "DT_FLOAT"}}}, {"name": "FeatureExtractor/InceptionV2/InceptionV2/Mixed_4e/Branch_0/Conv2d_0a_1x1/Conv2D_bn_offset", "op": "Const", "attr": {"value": {"tensor": {"dtype": "DT_FLOAT", "tensorShape": {"dim": [{"size": "96"}]}}}, "dtype": {"type": "DT_FLOAT"}}}, {"name": "FeatureExtractor/InceptionV2/InceptionV2/Mixed_4e/Branch_1/Conv2d_0a_1x1/Conv2D_weights", "op": "Const", "attr": {"value": {"tensor": {"dtype": "DT_FLOAT", "tensorShape": {"dim": [{"size": "1"}, {"size": "1"}, {"size": "576"}, {"size": "128"}]}}}, "dtype": {"type": "DT_FLOAT"}}}, {"name": "FeatureExtractor/InceptionV2/InceptionV2/Mixed_4e/Branch_1/Conv2d_0a_1x1/Conv2D_bn_offset", "op": "Const", "attr": {"value": {"tensor": {"dtype": "DT_FLOAT", "tensorShape": {"dim": [{"size": "128"}]}}}, "dtype": {"type": "DT_FLOAT"}}}, {"name": "FeatureExtractor/InceptionV2/InceptionV2/Mixed_4e/Branch_2/Conv2d_0a_1x1/Conv2D_weights", "op": "Const", "attr": {"value": {"tensor": {"dtype": "DT_FLOAT", "tensorShape": {"dim": [{"size": "1"}, {"size": "1"}, {"size": "576"}, {"size": "160"}]}}}, "dtype": {"type": "DT_FLOAT"}}}, {"name": "FeatureExtractor/InceptionV2/InceptionV2/Mixed_4e/Branch_2/Conv2d_0a_1x1/Conv2D_bn_offset", "op": "Const", "attr": {"value": {"tensor": {"dtype": "DT_FLOAT", "tensorShape": {"dim": [{"size": "160"}]}}}, "dtype": {"type": "DT_FLOAT"}}}, {"name": "FeatureExtractor/InceptionV2/InceptionV2/Mixed_4e/Branch_3/Conv2d_0b_1x1/Conv2D_weights", "op": "Const", "attr": {"value": {"tensor": {"dtype": "DT_FLOAT", "tensorShape": {"dim": [{"size": "1"}, {"size": "1"}, {"size": "576"}, {"size": "96"}]}}}, "dtype": {"type": "DT_FLOAT"}}}, {"name": "FeatureExtractor/InceptionV2/InceptionV2/Mixed_4e/Branch_3/Conv2d_0b_1x1/Conv2D_bn_offset", "op": "Const", "attr": {"value": {"tensor": {"dtype": "DT_FLOAT", "tensorShape": {"dim": [{"size": "96"}]}}}, "dtype": {"type": "DT_FLOAT"}}}, {"name": "FeatureExtractor/InceptionV2/InceptionV2/Mixed_4e/Branch_1/Conv2d_0b_3x3/Conv2D_weights", "op": "Const", "attr": {"value": {"tensor": {"dtype": "DT_FLOAT", "tensorShape": {"dim": [{"size": "3"}, {"size": "3"}, {"size": "128"}, {"size": "192"}]}}}, "dtype": {"type": "DT_FLOAT"}}}, {"name": "FeatureExtractor/InceptionV2/InceptionV2/Mixed_4e/Branch_1/Conv2d_0b_3x3/Conv2D_bn_offset", "op": "Const", "attr": {"value": {"tensor": {"dtype": "DT_FLOAT", "tensorShape": {"dim": [{"size": "192"}]}}}, "dtype": {"type": "DT_FLOAT"}}}, {"name": "FeatureExtractor/InceptionV2/InceptionV2/Mixed_4e/Branch_2/Conv2d_0b_3x3/Conv2D_weights", "op": "Const", "attr": {"value": {"tensor": {"dtype": "DT_FLOAT", "tensorShape": {"dim": [{"size": "3"}, {"size": "3"}, {"size": "160"}, {"size": "192"}]}}}, "dtype": {"type": "DT_FLOAT"}}}, {"name": "FeatureExtractor/InceptionV2/InceptionV2/Mixed_4e/Branch_2/Conv2d_0b_3x3/Conv2D_bn_offset", "op": "Const", "attr": {"value": {"tensor": {"dtype": "DT_FLOAT", "tensorShape": {"dim": [{"size": "192"}]}}}, "dtype": {"type": "DT_FLOAT"}}}, {"name": "FeatureExtractor/InceptionV2/InceptionV2/Mixed_4e/Branch_2/Conv2d_0c_3x3/Conv2D_weights", "op": "Const", "attr": {"value": {"tensor": {"dtype": "DT_FLOAT", "tensorShape": {"dim": [{"size": "3"}, {"size": "3"}, {"size": "192"}, {"size": "192"}]}}}, "dtype": {"type": "DT_FLOAT"}}}, {"name": "FeatureExtractor/InceptionV2/InceptionV2/Mixed_4e/Branch_2/Conv2d_0c_3x3/Conv2D_bn_offset", "op": "Const", "attr": {"value": {"tensor": {"dtype": "DT_FLOAT", "tensorShape": {"dim": [{"size": "192"}]}}}, "dtype": {"type": "DT_FLOAT"}}}, {"name": "FeatureExtractor/InceptionV2/InceptionV2/Mixed_5a/Branch_0/Conv2d_0a_1x1/Conv2D_weights", "op": "Const", "attr": {"value": {"tensor": {"dtype": "DT_FLOAT", "tensorShape": {"dim": [{"size": "1"}, {"size": "1"}, {"size": "576"}, {"size": "128"}]}}}, "dtype": {"type": "DT_FLOAT"}}}, {"name": "FeatureExtractor/InceptionV2/InceptionV2/Mixed_5a/Branch_0/Conv2d_0a_1x1/Conv2D_bn_offset", "op": "Const", "attr": {"value": {"tensor": {"dtype": "DT_FLOAT", "tensorShape": {"dim": [{"size": "128"}]}}}, "dtype": {"type": "DT_FLOAT"}}}, {"name": "FeatureExtractor/InceptionV2/InceptionV2/Mixed_5a/Branch_1/Conv2d_0a_1x1/Conv2D_weights", "op": "Const", "attr": {"value": {"tensor": {"dtype": "DT_FLOAT", "tensorShape": {"dim": [{"size": "1"}, {"size": "1"}, {"size": "576"}, {"size": "192"}]}}}, "dtype": {"type": "DT_FLOAT"}}}, {"name": "FeatureExtractor/InceptionV2/InceptionV2/Mixed_5a/Branch_1/Conv2d_0a_1x1/Conv2D_bn_offset", "op": "Const", "attr": {"value": {"tensor": {"dtype": "DT_FLOAT", "tensorShape": {"dim": [{"size": "192"}]}}}, "dtype": {"type": "DT_FLOAT"}}}, {"name": "FeatureExtractor/InceptionV2/InceptionV2/Mixed_5a/Branch_0/Conv2d_1a_3x3/Conv2D_weights", "op": "Const", "attr": {"value": {"tensor": {"dtype": "DT_FLOAT", "tensorShape": {"dim": [{"size": "3"}, {"size": "3"}, {"size": "128"}, {"size": "192"}]}}}, "dtype": {"type": "DT_FLOAT"}}}, {"name": "FeatureExtractor/InceptionV2/InceptionV2/Mixed_5a/Branch_0/Conv2d_1a_3x3/Conv2D_bn_offset", "op": "Const", "attr": {"value": {"tensor": {"dtype": "DT_FLOAT", "tensorShape": {"dim": [{"size": "192"}]}}}, "dtype": {"type": "DT_FLOAT"}}}, {"name": "FeatureExtractor/InceptionV2/InceptionV2/Mixed_5a/Branch_1/Conv2d_0b_3x3/Conv2D_weights", "op": "Const", "attr": {"value": {"tensor": {"dtype": "DT_FLOAT", "tensorShape": {"dim": [{"size": "3"}, {"size": "3"}, {"size": "192"}, {"size": "256"}]}}}, "dtype": {"type": "DT_FLOAT"}}}, {"name": "FeatureExtractor/InceptionV2/InceptionV2/Mixed_5a/Branch_1/Conv2d_0b_3x3/Conv2D_bn_offset", "op": "Const", "attr": {"value": {"tensor": {"dtype": "DT_FLOAT", "tensorShape": {"dim": [{"size": "256"}]}}}, "dtype": {"type": "DT_FLOAT"}}}, {"name": "FeatureExtractor/InceptionV2/InceptionV2/Mixed_5a/Branch_1/Conv2d_1a_3x3/Conv2D_weights", "op": "Const", "attr": {"value": {"tensor": {"dtype": "DT_FLOAT", "tensorShape": {"dim": [{"size": "3"}, {"size": "3"}, {"size": "256"}, {"size": "256"}]}}}, "dtype": {"type": "DT_FLOAT"}}}, {"name": "FeatureExtractor/InceptionV2/InceptionV2/Mixed_5a/Branch_1/Conv2d_1a_3x3/Conv2D_bn_offset", "op": "Const", "attr": {"value": {"tensor": {"dtype": "DT_FLOAT", "tensorShape": {"dim": [{"size": "256"}]}}}, "dtype": {"type": "DT_FLOAT"}}}, {"name": "FeatureExtractor/InceptionV2/InceptionV2/Mixed_5b/Branch_0/Conv2d_0a_1x1/Conv2D_weights", "op": "Const", "attr": {"value": {"tensor": {"dtype": "DT_FLOAT", "tensorShape": {"dim": [{"size": "1"}, {"size": "1"}, {"size": "1024"}, {"size": "352"}]}}}, "dtype": {"type": "DT_FLOAT"}}}, {"name": "FeatureExtractor/InceptionV2/InceptionV2/Mixed_5b/Branch_0/Conv2d_0a_1x1/Conv2D_bn_offset", "op": "Const", "attr": {"value": {"tensor": {"dtype": "DT_FLOAT", "tensorShape": {"dim": [{"size": "352"}]}}}, "dtype": {"type": "DT_FLOAT"}}}, {"name": "FeatureExtractor/InceptionV2/InceptionV2/Mixed_5b/Branch_1/Conv2d_0a_1x1/Conv2D_weights", "op": "Const", "attr": {"value": {"tensor": {"dtype": "DT_FLOAT", "tensorShape": {"dim": [{"size": "1"}, {"size": "1"}, {"size": "1024"}, {"size": "192"}]}}}, "dtype": {"type": "DT_FLOAT"}}}, {"name": "FeatureExtractor/InceptionV2/InceptionV2/Mixed_5b/Branch_1/Conv2d_0a_1x1/Conv2D_bn_offset", "op": "Const", "attr": {"value": {"tensor": {"dtype": "DT_FLOAT", "tensorShape": {"dim": [{"size": "192"}]}}}, "dtype": {"type": "DT_FLOAT"}}}, {"name": "FeatureExtractor/InceptionV2/InceptionV2/Mixed_5b/Branch_2/Conv2d_0a_1x1/Conv2D_weights", "op": "Const", "attr": {"value": {"tensor": {"dtype": "DT_FLOAT", "tensorShape": {"dim": [{"size": "1"}, {"size": "1"}, {"size": "1024"}, {"size": "160"}]}}}, "dtype": {"type": "DT_FLOAT"}}}, {"name": "FeatureExtractor/InceptionV2/InceptionV2/Mixed_5b/Branch_2/Conv2d_0a_1x1/Conv2D_bn_offset", "op": "Const", "attr": {"value": {"tensor": {"dtype": "DT_FLOAT", "tensorShape": {"dim": [{"size": "160"}]}}}, "dtype": {"type": "DT_FLOAT"}}}, {"name": "FeatureExtractor/InceptionV2/InceptionV2/Mixed_5b/Branch_3/Conv2d_0b_1x1/Conv2D_weights", "op": "Const", "attr": {"value": {"tensor": {"dtype": "DT_FLOAT", "tensorShape": {"dim": [{"size": "1"}, {"size": "1"}, {"size": "1024"}, {"size": "128"}]}}}, "dtype": {"type": "DT_FLOAT"}}}, {"name": "FeatureExtractor/InceptionV2/InceptionV2/Mixed_5b/Branch_3/Conv2d_0b_1x1/Conv2D_bn_offset", "op": "Const", "attr": {"value": {"tensor": {"dtype": "DT_FLOAT", "tensorShape": {"dim": [{"size": "128"}]}}}, "dtype": {"type": "DT_FLOAT"}}}, {"name": "FeatureExtractor/InceptionV2/InceptionV2/Mixed_5b/Branch_1/Conv2d_0b_3x3/Conv2D_weights", "op": "Const", "attr": {"value": {"tensor": {"dtype": "DT_FLOAT", "tensorShape": {"dim": [{"size": "3"}, {"size": "3"}, {"size": "192"}, {"size": "320"}]}}}, "dtype": {"type": "DT_FLOAT"}}}, {"name": "FeatureExtractor/InceptionV2/InceptionV2/Mixed_5b/Branch_1/Conv2d_0b_3x3/Conv2D_bn_offset", "op": "Const", "attr": {"value": {"tensor": {"dtype": "DT_FLOAT", "tensorShape": {"dim": [{"size": "320"}]}}}, "dtype": {"type": "DT_FLOAT"}}}, {"name": "FeatureExtractor/InceptionV2/InceptionV2/Mixed_5b/Branch_2/Conv2d_0b_3x3/Conv2D_weights", "op": "Const", "attr": {"value": {"tensor": {"dtype": "DT_FLOAT", "tensorShape": {"dim": [{"size": "3"}, {"size": "3"}, {"size": "160"}, {"size": "224"}]}}}, "dtype": {"type": "DT_FLOAT"}}}, {"name": "FeatureExtractor/InceptionV2/InceptionV2/Mixed_5b/Branch_2/Conv2d_0b_3x3/Conv2D_bn_offset", "op": "Const", "attr": {"value": {"tensor": {"dtype": "DT_FLOAT", "tensorShape": {"dim": [{"size": "224"}]}}}, "dtype": {"type": "DT_FLOAT"}}}, {"name": "FeatureExtractor/InceptionV2/InceptionV2/Mixed_5b/Branch_2/Conv2d_0c_3x3/Conv2D_weights", "op": "Const", "attr": {"value": {"tensor": {"dtype": "DT_FLOAT", "tensorShape": {"dim": [{"size": "3"}, {"size": "3"}, {"size": "224"}, {"size": "224"}]}}}, "dtype": {"type": "DT_FLOAT"}}}, {"name": "FeatureExtractor/InceptionV2/InceptionV2/Mixed_5b/Branch_2/Conv2d_0c_3x3/Conv2D_bn_offset", "op": "Const", "attr": {"value": {"tensor": {"dtype": "DT_FLOAT", "tensorShape": {"dim": [{"size": "224"}]}}}, "dtype": {"type": "DT_FLOAT"}}}, {"name": "FeatureExtractor/InceptionV2/InceptionV2/Mixed_5c/Branch_0/Conv2d_0a_1x1/Conv2D_weights", "op": "Const", "attr": {"value": {"tensor": {"dtype": "DT_FLOAT", "tensorShape": {"dim": [{"size": "1"}, {"size": "1"}, {"size": "1024"}, {"size": "352"}]}}}, "dtype": {"type": "DT_FLOAT"}}}, {"name": "FeatureExtractor/InceptionV2/InceptionV2/Mixed_5c/Branch_0/Conv2d_0a_1x1/Conv2D_bn_offset", "op": "Const", "attr": {"value": {"tensor": {"dtype": "DT_FLOAT", "tensorShape": {"dim": [{"size": "352"}]}}}, "dtype": {"type": "DT_FLOAT"}}}, {"name": "FeatureExtractor/InceptionV2/InceptionV2/Mixed_5c/Branch_1/Conv2d_0a_1x1/Conv2D_weights", "op": "Const", "attr": {"value": {"tensor": {"dtype": "DT_FLOAT", "tensorShape": {"dim": [{"size": "1"}, {"size": "1"}, {"size": "1024"}, {"size": "192"}]}}}, "dtype": {"type": "DT_FLOAT"}}}, {"name": "FeatureExtractor/InceptionV2/InceptionV2/Mixed_5c/Branch_1/Conv2d_0a_1x1/Conv2D_bn_offset", "op": "Const", "attr": {"value": {"tensor": {"dtype": "DT_FLOAT", "tensorShape": {"dim": [{"size": "192"}]}}}, "dtype": {"type": "DT_FLOAT"}}}, {"name": "FeatureExtractor/InceptionV2/InceptionV2/Mixed_5c/Branch_2/Conv2d_0a_1x1/Conv2D_weights", "op": "Const", "attr": {"value": {"tensor": {"dtype": "DT_FLOAT", "tensorShape": {"dim": [{"size": "1"}, {"size": "1"}, {"size": "1024"}, {"size": "192"}]}}}, "dtype": {"type": "DT_FLOAT"}}}, {"name": "FeatureExtractor/InceptionV2/InceptionV2/Mixed_5c/Branch_2/Conv2d_0a_1x1/Conv2D_bn_offset", "op": "Const", "attr": {"value": {"tensor": {"dtype": "DT_FLOAT", "tensorShape": {"dim": [{"size": "192"}]}}}, "dtype": {"type": "DT_FLOAT"}}}, {"name": "FeatureExtractor/InceptionV2/InceptionV2/Mixed_5c/Branch_3/Conv2d_0b_1x1/Conv2D_weights", "op": "Const", "attr": {"value": {"tensor": {"dtype": "DT_FLOAT", "tensorShape": {"dim": [{"size": "1"}, {"size": "1"}, {"size": "1024"}, {"size": "128"}]}}}, "dtype": {"type": "DT_FLOAT"}}}, {"name": "FeatureExtractor/InceptionV2/InceptionV2/Mixed_5c/Branch_3/Conv2d_0b_1x1/Conv2D_bn_offset", "op": "Const", "attr": {"value": {"tensor": {"dtype": "DT_FLOAT", "tensorShape": {"dim": [{"size": "128"}]}}}, "dtype": {"type": "DT_FLOAT"}}}, {"name": "FeatureExtractor/InceptionV2/InceptionV2/Mixed_5c/Branch_1/Conv2d_0b_3x3/Conv2D_weights", "op": "Const", "attr": {"value": {"tensor": {"dtype": "DT_FLOAT", "tensorShape": {"dim": [{"size": "3"}, {"size": "3"}, {"size": "192"}, {"size": "320"}]}}}, "dtype": {"type": "DT_FLOAT"}}}, {"name": "FeatureExtractor/InceptionV2/InceptionV2/Mixed_5c/Branch_1/Conv2d_0b_3x3/Conv2D_bn_offset", "op": "Const", "attr": {"value": {"tensor": {"dtype": "DT_FLOAT", "tensorShape": {"dim": [{"size": "320"}]}}}, "dtype": {"type": "DT_FLOAT"}}}, {"name": "FeatureExtractor/InceptionV2/InceptionV2/Mixed_5c/Branch_2/Conv2d_0b_3x3/Conv2D_weights", "op": "Const", "attr": {"value": {"tensor": {"dtype": "DT_FLOAT", "tensorShape": {"dim": [{"size": "3"}, {"size": "3"}, {"size": "192"}, {"size": "224"}]}}}, "dtype": {"type": "DT_FLOAT"}}}, {"name": "FeatureExtractor/InceptionV2/InceptionV2/Mixed_5c/Branch_2/Conv2d_0b_3x3/Conv2D_bn_offset", "op": "Const", "attr": {"value": {"tensor": {"dtype": "DT_FLOAT", "tensorShape": {"dim": [{"size": "224"}]}}}, "dtype": {"type": "DT_FLOAT"}}}, {"name": "FeatureExtractor/InceptionV2/InceptionV2/Mixed_5c/Branch_2/Conv2d_0c_3x3/Conv2D_weights", "op": "Const", "attr": {"value": {"tensor": {"dtype": "DT_FLOAT", "tensorShape": {"dim": [{"size": "3"}, {"size": "3"}, {"size": "224"}, {"size": "224"}]}}}, "dtype": {"type": "DT_FLOAT"}}}, {"name": "FeatureExtractor/InceptionV2/InceptionV2/Mixed_5c/Branch_2/Conv2d_0c_3x3/Conv2D_bn_offset", "op": "Const", "attr": {"value": {"tensor": {"dtype": "DT_FLOAT", "tensorShape": {"dim": [{"size": "224"}]}}}, "dtype": {"type": "DT_FLOAT"}}}, {"name": "FeatureExtractor/InceptionV2/Mixed_5c_1_Conv2d_2_1x1_256/Conv2D_weights", "op": "Const", "attr": {"value": {"tensor": {"dtype": "DT_FLOAT", "tensorShape": {"dim": [{"size": "1"}, {"size": "1"}, {"size": "1024"}, {"size": "256"}]}}}, "dtype": {"type": "DT_FLOAT"}}}, {"name": "FeatureExtractor/InceptionV2/Mixed_5c_1_Conv2d_2_1x1_256/Conv2D_bn_offset", "op": "Const", "attr": {"value": {"tensor": {"dtype": "DT_FLOAT", "tensorShape": {"dim": [{"size": "256"}]}}}, "dtype": {"type": "DT_FLOAT"}}}, {"name": "FeatureExtractor/InceptionV2/Mixed_5c_2_Conv2d_2_3x3_s2_512/Conv2D_weights", "op": "Const", "attr": {"value": {"tensor": {"dtype": "DT_FLOAT", "tensorShape": {"dim": [{"size": "3"}, {"size": "3"}, {"size": "256"}, {"size": "512"}]}}}, "dtype": {"type": "DT_FLOAT"}}}, {"name": "FeatureExtractor/InceptionV2/Mixed_5c_2_Conv2d_2_3x3_s2_512/Conv2D_bn_offset", "op": "Const", "attr": {"value": {"tensor": {"dtype": "DT_FLOAT", "tensorShape": {"dim": [{"size": "512"}]}}}, "dtype": {"type": "DT_FLOAT"}}}, {"name": "FeatureExtractor/InceptionV2/Mixed_5c_1_Conv2d_3_1x1_128/Conv2D_weights", "op": "Const", "attr": {"value": {"tensor": {"dtype": "DT_FLOAT", "tensorShape": {"dim": [{"size": "1"}, {"size": "1"}, {"size": "512"}, {"size": "128"}]}}}, "dtype": {"type": "DT_FLOAT"}}}, {"name": "FeatureExtractor/InceptionV2/Mixed_5c_1_Conv2d_3_1x1_128/Conv2D_bn_offset", "op": "Const", "attr": {"value": {"tensor": {"dtype": "DT_FLOAT", "tensorShape": {"dim": [{"size": "128"}]}}}, "dtype": {"type": "DT_FLOAT"}}}, {"name": "FeatureExtractor/InceptionV2/Mixed_5c_2_Conv2d_3_3x3_s2_256/Conv2D_weights", "op": "Const", "attr": {"value": {"tensor": {"dtype": "DT_FLOAT", "tensorShape": {"dim": [{"size": "3"}, {"size": "3"}, {"size": "128"}, {"size": "256"}]}}}, "dtype": {"type": "DT_FLOAT"}}}, {"name": "FeatureExtractor/InceptionV2/Mixed_5c_2_Conv2d_3_3x3_s2_256/Conv2D_bn_offset", "op": "Const", "attr": {"value": {"tensor": {"dtype": "DT_FLOAT", "tensorShape": {"dim": [{"size": "256"}]}}}, "dtype": {"type": "DT_FLOAT"}}}, {"name": "FeatureExtractor/InceptionV2/Mixed_5c_1_Conv2d_4_1x1_128/Conv2D_weights", "op": "Const", "attr": {"value": {"tensor": {"dtype": "DT_FLOAT", "tensorShape": {"dim": [{"size": "1"}, {"size": "1"}, {"size": "256"}, {"size": "128"}]}}}, "dtype": {"type": "DT_FLOAT"}}}, {"name": "FeatureExtractor/InceptionV2/Mixed_5c_1_Conv2d_4_1x1_128/Conv2D_bn_offset", "op": "Const", "attr": {"value": {"tensor": {"dtype": "DT_FLOAT", "tensorShape": {"dim": [{"size": "128"}]}}}, "dtype": {"type": "DT_FLOAT"}}}, {"name": "FeatureExtractor/InceptionV2/Mixed_5c_2_Conv2d_4_3x3_s2_256/Conv2D_weights", "op": "Const", "attr": {"value": {"tensor": {"dtype": "DT_FLOAT", "tensorShape": {"dim": [{"size": "3"}, {"size": "3"}, {"size": "128"}, {"size": "256"}]}}}, "dtype": {"type": "DT_FLOAT"}}}, {"name": "FeatureExtractor/InceptionV2/Mixed_5c_2_Conv2d_4_3x3_s2_256/Conv2D_bn_offset", "op": "Const", "attr": {"value": {"tensor": {"dtype": "DT_FLOAT", "tensorShape": {"dim": [{"size": "256"}]}}}, "dtype": {"type": "DT_FLOAT"}}}, {"name": "FeatureExtractor/InceptionV2/Mixed_5c_1_Conv2d_5_1x1_64/Conv2D_weights", "op": "Const", "attr": {"value": {"tensor": {"dtype": "DT_FLOAT", "tensorShape": {"dim": [{"size": "1"}, {"size": "1"}, {"size": "256"}, {"size": "64"}]}}}, "dtype": {"type": "DT_FLOAT"}}}, {"name": "FeatureExtractor/InceptionV2/Mixed_5c_1_Conv2d_5_1x1_64/Conv2D_bn_offset", "op": "Const", "attr": {"value": {"tensor": {"dtype": "DT_FLOAT", "tensorShape": {"dim": [{"size": "64"}]}}}, "dtype": {"type": "DT_FLOAT"}}}, {"name": "FeatureExtractor/InceptionV2/Mixed_5c_2_Conv2d_5_3x3_s2_128/Conv2D_weights", "op": "Const", "attr": {"value": {"tensor": {"dtype": "DT_FLOAT", "tensorShape": {"dim": [{"size": "3"}, {"size": "3"}, {"size": "64"}, {"size": "128"}]}}}, "dtype": {"type": "DT_FLOAT"}}}, {"name": "FeatureExtractor/InceptionV2/Mixed_5c_2_Conv2d_5_3x3_s2_128/Conv2D_bn_offset", "op": "Const", "attr": {"value": {"tensor": {"dtype": "DT_FLOAT", "tensorShape": {"dim": [{"size": "128"}]}}}, "dtype": {"type": "DT_FLOAT"}}}, {"name": "Postprocessor/BatchMultiClassNonMaxSuppression/map/while/Enter_1", "op": "Enter", "input": ["Postprocessor/BatchMultiClassNonMaxSuppression/map/Const"], "attr": {"T": {"type": "DT_INT32"}, "is_constant": {"b": false}, "parallel_iterations": {"i": "32"}, "frame_name": {"s": "UG9zdHByb2Nlc3Nvci9CYXRjaE11bHRpQ2xhc3NOb25NYXhTdXBwcmVzc2lvbi9tYXAvd2hpbGUvd2hpbGVfY29udGV4dA=="}}}, {"name": "Postprocessor/BatchMultiClassNonMaxSuppression/map/while/Enter", "op": "Enter", "input": ["Postprocessor/BatchMultiClassNonMaxSuppression/map/while/iteration_counter"], "attr": {"T": {"type": "DT_INT32"}, "is_constant": {"b": false}, "parallel_iterations": {"i": "32"}, "frame_name": {"s": "UG9zdHByb2Nlc3Nvci9CYXRjaE11bHRpQ2xhc3NOb25NYXhTdXBwcmVzc2lvbi9tYXAvd2hpbGUvd2hpbGVfY29udGV4dA=="}}}, {"name": "Preprocessor/map/while/Enter_1", "op": "Enter", "input": ["Preprocessor/map/Const"], "attr": {"T": {"type": "DT_INT32"}, "is_constant": {"b": false}, "parallel_iterations": {"i": "32"}, "frame_name": {"s": "UHJlcHJvY2Vzc29yL21hcC93aGlsZS93aGlsZV9jb250ZXh0"}}}, {"name": "Preprocessor/map/while/Enter", "op": "Enter", "input": ["Preprocessor/map/while/iteration_counter"], "attr": {"T": {"type": "DT_INT32"}, "is_constant": {"b": false}, "parallel_iterations": {"i": "32"}, "frame_name": {"s": "UHJlcHJvY2Vzc29yL21hcC93aGlsZS93aGlsZV9jb250ZXh0"}}}, {"name": "Cast", "op": "Cast", "input": ["image_tensor"], "attr": {"SrcT": {"type": "DT_UINT8"}, "Truncate": {"b": false}, "DstT": {"type": "DT_FLOAT"}}}, {"name": "Postprocessor/BatchMultiClassNonMaxSuppression/map/while/Merge_1", "op": "Merge", "input": ["Postprocessor/BatchMultiClassNonMaxSuppression/map/while/Enter_1", "Postprocessor/BatchMultiClassNonMaxSuppression/map/while/NextIteration_1"], "attr": {"T": {"type": "DT_INT32"}, "N": {"i": "2"}}}, {"name": "Postprocessor/BatchMultiClassNonMaxSuppression/map/while/Merge", "op": "Merge", "input": ["Postprocessor/BatchMultiClassNonMaxSuppression/map/while/Enter", "Postprocessor/BatchMultiClassNonMaxSuppression/map/while/NextIteration"], "attr": {"T": {"type": "DT_INT32"}, "N": {"i": "2"}}}, {"name": "Preprocessor/map/while/Merge_1", "op": "Merge", "input": ["Preprocessor/map/while/Enter_1", "Preprocessor/map/while/NextIteration_1"], "attr": {"T": {"type": "DT_INT32"}, "N": {"i": "2"}}}, {"name": "Preprocessor/map/while/Merge", "op": "Merge", "input": ["Preprocessor/map/while/Enter", "Preprocessor/map/while/NextIteration"], "attr": {"T": {"type": "DT_INT32"}, "N": {"i": "2"}}}, {"name": "Preprocessor/mul", "op": "Mul", "input": ["Preprocessor/mul/x", "Cast"], "attr": {"T": {"type": "DT_FLOAT"}}}, {"name": "Preprocessor/sub", "op": "Sub", "input": ["Preprocessor/mul", "Preprocessor/sub/y"], "attr": {"T": {"type": "DT_FLOAT"}}}, {"name": "Preprocessor/map/TensorArrayUnstack/Shape", "op": "Shape", "input": ["Preprocessor/sub"], "attr": {"T": {"type": "DT_FLOAT"}, "out_type": {"type": "DT_INT32"}}}, {"name": "Preprocessor/map/Shape", "op": "Shape", "input": ["Preprocessor/sub"], "attr": {"T": {"type": "DT_FLOAT"}, "out_type": {"type": "DT_INT32"}}}, {"name": "Preprocessor/map/TensorArrayUnstack/strided_slice", "op": "StridedSlice", "input": ["Preprocessor/map/TensorArrayUnstack/Shape", "Preprocessor/map/TensorArrayUnstack/strided_slice/stack", "Preprocessor/map/TensorArrayUnstack/strided_slice/stack_1", "Preprocessor/map/TensorArrayUnstack/strided_slice/stack_2"], "attr": {"T": {"type": "DT_INT32"}, "Index": {"type": "DT_INT32"}, "shrink_axis_mask": {"i": "1"}, "ellipsis_mask": {"i": "0"}, "begin_mask": {"i": "0"}, "new_axis_mask": {"i": "0"}, "end_mask": {"i": "0"}}}, {"name": "Preprocessor/map/strided_slice", "op": "StridedSlice", "input": ["Preprocessor/map/Shape", "Preprocessor/map/strided_slice/stack", "Preprocessor/map/strided_slice/stack_1", "Preprocessor/map/strided_slice/stack_2"], "attr": {"T": {"type": "DT_INT32"}, "Index": {"type": "DT_INT32"}, "shrink_axis_mask": {"i": "1"}, "begin_mask": {"i": "0"}, "ellipsis_mask": {"i": "0"}, "new_axis_mask": {"i": "0"}, "end_mask": {"i": "0"}}}, {"name": "Preprocessor/map/TensorArrayUnstack/range", "op": "Range", "input": ["Preprocessor/map/TensorArrayUnstack/range/start", "Preprocessor/map/TensorArrayUnstack/strided_slice", "Preprocessor/map/TensorArrayUnstack/range/delta"], "attr": {"Tidx": {"type": "DT_INT32"}}}, {"name": "Preprocessor/map/TensorArray_2", "op": "TensorArrayV3", "input": ["Preprocessor/map/strided_slice"], "attr": {"element_shape": {"shape": {"unknownRank": true}}, "dynamic_size": {"b": false}, "clear_after_read": {"b": true}, "identical_element_shapes": {"b": true}, "tensor_array_name": {"s": ""}, "dtype": {"type": "DT_INT32"}}}, {"name": "Preprocessor/map/TensorArray_1", "op": "TensorArrayV3", "input": ["Preprocessor/map/strided_slice"], "attr": {"element_shape": {"shape": {"unknownRank": true}}, "dynamic_size": {"b": false}, "clear_after_read": {"b": true}, "identical_element_shapes": {"b": true}, "tensor_array_name": {"s": ""}, "dtype": {"type": "DT_FLOAT"}}}, {"name": "Preprocessor/map/TensorArray", "op": "TensorArrayV3", "input": ["Preprocessor/map/strided_slice"], "attr": {"element_shape": {"shape": {"unknownRank": true}}, "clear_after_read": {"b": true}, "dynamic_size": {"b": false}, "identical_element_shapes": {"b": true}, "tensor_array_name": {"s": ""}, "dtype": {"type": "DT_FLOAT"}}}, {"name": "Preprocessor/map/while/Less/Enter", "op": "Enter", "input": ["Preprocessor/map/strided_slice"], "attr": {"T": {"type": "DT_INT32"}, "is_constant": {"b": true}, "parallel_iterations": {"i": "32"}, "frame_name": {"s": "UHJlcHJvY2Vzc29yL21hcC93aGlsZS93aGlsZV9jb250ZXh0"}}}, {"name": "Preprocessor/map/while/TensorArrayWrite_1/TensorArrayWriteV3/Enter", "op": "Enter", "input": ["Preprocessor/map/TensorArray_2"], "attr": {"T": {"type": "DT_RESOURCE"}, "is_constant": {"b": true}, "parallel_iterations": {"i": "32"}, "frame_name": {"s": "UHJlcHJvY2Vzc29yL21hcC93aGlsZS93aGlsZV9jb250ZXh0"}}}, {"name": "Preprocessor/map/while/Enter_3", "op": "Enter", "input": ["Preprocessor/map/TensorArray_2:1"], "attr": {"T": {"type": "DT_FLOAT"}, "is_constant": {"b": false}, "parallel_iterations": {"i": "32"}, "frame_name": {"s": "UHJlcHJvY2Vzc29yL21hcC93aGlsZS93aGlsZV9jb250ZXh0"}}}, {"name": "Preprocessor/map/while/TensorArrayWrite/TensorArrayWriteV3/Enter", "op": "Enter", "input": ["Preprocessor/map/TensorArray_1"], "attr": {"T": {"type": "DT_RESOURCE"}, "is_constant": {"b": true}, "parallel_iterations": {"i": "32"}, "frame_name": {"s": "UHJlcHJvY2Vzc29yL21hcC93aGlsZS93aGlsZV9jb250ZXh0"}}}, {"name": "Preprocessor/map/while/Enter_2", "op": "Enter", "input": ["Preprocessor/map/TensorArray_1:1"], "attr": {"T": {"type": "DT_FLOAT"}, "is_constant": {"b": false}, "parallel_iterations": {"i": "32"}, "frame_name": {"s": "UHJlcHJvY2Vzc29yL21hcC93aGlsZS93aGlsZV9jb250ZXh0"}}}, {"name": "Preprocessor/map/while/TensorArrayReadV3/Enter", "op": "Enter", "input": ["Preprocessor/map/TensorArray"], "attr": {"T": {"type": "DT_RESOURCE"}, "is_constant": {"b": true}, "parallel_iterations": {"i": "32"}, "frame_name": {"s": "UHJlcHJvY2Vzc29yL21hcC93aGlsZS93aGlsZV9jb250ZXh0"}}}, {"name": "Preprocessor/map/TensorArrayUnstack/TensorArrayScatter/TensorArrayScatterV3", "op": "TensorArrayScatterV3", "input": ["Preprocessor/map/TensorArray", "Preprocessor/map/TensorArrayUnstack/range", "Preprocessor/sub", "Preprocessor/map/TensorArray:1"], "attr": {"T": {"type": "DT_FLOAT"}}}, {"name": "Preprocessor/map/while/Less", "op": "Less", "input": ["Preprocessor/map/while/Merge", "Preprocessor/map/while/Less/Enter"], "attr": {"T": {"type": "DT_INT32"}}}, {"name": "Preprocessor/map/while/Less_1", "op": "Less", "input": ["Preprocessor/map/while/Merge_1", "Preprocessor/map/while/Less/Enter"], "attr": {"T": {"type": "DT_INT32"}}}, {"name": "Preprocessor/map/while/Merge_3", "op": "Merge", "input": ["Preprocessor/map/while/Enter_3", "Preprocessor/map/while/NextIteration_3"], "attr": {"T": {"type": "DT_FLOAT"}, "N": {"i": "2"}}}, {"name": "Preprocessor/map/while/Merge_2", "op": "Merge", "input": ["Preprocessor/map/while/Enter_2", "Preprocessor/map/while/NextIteration_2"], "attr": {"T": {"type": "DT_FLOAT"}, "N": {"i": "2"}}}, {"name": "Preprocessor/map/while/TensorArrayReadV3/Enter_1", "op": "Enter", "input": ["Preprocessor/map/TensorArrayUnstack/TensorArrayScatter/TensorArrayScatterV3"], "attr": {"T": {"type": "DT_FLOAT"}, "is_constant": {"b": true}, "parallel_iterations": {"i": "32"}, "frame_name": {"s": "UHJlcHJvY2Vzc29yL21hcC93aGlsZS93aGlsZV9jb250ZXh0"}}}, {"name": "Preprocessor/map/while/LogicalAnd", "op": "LogicalAnd", "input": ["Preprocessor/map/while/Less", "Preprocessor/map/while/Less_1"]}, {"name": "Preprocessor/map/while/LoopCond", "op": "LoopCond", "input": ["Preprocessor/map/while/LogicalAnd"]}, {"name": "Preprocessor/map/while/Switch_3", "op": "Switch", "input": ["Preprocessor/map/while/Merge_3", "Preprocessor/map/while/LoopCond"], "attr": {"T": {"type": "DT_FLOAT"}}}, {"name": "Preprocessor/map/while/Switch_1", "op": "Switch", "input": ["Preprocessor/map/while/Merge_1", "Preprocessor/map/while/LoopCond"], "attr": {"T": {"type": "DT_INT32"}}}, {"name": "Preprocessor/map/while/Switch", "op": "Switch", "input": ["Preprocessor/map/while/Merge", "Preprocessor/map/while/LoopCond"], "attr": {"T": {"type": "DT_INT32"}}}, {"name": "Preprocessor/map/while/Switch_2", "op": "Switch", "input": ["Preprocessor/map/while/Merge_2", "Preprocessor/map/while/LoopCond"], "attr": {"T": {"type": "DT_FLOAT"}}}, {"name": "Preprocessor/map/while/Exit_3", "op": "Exit", "input": ["Preprocessor/map/while/Switch_3"], "attr": {"T": {"type": "DT_FLOAT"}}}, {"name": "Preprocessor/map/while/TensorArrayReadV3", "op": "TensorArrayReadV3", "input": ["Preprocessor/map/while/TensorArrayReadV3/Enter", "Preprocessor/map/while/Switch_1:1", "Preprocessor/map/while/TensorArrayReadV3/Enter_1"], "attr": {"dtype": {"type": "DT_FLOAT"}}}, {"name": "Preprocessor/map/while/Identity", "op": "Identity", "input": ["Preprocessor/map/while/Switch:1"], "attr": {"T": {"type": "DT_INT32"}}}, {"name": "Preprocessor/map/while/Exit_2", "op": "Exit", "input": ["Preprocessor/map/while/Switch_2"], "attr": {"T": {"type": "DT_FLOAT"}}}, {"name": "Preprocessor/map/TensorArrayStack_1/TensorArraySizeV3", "op": "TensorArraySizeV3", "input": ["Preprocessor/map/TensorArray_2", "Preprocessor/map/while/Exit_3"]}, {"name": "Preprocessor/map/while/ResizeImage/stack_1", "op": "Const", "input": ["^Preprocessor/map/while/Identity"], "attr": {"value": {"tensor": {"dtype": "DT_INT32", "tensorShape": {"dim": [{"size": "3"}]}}}, "dtype": {"type": "DT_INT32"}}}, {"name": "Preprocessor/map/while/ResizeImage/resize/ExpandDims/dim", "op": "Const", "input": ["^Preprocessor/map/while/Identity"], "attr": {"value": {"tensor": {"dtype": "DT_INT32", "tensorShape": {}}}, "dtype": {"type": "DT_INT32"}}}, {"name": "Preprocessor/map/while/ResizeImage/stack", "op": "Const", "input": ["^Preprocessor/map/while/Identity"], "attr": {"value": {"tensor": {"dtype": "DT_INT32", "tensorShape": {"dim": [{"size": "2"}]}}}, "dtype": {"type": "DT_INT32"}}}, {"name": "Preprocessor/map/while/add/y", "op": "Const", "input": ["^Preprocessor/map/while/Identity"], "attr": {"value": {"tensor": {"dtype": "DT_INT32", "tensorShape": {}}}, "dtype": {"type": "DT_INT32"}}}, {"name": "Preprocessor/map/while/add_1/y", "op": "Const", "input": ["^Preprocessor/map/while/Identity"], "attr": {"value": {"tensor": {"dtype": "DT_INT32", "tensorShape": {}}}, "dtype": {"type": "DT_INT32"}}}, {"name": "Preprocessor/map/TensorArrayStack/TensorArraySizeV3", "op": "TensorArraySizeV3", "input": ["Preprocessor/map/TensorArray_1", "Preprocessor/map/while/Exit_2"]}, {"name": "Preprocessor/map/TensorArrayStack_1/range", "op": "Range", "input": ["Preprocessor/map/TensorArrayStack_1/range/start", "Preprocessor/map/TensorArrayStack_1/TensorArraySizeV3", "Preprocessor/map/TensorArrayStack_1/range/delta"], "attr": {"Tidx": {"type": "DT_INT32"}}}, {"name": "Preprocessor/map/while/TensorArrayWrite_1/TensorArrayWriteV3", "op": "TensorArrayWriteV3", "input": ["Preprocessor/map/while/TensorArrayWrite_1/TensorArrayWriteV3/Enter", "Preprocessor/map/while/Switch_1:1", "Preprocessor/map/while/ResizeImage/stack_1", "Preprocessor/map/while/Switch_3:1"], "attr": {"T": {"type": "DT_INT32"}}}, {"name": "Preprocessor/map/while/ResizeImage/resize/ExpandDims", "op": "ExpandDims", "input": ["Preprocessor/map/while/TensorArrayReadV3", "Preprocessor/map/while/ResizeImage/resize/ExpandDims/dim"], "attr": {"Tdim": {"type": "DT_INT32"}, "T": {"type": "DT_FLOAT"}}}, {"name": "Preprocessor/map/while/add", "op": "AddV2", "input": ["Preprocessor/map/while/Identity", "Preprocessor/map/while/add/y"], "attr": {"T": {"type": "DT_INT32"}}}, {"name": "Preprocessor/map/while/add_1", "op": "AddV2", "input": ["Preprocessor/map/while/Switch_1:1", "Preprocessor/map/while/add_1/y"], "attr": {"T": {"type": "DT_INT32"}}}, {"name": "Preprocessor/map/TensorArrayStack/range", "op": "Range", "input": ["Preprocessor/map/TensorArrayStack/range/start", "Preprocessor/map/TensorArrayStack/TensorArraySizeV3", "Preprocessor/map/TensorArrayStack/range/delta"], "attr": {"Tidx": {"type": "DT_INT32"}}}, {"name": "Preprocessor/map/TensorArrayStack_1/TensorArrayGatherV3", "op": "TensorArrayGatherV3", "input": ["Preprocessor/map/TensorArray_2", "Preprocessor/map/TensorArrayStack_1/range", "Preprocessor/map/while/Exit_3"], "attr": {"element_shape": {"shape": {"dim": [{"size": "3"}]}}, "dtype": {"type": "DT_INT32"}}}, {"name": "Preprocessor/map/while/NextIteration_3", "op": "NextIteration", "input": ["Preprocessor/map/while/TensorArrayWrite_1/TensorArrayWriteV3"], "attr": {"T": {"type": "DT_FLOAT"}}}, {"name": "Preprocessor/map/while/ResizeImage/resize/ResizeBilinear", "op": "ResizeBilinear", "input": ["Preprocessor/map/while/ResizeImage/resize/ExpandDims", "Preprocessor/map/while/ResizeImage/stack"], "attr": {"align_corners": {"b": false}, "half_pixel_centers": {"b": false}, "T": {"type": "DT_FLOAT"}}}, {"name": "Preprocessor/map/while/NextIteration", "op": "NextIteration", "input": ["Preprocessor/map/while/add"], "attr": {"T": {"type": "DT_INT32"}}}, {"name": "Preprocessor/map/while/NextIteration_1", "op": "NextIteration", "input": ["Preprocessor/map/while/add_1"], "attr": {"T": {"type": "DT_INT32"}}}, {"name": "Preprocessor/map/TensorArrayStack/TensorArrayGatherV3", "op": "TensorArrayGatherV3", "input": ["Preprocessor/map/TensorArray_1", "Preprocessor/map/TensorArrayStack/range", "Preprocessor/map/while/Exit_2"], "attr": {"element_shape": {"shape": {"dim": [{"size": "300"}, {"size": "300"}, {"size": "3"}]}}, "dtype": {"type": "DT_FLOAT"}}}, {"name": "Postprocessor/Cast_1", "op": "Cast", "input": ["Preprocessor/map/TensorArrayStack_1/TensorArrayGatherV3"], "attr": {"SrcT": {"type": "DT_INT32"}, "Truncate": {"b": false}, "DstT": {"type": "DT_FLOAT"}}}, {"name": "Preprocessor/map/while/ResizeImage/resize/Squeeze", "op": "Squeeze", "input": ["Preprocessor/map/while/ResizeImage/resize/ResizeBilinear"], "attr": {"squeeze_dims": {"list": {"i": ["0"]}}, "T": {"type": "DT_FLOAT"}}}, {"name": "FeatureExtractor/InceptionV2/InceptionV2/Conv2d_1a_7x7/separable_conv2d/depthwise", "op": "DepthwiseConv2dNative", "input": ["Preprocessor/map/TensorArrayStack/TensorArrayGatherV3", "FeatureExtractor/InceptionV2/Conv2d_1a_7x7/depthwise_weights"], "attr": {"dilations": {"list": {"i": ["1", "1", "1", "1"]}}, "T": {"type": "DT_FLOAT"}, "strides": {"list": {"i": ["1", "2", "2", "1"]}}, "data_format": {"s": "TkhXQw=="}, "explicit_paddings": {"list": {}}, "padding": {"s": "U0FNRQ=="}}}, {"name": "Postprocessor/unstack", "op": "Unpack", "input": ["Postprocessor/Cast_1"], "attr": {"T": {"type": "DT_FLOAT"}, "num": {"i": "3"}, "axis": {"i": "1"}}}, {"name": "Preprocessor/map/while/TensorArrayWrite/TensorArrayWriteV3", "op": "TensorArrayWriteV3", "input": ["Preprocessor/map/while/TensorArrayWrite/TensorArrayWriteV3/Enter", "Preprocessor/map/while/Switch_1:1", "Preprocessor/map/while/ResizeImage/resize/Squeeze", "Preprocessor/map/while/Switch_2:1"], "attr": {"T": {"type": "DT_FLOAT"}}}, {"name": "FeatureExtractor/InceptionV2/InceptionV2/Conv2d_1a_7x7/Relu6", "op": "_FusedConv2D", "input": ["FeatureExtractor/InceptionV2/InceptionV2/Conv2d_1a_7x7/separable_conv2d/depthwise", "FeatureExtractor/InceptionV2/InceptionV2/Conv2d_1a_7x7/separable_conv2d_weights", "FeatureExtractor/InceptionV2/InceptionV2/Conv2d_1a_7x7/separable_conv2d_bn_offset"], "device": "/device:CPU:0", "attr": {"dilations": {"list": {"i": ["1", "1", "1", "1"]}}, "T": {"type": "DT_FLOAT"}, "data_format": {"s": "TkhXQw=="}, "strides": {"list": {"i": ["1", "1", "1", "1"]}}, "explicit_paddings": {"list": {}}, "use_cudnn_on_gpu": {"b": true}, "num_args": {"i": "1"}, "epsilon": {"f": 0.0}, "padding": {"s": "VkFMSUQ="}, "fused_ops": {"list": {"s": ["Qmlhc0FkZA==", "UmVsdTY="]}}}}, {"name": "Postprocessor/zeros_like", "op": "ZerosLike", "input": ["Postprocessor/unstack"], "attr": {"T": {"type": "DT_FLOAT"}}}, {"name": "Postprocessor/truediv", "op": "Mul", "input": ["Postprocessor/unstack", "ConstantFolding/Postprocessor/truediv_recip"], "attr": {"T": {"type": "DT_FLOAT"}}}, {"name": "Postprocessor/zeros_like_1", "op": "ZerosLike", "input": ["Postprocessor/unstack:1"], "attr": {"T": {"type": "DT_FLOAT"}}}, {"name": "Postprocessor/truediv_1", "op": "Mul", "input": ["Postprocessor/unstack:1", "ConstantFolding/Postprocessor/truediv_1_recip"], "attr": {"T": {"type": "DT_FLOAT"}}}, {"name": "Preprocessor/map/while/NextIteration_2", "op": "NextIteration", "input": ["Preprocessor/map/while/TensorArrayWrite/TensorArrayWriteV3"], "attr": {"T": {"type": "DT_FLOAT"}}}, {"name": "FeatureExtractor/InceptionV2/InceptionV2/MaxPool_2a_3x3/MaxPool", "op": "MaxPool", "input": ["FeatureExtractor/InceptionV2/InceptionV2/Conv2d_1a_7x7/Relu6"], "attr": {"T": {"type": "DT_FLOAT"}, "data_format": {"s": "TkhXQw=="}, "strides": {"list": {"i": ["1", "2", "2", "1"]}}, "explicit_paddings": {"list": {}}, "ksize": {"list": {"i": ["1", "3", "3", "1"]}}, "padding": {"s": "U0FNRQ=="}}}, {"name": "Postprocessor/stack_1", "op": "Pack", "input": ["Postprocessor/zeros_like", "Postprocessor/zeros_like_1", "Postprocessor/truediv", "Postprocessor/truediv_1"], "attr": {"T": {"type": "DT_FLOAT"}, "axis": {"i": "1"}, "N": {"i": "4"}}}, {"name": "FeatureExtractor/InceptionV2/InceptionV2/Conv2d_2b_1x1/Relu6", "op": "_FusedConv2D", "input": ["FeatureExtractor/InceptionV2/InceptionV2/MaxPool_2a_3x3/MaxPool", "FeatureExtractor/InceptionV2/InceptionV2/Conv2d_2b_1x1/Conv2D_weights", "FeatureExtractor/InceptionV2/InceptionV2/Conv2d_2b_1x1/Conv2D_bn_offset"], "device": "/device:CPU:0", "attr": {"dilations": {"list": {"i": ["1", "1", "1", "1"]}}, "T": {"type": "DT_FLOAT"}, "data_format": {"s": "TkhXQw=="}, "strides": {"list": {"i": ["1", "1", "1", "1"]}}, "explicit_paddings": {"list": {}}, "use_cudnn_on_gpu": {"b": true}, "num_args": {"i": "1"}, "epsilon": {"f": 0.0}, "padding": {"s": "U0FNRQ=="}, "fused_ops": {"list": {"s": ["Qmlhc0FkZA==", "UmVsdTY="]}}}}, {"name": "Postprocessor/BatchMultiClassNonMaxSuppression/map/TensorArrayUnstack_3/Shape", "op": "Shape", "input": ["Postprocessor/stack_1"], "attr": {"T": {"type": "DT_FLOAT"}, "out_type": {"type": "DT_INT32"}}}, {"name": "FeatureExtractor/InceptionV2/InceptionV2/Conv2d_2c_3x3/Relu6", "op": "_FusedConv2D", "input": ["FeatureExtractor/InceptionV2/InceptionV2/Conv2d_2b_1x1/Relu6", "FeatureExtractor/InceptionV2/InceptionV2/Conv2d_2c_3x3/Conv2D_weights", "FeatureExtractor/InceptionV2/InceptionV2/Conv2d_2c_3x3/Conv2D_bn_offset"], "device": "/device:CPU:0", "attr": {"dilations": {"list": {"i": ["1", "1", "1", "1"]}}, "T": {"type": "DT_FLOAT"}, "data_format": {"s": "TkhXQw=="}, "strides": {"list": {"i": ["1", "1", "1", "1"]}}, "explicit_paddings": {"list": {}}, "use_cudnn_on_gpu": {"b": true}, "num_args": {"i": "1"}, "epsilon": {"f": 0.0}, "padding": {"s": "U0FNRQ=="}, "fused_ops": {"list": {"s": ["Qmlhc0FkZA==", "UmVsdTY="]}}}}, {"name": "Postprocessor/BatchMultiClassNonMaxSuppression/map/TensorArrayUnstack_3/strided_slice", "op": "StridedSlice", "input": ["Postprocessor/BatchMultiClassNonMaxSuppression/map/TensorArrayUnstack_3/Shape", "Postprocessor/BatchMultiClassNonMaxSuppression/map/TensorArrayUnstack_3/strided_slice/stack", "Postprocessor/BatchMultiClassNonMaxSuppression/map/TensorArrayUnstack_3/strided_slice/stack_1", "Postprocessor/BatchMultiClassNonMaxSuppression/map/TensorArrayUnstack_3/strided_slice/stack_2"], "attr": {"T": {"type": "DT_INT32"}, "Index": {"type": "DT_INT32"}, "shrink_axis_mask": {"i": "1"}, "ellipsis_mask": {"i": "0"}, "begin_mask": {"i": "0"}, "new_axis_mask": {"i": "0"}, "end_mask": {"i": "0"}}}, {"name": "FeatureExtractor/InceptionV2/InceptionV2/MaxPool_3a_3x3/MaxPool", "op": "MaxPool", "input": ["FeatureExtractor/InceptionV2/InceptionV2/Conv2d_2c_3x3/Relu6"], "attr": {"T": {"type": "DT_FLOAT"}, "data_format": {"s": "TkhXQw=="}, "strides": {"list": {"i": ["1", "2", "2", "1"]}}, "explicit_paddings": {"list": {}}, "ksize": {"list": {"i": ["1", "3", "3", "1"]}}, "padding": {"s": "U0FNRQ=="}}}, {"name": "Postprocessor/BatchMultiClassNonMaxSuppression/map/TensorArrayUnstack_3/range", "op": "Range", "input": ["Postprocessor/BatchMultiClassNonMaxSuppression/map/TensorArrayUnstack_3/range/start", "Postprocessor/BatchMultiClassNonMaxSuppression/map/TensorArrayUnstack_3/strided_slice", "Postprocessor/BatchMultiClassNonMaxSuppression/map/TensorArrayUnstack_3/range/delta"], "attr": {"Tidx": {"type": "DT_INT32"}}}, {"name": "FeatureExtractor/InceptionV2/InceptionV2/Mixed_3b/Branch_3/AvgPool_0a_3x3/AvgPool", "op": "AvgPool", "input": ["FeatureExtractor/InceptionV2/InceptionV2/MaxPool_3a_3x3/MaxPool"], "attr": {"ksize": {"list": {"i": ["1", "3", "3", "1"]}}, "padding": {"s": "U0FNRQ=="}, "T": {"type": "DT_FLOAT"}, "data_format": {"s": "TkhXQw=="}, "strides": {"list": {"i": ["1", "1", "1", "1"]}}}}, {"name": "FeatureExtractor/InceptionV2/InceptionV2/Mixed_3b/Branch_0/Conv2d_0a_1x1/Relu6", "op": "_FusedConv2D", "input": ["FeatureExtractor/InceptionV2/InceptionV2/MaxPool_3a_3x3/MaxPool", "FeatureExtractor/InceptionV2/InceptionV2/Mixed_3b/Branch_0/Conv2d_0a_1x1/Conv2D_weights", "FeatureExtractor/InceptionV2/InceptionV2/Mixed_3b/Branch_0/Conv2d_0a_1x1/Conv2D_bn_offset"], "device": "/device:CPU:0", "attr": {"dilations": {"list": {"i": ["1", "1", "1", "1"]}}, "T": {"type": "DT_FLOAT"}, "data_format": {"s": "TkhXQw=="}, "strides": {"list": {"i": ["1", "1", "1", "1"]}}, "explicit_paddings": {"list": {}}, "use_cudnn_on_gpu": {"b": true}, "num_args": {"i": "1"}, "epsilon": {"f": 0.0}, "padding": {"s": "U0FNRQ=="}, "fused_ops": {"list": {"s": ["Qmlhc0FkZA==", "UmVsdTY="]}}}}, {"name": "FeatureExtractor/InceptionV2/InceptionV2/Mixed_3b/Branch_1/Conv2d_0a_1x1/Relu6", "op": "_FusedConv2D", "input": ["FeatureExtractor/InceptionV2/InceptionV2/MaxPool_3a_3x3/MaxPool", "FeatureExtractor/InceptionV2/InceptionV2/Mixed_3b/Branch_1/Conv2d_0a_1x1/Conv2D_weights", "FeatureExtractor/InceptionV2/InceptionV2/Mixed_3b/Branch_1/Conv2d_0a_1x1/Conv2D_bn_offset"], "device": "/device:CPU:0", "attr": {"dilations": {"list": {"i": ["1", "1", "1", "1"]}}, "T": {"type": "DT_FLOAT"}, "data_format": {"s": "TkhXQw=="}, "strides": {"list": {"i": ["1", "1", "1", "1"]}}, "explicit_paddings": {"list": {}}, "use_cudnn_on_gpu": {"b": true}, "num_args": {"i": "1"}, "epsilon": {"f": 0.0}, "padding": {"s": "U0FNRQ=="}, "fused_ops": {"list": {"s": ["Qmlhc0FkZA==", "UmVsdTY="]}}}}, {"name": "FeatureExtractor/InceptionV2/InceptionV2/Mixed_3b/Branch_2/Conv2d_0a_1x1/Relu6", "op": "_FusedConv2D", "input": ["FeatureExtractor/InceptionV2/InceptionV2/MaxPool_3a_3x3/MaxPool", "FeatureExtractor/InceptionV2/InceptionV2/Mixed_3b/Branch_2/Conv2d_0a_1x1/Conv2D_weights", "FeatureExtractor/InceptionV2/InceptionV2/Mixed_3b/Branch_2/Conv2d_0a_1x1/Conv2D_bn_offset"], "device": "/device:CPU:0", "attr": {"dilations": {"list": {"i": ["1", "1", "1", "1"]}}, "T": {"type": "DT_FLOAT"}, "data_format": {"s": "TkhXQw=="}, "strides": {"list": {"i": ["1", "1", "1", "1"]}}, "explicit_paddings": {"list": {}}, "use_cudnn_on_gpu": {"b": true}, "num_args": {"i": "1"}, "epsilon": {"f": 0.0}, "padding": {"s": "U0FNRQ=="}, "fused_ops": {"list": {"s": ["Qmlhc0FkZA==", "UmVsdTY="]}}}}, {"name": "FeatureExtractor/InceptionV2/InceptionV2/Mixed_3b/Branch_3/Conv2d_0b_1x1/Relu6", "op": "_FusedConv2D", "input": ["FeatureExtractor/InceptionV2/InceptionV2/Mixed_3b/Branch_3/AvgPool_0a_3x3/AvgPool", "FeatureExtractor/InceptionV2/InceptionV2/Mixed_3b/Branch_3/Conv2d_0b_1x1/Conv2D_weights", "FeatureExtractor/InceptionV2/InceptionV2/Mixed_3b/Branch_3/Conv2d_0b_1x1/Conv2D_bn_offset"], "device": "/device:CPU:0", "attr": {"dilations": {"list": {"i": ["1", "1", "1", "1"]}}, "T": {"type": "DT_FLOAT"}, "data_format": {"s": "TkhXQw=="}, "strides": {"list": {"i": ["1", "1", "1", "1"]}}, "explicit_paddings": {"list": {}}, "use_cudnn_on_gpu": {"b": true}, "num_args": {"i": "1"}, "epsilon": {"f": 0.0}, "padding": {"s": "U0FNRQ=="}, "fused_ops": {"list": {"s": ["Qmlhc0FkZA==", "UmVsdTY="]}}}}, {"name": "FeatureExtractor/InceptionV2/InceptionV2/Mixed_3b/Branch_1/Conv2d_0b_3x3/Relu6", "op": "_FusedConv2D", "input": ["FeatureExtractor/InceptionV2/InceptionV2/Mixed_3b/Branch_1/Conv2d_0a_1x1/Relu6", "FeatureExtractor/InceptionV2/InceptionV2/Mixed_3b/Branch_1/Conv2d_0b_3x3/Conv2D_weights", "FeatureExtractor/InceptionV2/InceptionV2/Mixed_3b/Branch_1/Conv2d_0b_3x3/Conv2D_bn_offset"], "device": "/device:CPU:0", "attr": {"dilations": {"list": {"i": ["1", "1", "1", "1"]}}, "T": {"type": "DT_FLOAT"}, "data_format": {"s": "TkhXQw=="}, "strides": {"list": {"i": ["1", "1", "1", "1"]}}, "explicit_paddings": {"list": {}}, "use_cudnn_on_gpu": {"b": true}, "num_args": {"i": "1"}, "epsilon": {"f": 0.0}, "padding": {"s": "U0FNRQ=="}, "fused_ops": {"list": {"s": ["Qmlhc0FkZA==", "UmVsdTY="]}}}}, {"name": "FeatureExtractor/InceptionV2/InceptionV2/Mixed_3b/Branch_2/Conv2d_0b_3x3/Relu6", "op": "_FusedConv2D", "input": ["FeatureExtractor/InceptionV2/InceptionV2/Mixed_3b/Branch_2/Conv2d_0a_1x1/Relu6", "FeatureExtractor/InceptionV2/InceptionV2/Mixed_3b/Branch_2/Conv2d_0b_3x3/Conv2D_weights", "FeatureExtractor/InceptionV2/InceptionV2/Mixed_3b/Branch_2/Conv2d_0b_3x3/Conv2D_bn_offset"], "device": "/device:CPU:0", "attr": {"dilations": {"list": {"i": ["1", "1", "1", "1"]}}, "T": {"type": "DT_FLOAT"}, "data_format": {"s": "TkhXQw=="}, "strides": {"list": {"i": ["1", "1", "1", "1"]}}, "explicit_paddings": {"list": {}}, "use_cudnn_on_gpu": {"b": true}, "num_args": {"i": "1"}, "epsilon": {"f": 0.0}, "padding": {"s": "U0FNRQ=="}, "fused_ops": {"list": {"s": ["Qmlhc0FkZA==", "UmVsdTY="]}}}}, {"name": "FeatureExtractor/InceptionV2/InceptionV2/Mixed_3b/Branch_2/Conv2d_0c_3x3/Relu6", "op": "_FusedConv2D", "input": ["FeatureExtractor/InceptionV2/InceptionV2/Mixed_3b/Branch_2/Conv2d_0b_3x3/Relu6", "FeatureExtractor/InceptionV2/InceptionV2/Mixed_3b/Branch_2/Conv2d_0c_3x3/Conv2D_weights", "FeatureExtractor/InceptionV2/InceptionV2/Mixed_3b/Branch_2/Conv2d_0c_3x3/Conv2D_bn_offset"], "device": "/device:CPU:0", "attr": {"dilations": {"list": {"i": ["1", "1", "1", "1"]}}, "T": {"type": "DT_FLOAT"}, "data_format": {"s": "TkhXQw=="}, "strides": {"list": {"i": ["1", "1", "1", "1"]}}, "explicit_paddings": {"list": {}}, "use_cudnn_on_gpu": {"b": true}, "num_args": {"i": "1"}, "epsilon": {"f": 0.0}, "padding": {"s": "U0FNRQ=="}, "fused_ops": {"list": {"s": ["Qmlhc0FkZA==", "UmVsdTY="]}}}}, {"name": "FeatureExtractor/InceptionV2/InceptionV2/Mixed_3b/concat", "op": "ConcatV2", "input": ["FeatureExtractor/InceptionV2/InceptionV2/Mixed_3b/Branch_0/Conv2d_0a_1x1/Relu6", "FeatureExtractor/InceptionV2/InceptionV2/Mixed_3b/Branch_1/Conv2d_0b_3x3/Relu6", "FeatureExtractor/InceptionV2/InceptionV2/Mixed_3b/Branch_2/Conv2d_0c_3x3/Relu6", "FeatureExtractor/InceptionV2/InceptionV2/Mixed_3b/Branch_3/Conv2d_0b_1x1/Relu6", "FeatureExtractor/InceptionV2/InceptionV2/Mixed_3b/concat/axis"], "attr": {"Tidx": {"type": "DT_INT32"}, "T": {"type": "DT_FLOAT"}, "N": {"i": "4"}}}, {"name": "FeatureExtractor/InceptionV2/InceptionV2/Mixed_3c/Branch_3/AvgPool_0a_3x3/AvgPool", "op": "AvgPool", "input": ["FeatureExtractor/InceptionV2/InceptionV2/Mixed_3b/concat"], "attr": {"ksize": {"list": {"i": ["1", "3", "3", "1"]}}, "padding": {"s": "U0FNRQ=="}, "T": {"type": "DT_FLOAT"}, "strides": {"list": {"i": ["1", "1", "1", "1"]}}, "data_format": {"s": "TkhXQw=="}}}, {"name": "FeatureExtractor/InceptionV2/InceptionV2/Mixed_3c/Branch_0/Conv2d_0a_1x1/Relu6", "op": "_FusedConv2D", "input": ["FeatureExtractor/InceptionV2/InceptionV2/Mixed_3b/concat", "FeatureExtractor/InceptionV2/InceptionV2/Mixed_3c/Branch_0/Conv2d_0a_1x1/Conv2D_weights", "FeatureExtractor/InceptionV2/InceptionV2/Mixed_3c/Branch_0/Conv2d_0a_1x1/Conv2D_bn_offset"], "device": "/device:CPU:0", "attr": {"dilations": {"list": {"i": ["1", "1", "1", "1"]}}, "T": {"type": "DT_FLOAT"}, "data_format": {"s": "TkhXQw=="}, "strides": {"list": {"i": ["1", "1", "1", "1"]}}, "explicit_paddings": {"list": {}}, "use_cudnn_on_gpu": {"b": true}, "num_args": {"i": "1"}, "epsilon": {"f": 0.0}, "padding": {"s": "U0FNRQ=="}, "fused_ops": {"list": {"s": ["Qmlhc0FkZA==", "UmVsdTY="]}}}}, {"name": "FeatureExtractor/InceptionV2/InceptionV2/Mixed_3c/Branch_1/Conv2d_0a_1x1/Relu6", "op": "_FusedConv2D", "input": ["FeatureExtractor/InceptionV2/InceptionV2/Mixed_3b/concat", "FeatureExtractor/InceptionV2/InceptionV2/Mixed_3c/Branch_1/Conv2d_0a_1x1/Conv2D_weights", "FeatureExtractor/InceptionV2/InceptionV2/Mixed_3c/Branch_1/Conv2d_0a_1x1/Conv2D_bn_offset"], "device": "/device:CPU:0", "attr": {"dilations": {"list": {"i": ["1", "1", "1", "1"]}}, "T": {"type": "DT_FLOAT"}, "data_format": {"s": "TkhXQw=="}, "strides": {"list": {"i": ["1", "1", "1", "1"]}}, "explicit_paddings": {"list": {}}, "use_cudnn_on_gpu": {"b": true}, "num_args": {"i": "1"}, "epsilon": {"f": 0.0}, "padding": {"s": "U0FNRQ=="}, "fused_ops": {"list": {"s": ["Qmlhc0FkZA==", "UmVsdTY="]}}}}, {"name": "FeatureExtractor/InceptionV2/InceptionV2/Mixed_3c/Branch_2/Conv2d_0a_1x1/Relu6", "op": "_FusedConv2D", "input": ["FeatureExtractor/InceptionV2/InceptionV2/Mixed_3b/concat", "FeatureExtractor/InceptionV2/InceptionV2/Mixed_3c/Branch_2/Conv2d_0a_1x1/Conv2D_weights", "FeatureExtractor/InceptionV2/InceptionV2/Mixed_3c/Branch_2/Conv2d_0a_1x1/Conv2D_bn_offset"], "device": "/device:CPU:0", "attr": {"dilations": {"list": {"i": ["1", "1", "1", "1"]}}, "T": {"type": "DT_FLOAT"}, "data_format": {"s": "TkhXQw=="}, "strides": {"list": {"i": ["1", "1", "1", "1"]}}, "explicit_paddings": {"list": {}}, "use_cudnn_on_gpu": {"b": true}, "num_args": {"i": "1"}, "epsilon": {"f": 0.0}, "padding": {"s": "U0FNRQ=="}, "fused_ops": {"list": {"s": ["Qmlhc0FkZA==", "UmVsdTY="]}}}}, {"name": "FeatureExtractor/InceptionV2/InceptionV2/Mixed_3c/Branch_3/Conv2d_0b_1x1/Relu6", "op": "_FusedConv2D", "input": ["FeatureExtractor/InceptionV2/InceptionV2/Mixed_3c/Branch_3/AvgPool_0a_3x3/AvgPool", "FeatureExtractor/InceptionV2/InceptionV2/Mixed_3c/Branch_3/Conv2d_0b_1x1/Conv2D_weights", "FeatureExtractor/InceptionV2/InceptionV2/Mixed_3c/Branch_3/Conv2d_0b_1x1/Conv2D_bn_offset"], "device": "/device:CPU:0", "attr": {"dilations": {"list": {"i": ["1", "1", "1", "1"]}}, "T": {"type": "DT_FLOAT"}, "data_format": {"s": "TkhXQw=="}, "strides": {"list": {"i": ["1", "1", "1", "1"]}}, "explicit_paddings": {"list": {}}, "use_cudnn_on_gpu": {"b": true}, "num_args": {"i": "1"}, "epsilon": {"f": 0.0}, "padding": {"s": "U0FNRQ=="}, "fused_ops": {"list": {"s": ["Qmlhc0FkZA==", "UmVsdTY="]}}}}, {"name": "FeatureExtractor/InceptionV2/InceptionV2/Mixed_3c/Branch_1/Conv2d_0b_3x3/Relu6", "op": "_FusedConv2D", "input": ["FeatureExtractor/InceptionV2/InceptionV2/Mixed_3c/Branch_1/Conv2d_0a_1x1/Relu6", "FeatureExtractor/InceptionV2/InceptionV2/Mixed_3c/Branch_1/Conv2d_0b_3x3/Conv2D_weights", "FeatureExtractor/InceptionV2/InceptionV2/Mixed_3c/Branch_1/Conv2d_0b_3x3/Conv2D_bn_offset"], "device": "/device:CPU:0", "attr": {"dilations": {"list": {"i": ["1", "1", "1", "1"]}}, "T": {"type": "DT_FLOAT"}, "data_format": {"s": "TkhXQw=="}, "strides": {"list": {"i": ["1", "1", "1", "1"]}}, "explicit_paddings": {"list": {}}, "use_cudnn_on_gpu": {"b": true}, "num_args": {"i": "1"}, "epsilon": {"f": 0.0}, "padding": {"s": "U0FNRQ=="}, "fused_ops": {"list": {"s": ["Qmlhc0FkZA==", "UmVsdTY="]}}}}, {"name": "FeatureExtractor/InceptionV2/InceptionV2/Mixed_3c/Branch_2/Conv2d_0b_3x3/Relu6", "op": "_FusedConv2D", "input": ["FeatureExtractor/InceptionV2/InceptionV2/Mixed_3c/Branch_2/Conv2d_0a_1x1/Relu6", "FeatureExtractor/InceptionV2/InceptionV2/Mixed_3c/Branch_2/Conv2d_0b_3x3/Conv2D_weights", "FeatureExtractor/InceptionV2/InceptionV2/Mixed_3c/Branch_2/Conv2d_0b_3x3/Conv2D_bn_offset"], "device": "/device:CPU:0", "attr": {"dilations": {"list": {"i": ["1", "1", "1", "1"]}}, "T": {"type": "DT_FLOAT"}, "data_format": {"s": "TkhXQw=="}, "strides": {"list": {"i": ["1", "1", "1", "1"]}}, "explicit_paddings": {"list": {}}, "use_cudnn_on_gpu": {"b": true}, "num_args": {"i": "1"}, "epsilon": {"f": 0.0}, "padding": {"s": "U0FNRQ=="}, "fused_ops": {"list": {"s": ["Qmlhc0FkZA==", "UmVsdTY="]}}}}, {"name": "FeatureExtractor/InceptionV2/InceptionV2/Mixed_3c/Branch_2/Conv2d_0c_3x3/Relu6", "op": "_FusedConv2D", "input": ["FeatureExtractor/InceptionV2/InceptionV2/Mixed_3c/Branch_2/Conv2d_0b_3x3/Relu6", "FeatureExtractor/InceptionV2/InceptionV2/Mixed_3c/Branch_2/Conv2d_0c_3x3/Conv2D_weights", "FeatureExtractor/InceptionV2/InceptionV2/Mixed_3c/Branch_2/Conv2d_0c_3x3/Conv2D_bn_offset"], "device": "/device:CPU:0", "attr": {"dilations": {"list": {"i": ["1", "1", "1", "1"]}}, "T": {"type": "DT_FLOAT"}, "data_format": {"s": "TkhXQw=="}, "strides": {"list": {"i": ["1", "1", "1", "1"]}}, "explicit_paddings": {"list": {}}, "use_cudnn_on_gpu": {"b": true}, "num_args": {"i": "1"}, "epsilon": {"f": 0.0}, "padding": {"s": "U0FNRQ=="}, "fused_ops": {"list": {"s": ["Qmlhc0FkZA==", "UmVsdTY="]}}}}, {"name": "FeatureExtractor/InceptionV2/InceptionV2/Mixed_3c/concat", "op": "ConcatV2", "input": ["FeatureExtractor/InceptionV2/InceptionV2/Mixed_3c/Branch_0/Conv2d_0a_1x1/Relu6", "FeatureExtractor/InceptionV2/InceptionV2/Mixed_3c/Branch_1/Conv2d_0b_3x3/Relu6", "FeatureExtractor/InceptionV2/InceptionV2/Mixed_3c/Branch_2/Conv2d_0c_3x3/Relu6", "FeatureExtractor/InceptionV2/InceptionV2/Mixed_3c/Branch_3/Conv2d_0b_1x1/Relu6", "FeatureExtractor/InceptionV2/InceptionV2/Mixed_3c/concat/axis"], "attr": {"Tidx": {"type": "DT_INT32"}, "T": {"type": "DT_FLOAT"}, "N": {"i": "4"}}}, {"name": "FeatureExtractor/InceptionV2/InceptionV2/Mixed_4a/Branch_2/MaxPool_1a_3x3/MaxPool", "op": "MaxPool", "input": ["FeatureExtractor/InceptionV2/InceptionV2/Mixed_3c/concat"], "attr": {"T": {"type": "DT_FLOAT"}, "strides": {"list": {"i": ["1", "2", "2", "1"]}}, "data_format": {"s": "TkhXQw=="}, "explicit_paddings": {"list": {}}, "ksize": {"list": {"i": ["1", "3", "3", "1"]}}, "padding": {"s": "U0FNRQ=="}}}, {"name": "FeatureExtractor/InceptionV2/InceptionV2/Mixed_4a/Branch_0/Conv2d_0a_1x1/Relu6", "op": "_FusedConv2D", "input": ["FeatureExtractor/InceptionV2/InceptionV2/Mixed_3c/concat", "FeatureExtractor/InceptionV2/InceptionV2/Mixed_4a/Branch_0/Conv2d_0a_1x1/Conv2D_weights", "FeatureExtractor/InceptionV2/InceptionV2/Mixed_4a/Branch_0/Conv2d_0a_1x1/Conv2D_bn_offset"], "device": "/device:CPU:0", "attr": {"dilations": {"list": {"i": ["1", "1", "1", "1"]}}, "T": {"type": "DT_FLOAT"}, "data_format": {"s": "TkhXQw=="}, "strides": {"list": {"i": ["1", "1", "1", "1"]}}, "explicit_paddings": {"list": {}}, "use_cudnn_on_gpu": {"b": true}, "num_args": {"i": "1"}, "epsilon": {"f": 0.0}, "padding": {"s": "U0FNRQ=="}, "fused_ops": {"list": {"s": ["Qmlhc0FkZA==", "UmVsdTY="]}}}}, {"name": "FeatureExtractor/InceptionV2/InceptionV2/Mixed_4a/Branch_1/Conv2d_0a_1x1/Relu6", "op": "_FusedConv2D", "input": ["FeatureExtractor/InceptionV2/InceptionV2/Mixed_3c/concat", "FeatureExtractor/InceptionV2/InceptionV2/Mixed_4a/Branch_1/Conv2d_0a_1x1/Conv2D_weights", "FeatureExtractor/InceptionV2/InceptionV2/Mixed_4a/Branch_1/Conv2d_0a_1x1/Conv2D_bn_offset"], "device": "/device:CPU:0", "attr": {"dilations": {"list": {"i": ["1", "1", "1", "1"]}}, "T": {"type": "DT_FLOAT"}, "data_format": {"s": "TkhXQw=="}, "strides": {"list": {"i": ["1", "1", "1", "1"]}}, "explicit_paddings": {"list": {}}, "use_cudnn_on_gpu": {"b": true}, "num_args": {"i": "1"}, "epsilon": {"f": 0.0}, "padding": {"s": "U0FNRQ=="}, "fused_ops": {"list": {"s": ["Qmlhc0FkZA==", "UmVsdTY="]}}}}, {"name": "FeatureExtractor/InceptionV2/InceptionV2/Mixed_4a/Branch_0/Conv2d_1a_3x3/Relu6", "op": "_FusedConv2D", "input": ["FeatureExtractor/InceptionV2/InceptionV2/Mixed_4a/Branch_0/Conv2d_0a_1x1/Relu6", "FeatureExtractor/InceptionV2/InceptionV2/Mixed_4a/Branch_0/Conv2d_1a_3x3/Conv2D_weights", "FeatureExtractor/InceptionV2/InceptionV2/Mixed_4a/Branch_0/Conv2d_1a_3x3/Conv2D_bn_offset"], "device": "/device:CPU:0", "attr": {"dilations": {"list": {"i": ["1", "1", "1", "1"]}}, "T": {"type": "DT_FLOAT"}, "data_format": {"s": "TkhXQw=="}, "strides": {"list": {"i": ["1", "2", "2", "1"]}}, "explicit_paddings": {"list": {}}, "use_cudnn_on_gpu": {"b": true}, "num_args": {"i": "1"}, "epsilon": {"f": 0.0}, "padding": {"s": "U0FNRQ=="}, "fused_ops": {"list": {"s": ["Qmlhc0FkZA==", "UmVsdTY="]}}}}, {"name": "FeatureExtractor/InceptionV2/InceptionV2/Mixed_4a/Branch_1/Conv2d_0b_3x3/Relu6", "op": "_FusedConv2D", "input": ["FeatureExtractor/InceptionV2/InceptionV2/Mixed_4a/Branch_1/Conv2d_0a_1x1/Relu6", "FeatureExtractor/InceptionV2/InceptionV2/Mixed_4a/Branch_1/Conv2d_0b_3x3/Conv2D_weights", "FeatureExtractor/InceptionV2/InceptionV2/Mixed_4a/Branch_1/Conv2d_0b_3x3/Conv2D_bn_offset"], "device": "/device:CPU:0", "attr": {"dilations": {"list": {"i": ["1", "1", "1", "1"]}}, "T": {"type": "DT_FLOAT"}, "data_format": {"s": "TkhXQw=="}, "strides": {"list": {"i": ["1", "1", "1", "1"]}}, "explicit_paddings": {"list": {}}, "use_cudnn_on_gpu": {"b": true}, "num_args": {"i": "1"}, "epsilon": {"f": 0.0}, "padding": {"s": "U0FNRQ=="}, "fused_ops": {"list": {"s": ["Qmlhc0FkZA==", "UmVsdTY="]}}}}, {"name": "FeatureExtractor/InceptionV2/InceptionV2/Mixed_4a/Branch_1/Conv2d_1a_3x3/Relu6", "op": "_FusedConv2D", "input": ["FeatureExtractor/InceptionV2/InceptionV2/Mixed_4a/Branch_1/Conv2d_0b_3x3/Relu6", "FeatureExtractor/InceptionV2/InceptionV2/Mixed_4a/Branch_1/Conv2d_1a_3x3/Conv2D_weights", "FeatureExtractor/InceptionV2/InceptionV2/Mixed_4a/Branch_1/Conv2d_1a_3x3/Conv2D_bn_offset"], "device": "/device:CPU:0", "attr": {"dilations": {"list": {"i": ["1", "1", "1", "1"]}}, "T": {"type": "DT_FLOAT"}, "data_format": {"s": "TkhXQw=="}, "strides": {"list": {"i": ["1", "2", "2", "1"]}}, "explicit_paddings": {"list": {}}, "use_cudnn_on_gpu": {"b": true}, "num_args": {"i": "1"}, "epsilon": {"f": 0.0}, "padding": {"s": "U0FNRQ=="}, "fused_ops": {"list": {"s": ["Qmlhc0FkZA==", "UmVsdTY="]}}}}, {"name": "FeatureExtractor/InceptionV2/InceptionV2/Mixed_4a/concat", "op": "ConcatV2", "input": ["FeatureExtractor/InceptionV2/InceptionV2/Mixed_4a/Branch_0/Conv2d_1a_3x3/Relu6", "FeatureExtractor/InceptionV2/InceptionV2/Mixed_4a/Branch_1/Conv2d_1a_3x3/Relu6", "FeatureExtractor/InceptionV2/InceptionV2/Mixed_4a/Branch_2/MaxPool_1a_3x3/MaxPool", "FeatureExtractor/InceptionV2/InceptionV2/Mixed_4a/concat/axis"], "attr": {"Tidx": {"type": "DT_INT32"}, "T": {"type": "DT_FLOAT"}, "N": {"i": "3"}}}, {"name": "FeatureExtractor/InceptionV2/InceptionV2/Mixed_4b/Branch_3/AvgPool_0a_3x3/AvgPool", "op": "AvgPool", "input": ["FeatureExtractor/InceptionV2/InceptionV2/Mixed_4a/concat"], "attr": {"ksize": {"list": {"i": ["1", "3", "3", "1"]}}, "padding": {"s": "U0FNRQ=="}, "T": {"type": "DT_FLOAT"}, "strides": {"list": {"i": ["1", "1", "1", "1"]}}, "data_format": {"s": "TkhXQw=="}}}, {"name": "FeatureExtractor/InceptionV2/InceptionV2/Mixed_4b/Branch_0/Conv2d_0a_1x1/Relu6", "op": "_FusedConv2D", "input": ["FeatureExtractor/InceptionV2/InceptionV2/Mixed_4a/concat", "FeatureExtractor/InceptionV2/InceptionV2/Mixed_4b/Branch_0/Conv2d_0a_1x1/Conv2D_weights", "FeatureExtractor/InceptionV2/InceptionV2/Mixed_4b/Branch_0/Conv2d_0a_1x1/Conv2D_bn_offset"], "device": "/device:CPU:0", "attr": {"dilations": {"list": {"i": ["1", "1", "1", "1"]}}, "T": {"type": "DT_FLOAT"}, "data_format": {"s": "TkhXQw=="}, "strides": {"list": {"i": ["1", "1", "1", "1"]}}, "explicit_paddings": {"list": {}}, "use_cudnn_on_gpu": {"b": true}, "num_args": {"i": "1"}, "epsilon": {"f": 0.0}, "padding": {"s": "U0FNRQ=="}, "fused_ops": {"list": {"s": ["Qmlhc0FkZA==", "UmVsdTY="]}}}}, {"name": "FeatureExtractor/InceptionV2/InceptionV2/Mixed_4b/Branch_1/Conv2d_0a_1x1/Relu6", "op": "_FusedConv2D", "input": ["FeatureExtractor/InceptionV2/InceptionV2/Mixed_4a/concat", "FeatureExtractor/InceptionV2/InceptionV2/Mixed_4b/Branch_1/Conv2d_0a_1x1/Conv2D_weights", "FeatureExtractor/InceptionV2/InceptionV2/Mixed_4b/Branch_1/Conv2d_0a_1x1/Conv2D_bn_offset"], "device": "/device:CPU:0", "attr": {"dilations": {"list": {"i": ["1", "1", "1", "1"]}}, "T": {"type": "DT_FLOAT"}, "data_format": {"s": "TkhXQw=="}, "strides": {"list": {"i": ["1", "1", "1", "1"]}}, "explicit_paddings": {"list": {}}, "use_cudnn_on_gpu": {"b": true}, "num_args": {"i": "1"}, "epsilon": {"f": 0.0}, "padding": {"s": "U0FNRQ=="}, "fused_ops": {"list": {"s": ["Qmlhc0FkZA==", "UmVsdTY="]}}}}, {"name": "FeatureExtractor/InceptionV2/InceptionV2/Mixed_4b/Branch_2/Conv2d_0a_1x1/Relu6", "op": "_FusedConv2D", "input": ["FeatureExtractor/InceptionV2/InceptionV2/Mixed_4a/concat", "FeatureExtractor/InceptionV2/InceptionV2/Mixed_4b/Branch_2/Conv2d_0a_1x1/Conv2D_weights", "FeatureExtractor/InceptionV2/InceptionV2/Mixed_4b/Branch_2/Conv2d_0a_1x1/Conv2D_bn_offset"], "device": "/device:CPU:0", "attr": {"dilations": {"list": {"i": ["1", "1", "1", "1"]}}, "T": {"type": "DT_FLOAT"}, "data_format": {"s": "TkhXQw=="}, "strides": {"list": {"i": ["1", "1", "1", "1"]}}, "explicit_paddings": {"list": {}}, "use_cudnn_on_gpu": {"b": true}, "num_args": {"i": "1"}, "epsilon": {"f": 0.0}, "padding": {"s": "U0FNRQ=="}, "fused_ops": {"list": {"s": ["Qmlhc0FkZA==", "UmVsdTY="]}}}}, {"name": "FeatureExtractor/InceptionV2/InceptionV2/Mixed_4b/Branch_3/Conv2d_0b_1x1/Relu6", "op": "_FusedConv2D", "input": ["FeatureExtractor/InceptionV2/InceptionV2/Mixed_4b/Branch_3/AvgPool_0a_3x3/AvgPool", "FeatureExtractor/InceptionV2/InceptionV2/Mixed_4b/Branch_3/Conv2d_0b_1x1/Conv2D_weights", "FeatureExtractor/InceptionV2/InceptionV2/Mixed_4b/Branch_3/Conv2d_0b_1x1/Conv2D_bn_offset"], "device": "/device:CPU:0", "attr": {"dilations": {"list": {"i": ["1", "1", "1", "1"]}}, "T": {"type": "DT_FLOAT"}, "data_format": {"s": "TkhXQw=="}, "strides": {"list": {"i": ["1", "1", "1", "1"]}}, "explicit_paddings": {"list": {}}, "use_cudnn_on_gpu": {"b": true}, "num_args": {"i": "1"}, "epsilon": {"f": 0.0}, "padding": {"s": "U0FNRQ=="}, "fused_ops": {"list": {"s": ["Qmlhc0FkZA==", "UmVsdTY="]}}}}, {"name": "FeatureExtractor/InceptionV2/InceptionV2/Mixed_4b/Branch_1/Conv2d_0b_3x3/Relu6", "op": "_FusedConv2D", "input": ["FeatureExtractor/InceptionV2/InceptionV2/Mixed_4b/Branch_1/Conv2d_0a_1x1/Relu6", "FeatureExtractor/InceptionV2/InceptionV2/Mixed_4b/Branch_1/Conv2d_0b_3x3/Conv2D_weights", "FeatureExtractor/InceptionV2/InceptionV2/Mixed_4b/Branch_1/Conv2d_0b_3x3/Conv2D_bn_offset"], "device": "/device:CPU:0", "attr": {"dilations": {"list": {"i": ["1", "1", "1", "1"]}}, "T": {"type": "DT_FLOAT"}, "data_format": {"s": "TkhXQw=="}, "strides": {"list": {"i": ["1", "1", "1", "1"]}}, "explicit_paddings": {"list": {}}, "use_cudnn_on_gpu": {"b": true}, "num_args": {"i": "1"}, "epsilon": {"f": 0.0}, "padding": {"s": "U0FNRQ=="}, "fused_ops": {"list": {"s": ["Qmlhc0FkZA==", "UmVsdTY="]}}}}, {"name": "FeatureExtractor/InceptionV2/InceptionV2/Mixed_4b/Branch_2/Conv2d_0b_3x3/Relu6", "op": "_FusedConv2D", "input": ["FeatureExtractor/InceptionV2/InceptionV2/Mixed_4b/Branch_2/Conv2d_0a_1x1/Relu6", "FeatureExtractor/InceptionV2/InceptionV2/Mixed_4b/Branch_2/Conv2d_0b_3x3/Conv2D_weights", "FeatureExtractor/InceptionV2/InceptionV2/Mixed_4b/Branch_2/Conv2d_0b_3x3/Conv2D_bn_offset"], "device": "/device:CPU:0", "attr": {"dilations": {"list": {"i": ["1", "1", "1", "1"]}}, "T": {"type": "DT_FLOAT"}, "data_format": {"s": "TkhXQw=="}, "strides": {"list": {"i": ["1", "1", "1", "1"]}}, "explicit_paddings": {"list": {}}, "use_cudnn_on_gpu": {"b": true}, "num_args": {"i": "1"}, "epsilon": {"f": 0.0}, "padding": {"s": "U0FNRQ=="}, "fused_ops": {"list": {"s": ["Qmlhc0FkZA==", "UmVsdTY="]}}}}, {"name": "FeatureExtractor/InceptionV2/InceptionV2/Mixed_4b/Branch_2/Conv2d_0c_3x3/Relu6", "op": "_FusedConv2D", "input": ["FeatureExtractor/InceptionV2/InceptionV2/Mixed_4b/Branch_2/Conv2d_0b_3x3/Relu6", "FeatureExtractor/InceptionV2/InceptionV2/Mixed_4b/Branch_2/Conv2d_0c_3x3/Conv2D_weights", "FeatureExtractor/InceptionV2/InceptionV2/Mixed_4b/Branch_2/Conv2d_0c_3x3/Conv2D_bn_offset"], "device": "/device:CPU:0", "attr": {"dilations": {"list": {"i": ["1", "1", "1", "1"]}}, "T": {"type": "DT_FLOAT"}, "data_format": {"s": "TkhXQw=="}, "strides": {"list": {"i": ["1", "1", "1", "1"]}}, "explicit_paddings": {"list": {}}, "use_cudnn_on_gpu": {"b": true}, "num_args": {"i": "1"}, "epsilon": {"f": 0.0}, "padding": {"s": "U0FNRQ=="}, "fused_ops": {"list": {"s": ["Qmlhc0FkZA==", "UmVsdTY="]}}}}, {"name": "FeatureExtractor/InceptionV2/InceptionV2/Mixed_4b/concat", "op": "ConcatV2", "input": ["FeatureExtractor/InceptionV2/InceptionV2/Mixed_4b/Branch_0/Conv2d_0a_1x1/Relu6", "FeatureExtractor/InceptionV2/InceptionV2/Mixed_4b/Branch_1/Conv2d_0b_3x3/Relu6", "FeatureExtractor/InceptionV2/InceptionV2/Mixed_4b/Branch_2/Conv2d_0c_3x3/Relu6", "FeatureExtractor/InceptionV2/InceptionV2/Mixed_4b/Branch_3/Conv2d_0b_1x1/Relu6", "FeatureExtractor/InceptionV2/InceptionV2/Mixed_4b/concat/axis"], "attr": {"Tidx": {"type": "DT_INT32"}, "T": {"type": "DT_FLOAT"}, "N": {"i": "4"}}}, {"name": "FeatureExtractor/InceptionV2/InceptionV2/Mixed_4c/Branch_3/AvgPool_0a_3x3/AvgPool", "op": "AvgPool", "input": ["FeatureExtractor/InceptionV2/InceptionV2/Mixed_4b/concat"], "attr": {"ksize": {"list": {"i": ["1", "3", "3", "1"]}}, "padding": {"s": "U0FNRQ=="}, "T": {"type": "DT_FLOAT"}, "strides": {"list": {"i": ["1", "1", "1", "1"]}}, "data_format": {"s": "TkhXQw=="}}}, {"name": "FeatureExtractor/InceptionV2/InceptionV2/Mixed_4c/Branch_0/Conv2d_0a_1x1/Relu6", "op": "_FusedConv2D", "input": ["FeatureExtractor/InceptionV2/InceptionV2/Mixed_4b/concat", "FeatureExtractor/InceptionV2/InceptionV2/Mixed_4c/Branch_0/Conv2d_0a_1x1/Conv2D_weights", "FeatureExtractor/InceptionV2/InceptionV2/Mixed_4c/Branch_0/Conv2d_0a_1x1/Conv2D_bn_offset"], "device": "/device:CPU:0", "attr": {"dilations": {"list": {"i": ["1", "1", "1", "1"]}}, "T": {"type": "DT_FLOAT"}, "data_format": {"s": "TkhXQw=="}, "strides": {"list": {"i": ["1", "1", "1", "1"]}}, "explicit_paddings": {"list": {}}, "use_cudnn_on_gpu": {"b": true}, "num_args": {"i": "1"}, "epsilon": {"f": 0.0}, "padding": {"s": "U0FNRQ=="}, "fused_ops": {"list": {"s": ["Qmlhc0FkZA==", "UmVsdTY="]}}}}, {"name": "FeatureExtractor/InceptionV2/InceptionV2/Mixed_4c/Branch_1/Conv2d_0a_1x1/Relu6", "op": "_FusedConv2D", "input": ["FeatureExtractor/InceptionV2/InceptionV2/Mixed_4b/concat", "FeatureExtractor/InceptionV2/InceptionV2/Mixed_4c/Branch_1/Conv2d_0a_1x1/Conv2D_weights", "FeatureExtractor/InceptionV2/InceptionV2/Mixed_4c/Branch_1/Conv2d_0a_1x1/Conv2D_bn_offset"], "device": "/device:CPU:0", "attr": {"dilations": {"list": {"i": ["1", "1", "1", "1"]}}, "T": {"type": "DT_FLOAT"}, "data_format": {"s": "TkhXQw=="}, "strides": {"list": {"i": ["1", "1", "1", "1"]}}, "explicit_paddings": {"list": {}}, "use_cudnn_on_gpu": {"b": true}, "num_args": {"i": "1"}, "epsilon": {"f": 0.0}, "padding": {"s": "U0FNRQ=="}, "fused_ops": {"list": {"s": ["Qmlhc0FkZA==", "UmVsdTY="]}}}}, {"name": "FeatureExtractor/InceptionV2/InceptionV2/Mixed_4c/Branch_2/Conv2d_0a_1x1/Relu6", "op": "_FusedConv2D", "input": ["FeatureExtractor/InceptionV2/InceptionV2/Mixed_4b/concat", "FeatureExtractor/InceptionV2/InceptionV2/Mixed_4c/Branch_2/Conv2d_0a_1x1/Conv2D_weights", "FeatureExtractor/InceptionV2/InceptionV2/Mixed_4c/Branch_2/Conv2d_0a_1x1/Conv2D_bn_offset"], "device": "/device:CPU:0", "attr": {"dilations": {"list": {"i": ["1", "1", "1", "1"]}}, "T": {"type": "DT_FLOAT"}, "data_format": {"s": "TkhXQw=="}, "strides": {"list": {"i": ["1", "1", "1", "1"]}}, "explicit_paddings": {"list": {}}, "use_cudnn_on_gpu": {"b": true}, "num_args": {"i": "1"}, "epsilon": {"f": 0.0}, "padding": {"s": "U0FNRQ=="}, "fused_ops": {"list": {"s": ["Qmlhc0FkZA==", "UmVsdTY="]}}}}, {"name": "FeatureExtractor/InceptionV2/InceptionV2/Mixed_4c/Branch_3/Conv2d_0b_1x1/Relu6", "op": "_FusedConv2D", "input": ["FeatureExtractor/InceptionV2/InceptionV2/Mixed_4c/Branch_3/AvgPool_0a_3x3/AvgPool", "FeatureExtractor/InceptionV2/InceptionV2/Mixed_4c/Branch_3/Conv2d_0b_1x1/Conv2D_weights", "FeatureExtractor/InceptionV2/InceptionV2/Mixed_4c/Branch_3/Conv2d_0b_1x1/Conv2D_bn_offset"], "device": "/device:CPU:0", "attr": {"dilations": {"list": {"i": ["1", "1", "1", "1"]}}, "T": {"type": "DT_FLOAT"}, "data_format": {"s": "TkhXQw=="}, "strides": {"list": {"i": ["1", "1", "1", "1"]}}, "explicit_paddings": {"list": {}}, "use_cudnn_on_gpu": {"b": true}, "num_args": {"i": "1"}, "epsilon": {"f": 0.0}, "padding": {"s": "U0FNRQ=="}, "fused_ops": {"list": {"s": ["Qmlhc0FkZA==", "UmVsdTY="]}}}}, {"name": "FeatureExtractor/InceptionV2/InceptionV2/Mixed_4c/Branch_1/Conv2d_0b_3x3/Relu6", "op": "_FusedConv2D", "input": ["FeatureExtractor/InceptionV2/InceptionV2/Mixed_4c/Branch_1/Conv2d_0a_1x1/Relu6", "FeatureExtractor/InceptionV2/InceptionV2/Mixed_4c/Branch_1/Conv2d_0b_3x3/Conv2D_weights", "FeatureExtractor/InceptionV2/InceptionV2/Mixed_4c/Branch_1/Conv2d_0b_3x3/Conv2D_bn_offset"], "device": "/device:CPU:0", "attr": {"dilations": {"list": {"i": ["1", "1", "1", "1"]}}, "T": {"type": "DT_FLOAT"}, "data_format": {"s": "TkhXQw=="}, "strides": {"list": {"i": ["1", "1", "1", "1"]}}, "explicit_paddings": {"list": {}}, "use_cudnn_on_gpu": {"b": true}, "num_args": {"i": "1"}, "epsilon": {"f": 0.0}, "padding": {"s": "U0FNRQ=="}, "fused_ops": {"list": {"s": ["Qmlhc0FkZA==", "UmVsdTY="]}}}}, {"name": "FeatureExtractor/InceptionV2/InceptionV2/Mixed_4c/Branch_2/Conv2d_0b_3x3/Relu6", "op": "_FusedConv2D", "input": ["FeatureExtractor/InceptionV2/InceptionV2/Mixed_4c/Branch_2/Conv2d_0a_1x1/Relu6", "FeatureExtractor/InceptionV2/InceptionV2/Mixed_4c/Branch_2/Conv2d_0b_3x3/Conv2D_weights", "FeatureExtractor/InceptionV2/InceptionV2/Mixed_4c/Branch_2/Conv2d_0b_3x3/Conv2D_bn_offset"], "device": "/device:CPU:0", "attr": {"dilations": {"list": {"i": ["1", "1", "1", "1"]}}, "T": {"type": "DT_FLOAT"}, "data_format": {"s": "TkhXQw=="}, "strides": {"list": {"i": ["1", "1", "1", "1"]}}, "explicit_paddings": {"list": {}}, "use_cudnn_on_gpu": {"b": true}, "num_args": {"i": "1"}, "epsilon": {"f": 0.0}, "padding": {"s": "U0FNRQ=="}, "fused_ops": {"list": {"s": ["Qmlhc0FkZA==", "UmVsdTY="]}}}}, {"name": "FeatureExtractor/InceptionV2/InceptionV2/Mixed_4c/Branch_2/Conv2d_0c_3x3/Relu6", "op": "_FusedConv2D", "input": ["FeatureExtractor/InceptionV2/InceptionV2/Mixed_4c/Branch_2/Conv2d_0b_3x3/Relu6", "FeatureExtractor/InceptionV2/InceptionV2/Mixed_4c/Branch_2/Conv2d_0c_3x3/Conv2D_weights", "FeatureExtractor/InceptionV2/InceptionV2/Mixed_4c/Branch_2/Conv2d_0c_3x3/Conv2D_bn_offset"], "device": "/device:CPU:0", "attr": {"dilations": {"list": {"i": ["1", "1", "1", "1"]}}, "T": {"type": "DT_FLOAT"}, "data_format": {"s": "TkhXQw=="}, "strides": {"list": {"i": ["1", "1", "1", "1"]}}, "explicit_paddings": {"list": {}}, "use_cudnn_on_gpu": {"b": true}, "num_args": {"i": "1"}, "epsilon": {"f": 0.0}, "padding": {"s": "U0FNRQ=="}, "fused_ops": {"list": {"s": ["Qmlhc0FkZA==", "UmVsdTY="]}}}}, {"name": "FeatureExtractor/InceptionV2/InceptionV2/Mixed_4c/concat", "op": "ConcatV2", "input": ["FeatureExtractor/InceptionV2/InceptionV2/Mixed_4c/Branch_0/Conv2d_0a_1x1/Relu6", "FeatureExtractor/InceptionV2/InceptionV2/Mixed_4c/Branch_1/Conv2d_0b_3x3/Relu6", "FeatureExtractor/InceptionV2/InceptionV2/Mixed_4c/Branch_2/Conv2d_0c_3x3/Relu6", "FeatureExtractor/InceptionV2/InceptionV2/Mixed_4c/Branch_3/Conv2d_0b_1x1/Relu6", "FeatureExtractor/InceptionV2/InceptionV2/Mixed_4c/concat/axis"], "attr": {"Tidx": {"type": "DT_INT32"}, "T": {"type": "DT_FLOAT"}, "N": {"i": "4"}}}, {"name": "BoxPredictor_0/BoxEncodingPredictor/BiasAdd", "op": "_FusedConv2D", "input": ["FeatureExtractor/InceptionV2/InceptionV2/Mixed_4c/concat", "BoxPredictor_0/BoxEncodingPredictor/weights", "BoxPredictor_0/BoxEncodingPredictor/biases"], "device": "/device:CPU:0", "attr": {"dilations": {"list": {"i": ["1", "1", "1", "1"]}}, "T": {"type": "DT_FLOAT"}, "data_format": {"s": "TkhXQw=="}, "strides": {"list": {"i": ["1", "1", "1", "1"]}}, "explicit_paddings": {"list": {}}, "use_cudnn_on_gpu": {"b": true}, "num_args": {"i": "1"}, "epsilon": {"f": 0.0}, "padding": {"s": "U0FNRQ=="}, "fused_ops": {"list": {"s": ["Qmlhc0FkZA=="]}}}}, {"name": "BoxPredictor_0/Shape", "op": "Shape", "input": ["FeatureExtractor/InceptionV2/InceptionV2/Mixed_4c/concat"], "attr": {"T": {"type": "DT_FLOAT"}, "out_type": {"type": "DT_INT32"}}}, {"name": "BoxPredictor_0/ClassPredictor/BiasAdd", "op": "_FusedConv2D", "input": ["FeatureExtractor/InceptionV2/InceptionV2/Mixed_4c/concat", "BoxPredictor_0/ClassPredictor/weights", "BoxPredictor_0/ClassPredictor/biases"], "device": "/device:CPU:0", "attr": {"dilations": {"list": {"i": ["1", "1", "1", "1"]}}, "T": {"type": "DT_FLOAT"}, "data_format": {"s": "TkhXQw=="}, "strides": {"list": {"i": ["1", "1", "1", "1"]}}, "explicit_paddings": {"list": {}}, "use_cudnn_on_gpu": {"b": true}, "num_args": {"i": "1"}, "epsilon": {"f": 0.0}, "padding": {"s": "U0FNRQ=="}, "fused_ops": {"list": {"s": ["Qmlhc0FkZA=="]}}}}, {"name": "BoxPredictor_0/Shape_1", "op": "Shape", "input": ["FeatureExtractor/InceptionV2/InceptionV2/Mixed_4c/concat"], "attr": {"T": {"type": "DT_FLOAT"}, "out_type": {"type": "DT_INT32"}}}, {"name": "FeatureExtractor/InceptionV2/InceptionV2/Mixed_4d/Branch_3/AvgPool_0a_3x3/AvgPool", "op": "AvgPool", "input": ["FeatureExtractor/InceptionV2/InceptionV2/Mixed_4c/concat"], "attr": {"ksize": {"list": {"i": ["1", "3", "3", "1"]}}, "padding": {"s": "U0FNRQ=="}, "T": {"type": "DT_FLOAT"}, "data_format": {"s": "TkhXQw=="}, "strides": {"list": {"i": ["1", "1", "1", "1"]}}}}, {"name": "FeatureExtractor/InceptionV2/InceptionV2/Mixed_4d/Branch_0/Conv2d_0a_1x1/Relu6", "op": "_FusedConv2D", "input": ["FeatureExtractor/InceptionV2/InceptionV2/Mixed_4c/concat", "FeatureExtractor/InceptionV2/InceptionV2/Mixed_4d/Branch_0/Conv2d_0a_1x1/Conv2D_weights", "FeatureExtractor/InceptionV2/InceptionV2/Mixed_4d/Branch_0/Conv2d_0a_1x1/Conv2D_bn_offset"], "device": "/device:CPU:0", "attr": {"dilations": {"list": {"i": ["1", "1", "1", "1"]}}, "T": {"type": "DT_FLOAT"}, "data_format": {"s": "TkhXQw=="}, "strides": {"list": {"i": ["1", "1", "1", "1"]}}, "explicit_paddings": {"list": {}}, "use_cudnn_on_gpu": {"b": true}, "num_args": {"i": "1"}, "epsilon": {"f": 0.0}, "padding": {"s": "U0FNRQ=="}, "fused_ops": {"list": {"s": ["Qmlhc0FkZA==", "UmVsdTY="]}}}}, {"name": "FeatureExtractor/InceptionV2/InceptionV2/Mixed_4d/Branch_1/Conv2d_0a_1x1/Relu6", "op": "_FusedConv2D", "input": ["FeatureExtractor/InceptionV2/InceptionV2/Mixed_4c/concat", "FeatureExtractor/InceptionV2/InceptionV2/Mixed_4d/Branch_1/Conv2d_0a_1x1/Conv2D_weights", "FeatureExtractor/InceptionV2/InceptionV2/Mixed_4d/Branch_1/Conv2d_0a_1x1/Conv2D_bn_offset"], "device": "/device:CPU:0", "attr": {"dilations": {"list": {"i": ["1", "1", "1", "1"]}}, "T": {"type": "DT_FLOAT"}, "data_format": {"s": "TkhXQw=="}, "strides": {"list": {"i": ["1", "1", "1", "1"]}}, "explicit_paddings": {"list": {}}, "use_cudnn_on_gpu": {"b": true}, "num_args": {"i": "1"}, "epsilon": {"f": 0.0}, "padding": {"s": "U0FNRQ=="}, "fused_ops": {"list": {"s": ["Qmlhc0FkZA==", "UmVsdTY="]}}}}, {"name": "FeatureExtractor/InceptionV2/InceptionV2/Mixed_4d/Branch_2/Conv2d_0a_1x1/Relu6", "op": "_FusedConv2D", "input": ["FeatureExtractor/InceptionV2/InceptionV2/Mixed_4c/concat", "FeatureExtractor/InceptionV2/InceptionV2/Mixed_4d/Branch_2/Conv2d_0a_1x1/Conv2D_weights", "FeatureExtractor/InceptionV2/InceptionV2/Mixed_4d/Branch_2/Conv2d_0a_1x1/Conv2D_bn_offset"], "device": "/device:CPU:0", "attr": {"dilations": {"list": {"i": ["1", "1", "1", "1"]}}, "T": {"type": "DT_FLOAT"}, "data_format": {"s": "TkhXQw=="}, "strides": {"list": {"i": ["1", "1", "1", "1"]}}, "explicit_paddings": {"list": {}}, "use_cudnn_on_gpu": {"b": true}, "num_args": {"i": "1"}, "epsilon": {"f": 0.0}, "padding": {"s": "U0FNRQ=="}, "fused_ops": {"list": {"s": ["Qmlhc0FkZA==", "UmVsdTY="]}}}}, {"name": "BoxPredictor_0/strided_slice", "op": "StridedSlice", "input": ["BoxPredictor_0/Shape", "BoxPredictor_0/strided_slice/stack", "BoxPredictor_0/strided_slice/stack_1", "BoxPredictor_0/strided_slice/stack_2"], "attr": {"T": {"type": "DT_INT32"}, "Index": {"type": "DT_INT32"}, "shrink_axis_mask": {"i": "1"}, "begin_mask": {"i": "0"}, "ellipsis_mask": {"i": "0"}, "new_axis_mask": {"i": "0"}, "end_mask": {"i": "0"}}}, {"name": "BoxPredictor_0/strided_slice_1", "op": "StridedSlice", "input": ["BoxPredictor_0/Shape_1", "BoxPredictor_0/strided_slice_1/stack", "BoxPredictor_0/strided_slice_1/stack_1", "BoxPredictor_0/strided_slice_1/stack_2"], "attr": {"T": {"type": "DT_INT32"}, "Index": {"type": "DT_INT32"}, "shrink_axis_mask": {"i": "1"}, "begin_mask": {"i": "0"}, "ellipsis_mask": {"i": "0"}, "new_axis_mask": {"i": "0"}, "end_mask": {"i": "0"}}}, {"name": "FeatureExtractor/InceptionV2/InceptionV2/Mixed_4d/Branch_3/Conv2d_0b_1x1/Relu6", "op": "_FusedConv2D", "input": ["FeatureExtractor/InceptionV2/InceptionV2/Mixed_4d/Branch_3/AvgPool_0a_3x3/AvgPool", "FeatureExtractor/InceptionV2/InceptionV2/Mixed_4d/Branch_3/Conv2d_0b_1x1/Conv2D_weights", "FeatureExtractor/InceptionV2/InceptionV2/Mixed_4d/Branch_3/Conv2d_0b_1x1/Conv2D_bn_offset"], "device": "/device:CPU:0", "attr": {"dilations": {"list": {"i": ["1", "1", "1", "1"]}}, "T": {"type": "DT_FLOAT"}, "data_format": {"s": "TkhXQw=="}, "strides": {"list": {"i": ["1", "1", "1", "1"]}}, "explicit_paddings": {"list": {}}, "use_cudnn_on_gpu": {"b": true}, "num_args": {"i": "1"}, "epsilon": {"f": 0.0}, "padding": {"s": "U0FNRQ=="}, "fused_ops": {"list": {"s": ["Qmlhc0FkZA==", "UmVsdTY="]}}}}, {"name": "FeatureExtractor/InceptionV2/InceptionV2/Mixed_4d/Branch_1/Conv2d_0b_3x3/Relu6", "op": "_FusedConv2D", "input": ["FeatureExtractor/InceptionV2/InceptionV2/Mixed_4d/Branch_1/Conv2d_0a_1x1/Relu6", "FeatureExtractor/InceptionV2/InceptionV2/Mixed_4d/Branch_1/Conv2d_0b_3x3/Conv2D_weights", "FeatureExtractor/InceptionV2/InceptionV2/Mixed_4d/Branch_1/Conv2d_0b_3x3/Conv2D_bn_offset"], "device": "/device:CPU:0", "attr": {"dilations": {"list": {"i": ["1", "1", "1", "1"]}}, "T": {"type": "DT_FLOAT"}, "data_format": {"s": "TkhXQw=="}, "strides": {"list": {"i": ["1", "1", "1", "1"]}}, "explicit_paddings": {"list": {}}, "use_cudnn_on_gpu": {"b": true}, "num_args": {"i": "1"}, "epsilon": {"f": 0.0}, "padding": {"s": "U0FNRQ=="}, "fused_ops": {"list": {"s": ["Qmlhc0FkZA==", "UmVsdTY="]}}}}, {"name": "FeatureExtractor/InceptionV2/InceptionV2/Mixed_4d/Branch_2/Conv2d_0b_3x3/Relu6", "op": "_FusedConv2D", "input": ["FeatureExtractor/InceptionV2/InceptionV2/Mixed_4d/Branch_2/Conv2d_0a_1x1/Relu6", "FeatureExtractor/InceptionV2/InceptionV2/Mixed_4d/Branch_2/Conv2d_0b_3x3/Conv2D_weights", "FeatureExtractor/InceptionV2/InceptionV2/Mixed_4d/Branch_2/Conv2d_0b_3x3/Conv2D_bn_offset"], "device": "/device:CPU:0", "attr": {"dilations": {"list": {"i": ["1", "1", "1", "1"]}}, "T": {"type": "DT_FLOAT"}, "data_format": {"s": "TkhXQw=="}, "strides": {"list": {"i": ["1", "1", "1", "1"]}}, "explicit_paddings": {"list": {}}, "use_cudnn_on_gpu": {"b": true}, "num_args": {"i": "1"}, "epsilon": {"f": 0.0}, "padding": {"s": "U0FNRQ=="}, "fused_ops": {"list": {"s": ["Qmlhc0FkZA==", "UmVsdTY="]}}}}, {"name": "BoxPredictor_0/Reshape/shape", "op": "Pack", "input": ["BoxPredictor_0/strided_slice", "BoxPredictor_0/Reshape/shape/1", "BoxPredictor_0/Reshape/shape/2", "BoxPredictor_0/Reshape/shape/3"], "attr": {"T": {"type": "DT_INT32"}, "axis": {"i": "0"}, "N": {"i": "4"}}}, {"name": "BoxPredictor_0/Reshape_1/shape", "op": "Pack", "input": ["BoxPredictor_0/strided_slice_1", "BoxPredictor_0/Reshape_1/shape/1", "BoxPredictor_0/Reshape_1/shape/2"], "attr": {"T": {"type": "DT_INT32"}, "axis": {"i": "0"}, "N": {"i": "3"}}}, {"name": "FeatureExtractor/InceptionV2/InceptionV2/Mixed_4d/Branch_2/Conv2d_0c_3x3/Relu6", "op": "_FusedConv2D", "input": ["FeatureExtractor/InceptionV2/InceptionV2/Mixed_4d/Branch_2/Conv2d_0b_3x3/Relu6", "FeatureExtractor/InceptionV2/InceptionV2/Mixed_4d/Branch_2/Conv2d_0c_3x3/Conv2D_weights", "FeatureExtractor/InceptionV2/InceptionV2/Mixed_4d/Branch_2/Conv2d_0c_3x3/Conv2D_bn_offset"], "device": "/device:CPU:0", "attr": {"dilations": {"list": {"i": ["1", "1", "1", "1"]}}, "T": {"type": "DT_FLOAT"}, "data_format": {"s": "TkhXQw=="}, "strides": {"list": {"i": ["1", "1", "1", "1"]}}, "explicit_paddings": {"list": {}}, "use_cudnn_on_gpu": {"b": true}, "num_args": {"i": "1"}, "epsilon": {"f": 0.0}, "padding": {"s": "U0FNRQ=="}, "fused_ops": {"list": {"s": ["Qmlhc0FkZA==", "UmVsdTY="]}}}}, {"name": "BoxPredictor_0/Reshape", "op": "Reshape", "input": ["BoxPredictor_0/BoxEncodingPredictor/BiasAdd", "BoxPredictor_0/Reshape/shape"], "attr": {"T": {"type": "DT_FLOAT"}, "Tshape": {"type": "DT_INT32"}}}, {"name": "BoxPredictor_0/Reshape_1", "op": "Reshape", "input": ["BoxPredictor_0/ClassPredictor/BiasAdd", "BoxPredictor_0/Reshape_1/shape"], "attr": {"T": {"type": "DT_FLOAT"}, "Tshape": {"type": "DT_INT32"}}}, {"name": "FeatureExtractor/InceptionV2/InceptionV2/Mixed_4d/concat", "op": "ConcatV2", "input": ["FeatureExtractor/InceptionV2/InceptionV2/Mixed_4d/Branch_0/Conv2d_0a_1x1/Relu6", "FeatureExtractor/InceptionV2/InceptionV2/Mixed_4d/Branch_1/Conv2d_0b_3x3/Relu6", "FeatureExtractor/InceptionV2/InceptionV2/Mixed_4d/Branch_2/Conv2d_0c_3x3/Relu6", "FeatureExtractor/InceptionV2/InceptionV2/Mixed_4d/Branch_3/Conv2d_0b_1x1/Relu6", "FeatureExtractor/InceptionV2/InceptionV2/Mixed_4d/concat/axis"], "attr": {"Tidx": {"type": "DT_INT32"}, "T": {"type": "DT_FLOAT"}, "N": {"i": "4"}}}, {"name": "FeatureExtractor/InceptionV2/InceptionV2/Mixed_4e/Branch_3/AvgPool_0a_3x3/AvgPool", "op": "AvgPool", "input": ["FeatureExtractor/InceptionV2/InceptionV2/Mixed_4d/concat"], "attr": {"ksize": {"list": {"i": ["1", "3", "3", "1"]}}, "padding": {"s": "U0FNRQ=="}, "T": {"type": "DT_FLOAT"}, "data_format": {"s": "TkhXQw=="}, "strides": {"list": {"i": ["1", "1", "1", "1"]}}}}, {"name": "FeatureExtractor/InceptionV2/InceptionV2/Mixed_4e/Branch_0/Conv2d_0a_1x1/Relu6", "op": "_FusedConv2D", "input": ["FeatureExtractor/InceptionV2/InceptionV2/Mixed_4d/concat", "FeatureExtractor/InceptionV2/InceptionV2/Mixed_4e/Branch_0/Conv2d_0a_1x1/Conv2D_weights", "FeatureExtractor/InceptionV2/InceptionV2/Mixed_4e/Branch_0/Conv2d_0a_1x1/Conv2D_bn_offset"], "device": "/device:CPU:0", "attr": {"dilations": {"list": {"i": ["1", "1", "1", "1"]}}, "T": {"type": "DT_FLOAT"}, "data_format": {"s": "TkhXQw=="}, "strides": {"list": {"i": ["1", "1", "1", "1"]}}, "explicit_paddings": {"list": {}}, "use_cudnn_on_gpu": {"b": true}, "num_args": {"i": "1"}, "epsilon": {"f": 0.0}, "padding": {"s": "U0FNRQ=="}, "fused_ops": {"list": {"s": ["Qmlhc0FkZA==", "UmVsdTY="]}}}}, {"name": "FeatureExtractor/InceptionV2/InceptionV2/Mixed_4e/Branch_1/Conv2d_0a_1x1/Relu6", "op": "_FusedConv2D", "input": ["FeatureExtractor/InceptionV2/InceptionV2/Mixed_4d/concat", "FeatureExtractor/InceptionV2/InceptionV2/Mixed_4e/Branch_1/Conv2d_0a_1x1/Conv2D_weights", "FeatureExtractor/InceptionV2/InceptionV2/Mixed_4e/Branch_1/Conv2d_0a_1x1/Conv2D_bn_offset"], "device": "/device:CPU:0", "attr": {"dilations": {"list": {"i": ["1", "1", "1", "1"]}}, "T": {"type": "DT_FLOAT"}, "data_format": {"s": "TkhXQw=="}, "strides": {"list": {"i": ["1", "1", "1", "1"]}}, "explicit_paddings": {"list": {}}, "use_cudnn_on_gpu": {"b": true}, "num_args": {"i": "1"}, "epsilon": {"f": 0.0}, "padding": {"s": "U0FNRQ=="}, "fused_ops": {"list": {"s": ["Qmlhc0FkZA==", "UmVsdTY="]}}}}, {"name": "FeatureExtractor/InceptionV2/InceptionV2/Mixed_4e/Branch_2/Conv2d_0a_1x1/Relu6", "op": "_FusedConv2D", "input": ["FeatureExtractor/InceptionV2/InceptionV2/Mixed_4d/concat", "FeatureExtractor/InceptionV2/InceptionV2/Mixed_4e/Branch_2/Conv2d_0a_1x1/Conv2D_weights", "FeatureExtractor/InceptionV2/InceptionV2/Mixed_4e/Branch_2/Conv2d_0a_1x1/Conv2D_bn_offset"], "device": "/device:CPU:0", "attr": {"dilations": {"list": {"i": ["1", "1", "1", "1"]}}, "T": {"type": "DT_FLOAT"}, "data_format": {"s": "TkhXQw=="}, "strides": {"list": {"i": ["1", "1", "1", "1"]}}, "explicit_paddings": {"list": {}}, "use_cudnn_on_gpu": {"b": true}, "num_args": {"i": "1"}, "epsilon": {"f": 0.0}, "padding": {"s": "U0FNRQ=="}, "fused_ops": {"list": {"s": ["Qmlhc0FkZA==", "UmVsdTY="]}}}}, {"name": "FeatureExtractor/InceptionV2/InceptionV2/Mixed_4e/Branch_3/Conv2d_0b_1x1/Relu6", "op": "_FusedConv2D", "input": ["FeatureExtractor/InceptionV2/InceptionV2/Mixed_4e/Branch_3/AvgPool_0a_3x3/AvgPool", "FeatureExtractor/InceptionV2/InceptionV2/Mixed_4e/Branch_3/Conv2d_0b_1x1/Conv2D_weights", "FeatureExtractor/InceptionV2/InceptionV2/Mixed_4e/Branch_3/Conv2d_0b_1x1/Conv2D_bn_offset"], "device": "/device:CPU:0", "attr": {"dilations": {"list": {"i": ["1", "1", "1", "1"]}}, "T": {"type": "DT_FLOAT"}, "data_format": {"s": "TkhXQw=="}, "strides": {"list": {"i": ["1", "1", "1", "1"]}}, "explicit_paddings": {"list": {}}, "use_cudnn_on_gpu": {"b": true}, "num_args": {"i": "1"}, "epsilon": {"f": 0.0}, "padding": {"s": "U0FNRQ=="}, "fused_ops": {"list": {"s": ["Qmlhc0FkZA==", "UmVsdTY="]}}}}, {"name": "FeatureExtractor/InceptionV2/InceptionV2/Mixed_4e/Branch_1/Conv2d_0b_3x3/Relu6", "op": "_FusedConv2D", "input": ["FeatureExtractor/InceptionV2/InceptionV2/Mixed_4e/Branch_1/Conv2d_0a_1x1/Relu6", "FeatureExtractor/InceptionV2/InceptionV2/Mixed_4e/Branch_1/Conv2d_0b_3x3/Conv2D_weights", "FeatureExtractor/InceptionV2/InceptionV2/Mixed_4e/Branch_1/Conv2d_0b_3x3/Conv2D_bn_offset"], "device": "/device:CPU:0", "attr": {"dilations": {"list": {"i": ["1", "1", "1", "1"]}}, "T": {"type": "DT_FLOAT"}, "data_format": {"s": "TkhXQw=="}, "strides": {"list": {"i": ["1", "1", "1", "1"]}}, "explicit_paddings": {"list": {}}, "use_cudnn_on_gpu": {"b": true}, "num_args": {"i": "1"}, "epsilon": {"f": 0.0}, "padding": {"s": "U0FNRQ=="}, "fused_ops": {"list": {"s": ["Qmlhc0FkZA==", "UmVsdTY="]}}}}, {"name": "FeatureExtractor/InceptionV2/InceptionV2/Mixed_4e/Branch_2/Conv2d_0b_3x3/Relu6", "op": "_FusedConv2D", "input": ["FeatureExtractor/InceptionV2/InceptionV2/Mixed_4e/Branch_2/Conv2d_0a_1x1/Relu6", "FeatureExtractor/InceptionV2/InceptionV2/Mixed_4e/Branch_2/Conv2d_0b_3x3/Conv2D_weights", "FeatureExtractor/InceptionV2/InceptionV2/Mixed_4e/Branch_2/Conv2d_0b_3x3/Conv2D_bn_offset"], "device": "/device:CPU:0", "attr": {"dilations": {"list": {"i": ["1", "1", "1", "1"]}}, "T": {"type": "DT_FLOAT"}, "data_format": {"s": "TkhXQw=="}, "strides": {"list": {"i": ["1", "1", "1", "1"]}}, "explicit_paddings": {"list": {}}, "use_cudnn_on_gpu": {"b": true}, "num_args": {"i": "1"}, "epsilon": {"f": 0.0}, "padding": {"s": "U0FNRQ=="}, "fused_ops": {"list": {"s": ["Qmlhc0FkZA==", "UmVsdTY="]}}}}, {"name": "FeatureExtractor/InceptionV2/InceptionV2/Mixed_4e/Branch_2/Conv2d_0c_3x3/Relu6", "op": "_FusedConv2D", "input": ["FeatureExtractor/InceptionV2/InceptionV2/Mixed_4e/Branch_2/Conv2d_0b_3x3/Relu6", "FeatureExtractor/InceptionV2/InceptionV2/Mixed_4e/Branch_2/Conv2d_0c_3x3/Conv2D_weights", "FeatureExtractor/InceptionV2/InceptionV2/Mixed_4e/Branch_2/Conv2d_0c_3x3/Conv2D_bn_offset"], "device": "/device:CPU:0", "attr": {"dilations": {"list": {"i": ["1", "1", "1", "1"]}}, "T": {"type": "DT_FLOAT"}, "data_format": {"s": "TkhXQw=="}, "strides": {"list": {"i": ["1", "1", "1", "1"]}}, "explicit_paddings": {"list": {}}, "use_cudnn_on_gpu": {"b": true}, "num_args": {"i": "1"}, "epsilon": {"f": 0.0}, "padding": {"s": "U0FNRQ=="}, "fused_ops": {"list": {"s": ["Qmlhc0FkZA==", "UmVsdTY="]}}}}, {"name": "FeatureExtractor/InceptionV2/InceptionV2/Mixed_4e/concat", "op": "ConcatV2", "input": ["FeatureExtractor/InceptionV2/InceptionV2/Mixed_4e/Branch_0/Conv2d_0a_1x1/Relu6", "FeatureExtractor/InceptionV2/InceptionV2/Mixed_4e/Branch_1/Conv2d_0b_3x3/Relu6", "FeatureExtractor/InceptionV2/InceptionV2/Mixed_4e/Branch_2/Conv2d_0c_3x3/Relu6", "FeatureExtractor/InceptionV2/InceptionV2/Mixed_4e/Branch_3/Conv2d_0b_1x1/Relu6", "FeatureExtractor/InceptionV2/InceptionV2/Mixed_4e/concat/axis"], "attr": {"Tidx": {"type": "DT_INT32"}, "T": {"type": "DT_FLOAT"}, "N": {"i": "4"}}}, {"name": "FeatureExtractor/InceptionV2/InceptionV2/Mixed_5a/Branch_2/MaxPool_1a_3x3/MaxPool", "op": "MaxPool", "input": ["Featur…
pe": "int32"}, {"name": "Postprocessor/BatchMultiClassNonMaxSuppression/map/while/MultiClassNonMaxSuppression/Gather_6/GatherV2_6/axis", "shape": [], "dtype": "int32"}, {"name": "Postprocessor/BatchMultiClassNonMaxSuppression/map/while/MultiClassNonMaxSuppression/Gather_7/GatherV2_6/axis", "shape": [], "dtype": "int32"}, {"name": "Postprocessor/BatchMultiClassNonMaxSuppression/map/while/PadOrClipBoxList/strided_slice_1/stack", "shape": [1], "dtype": "int32"}, {"name": "Postprocessor/BatchMultiClassNonMaxSuppression/map/while/PadOrClipBoxList/strided_slice_1/stack_1", "shape": [1], "dtype": "int32"}, {"name": "Postprocessor/BatchMultiClassNonMaxSuppression/map/while/PadOrClipBoxList/strided_slice_1/stack_2", "shape": [1], "dtype": "int32"}, {"name": "Postprocessor/BatchMultiClassNonMaxSuppression/map/while/PadOrClipBoxList/sub_1/y", "shape": [], "dtype": "int32"}, {"name": "Postprocessor/BatchMultiClassNonMaxSuppression/map/while/PadOrClipBoxList/Greater_1/y", "shape": [], "dtype": "int32"}, {"name": "Postprocessor/BatchMultiClassNonMaxSuppression/map/while/PadOrClipBoxList/Select_1/t", "shape": [], "dtype": "int32"}, {"name": "Postprocessor/BatchMultiClassNonMaxSuppression/map/while/PadOrClipBoxList/Select_1/e", "shape": [], "dtype": "int32"}, {"name": "Postprocessor/BatchMultiClassNonMaxSuppression/map/while/PadOrClipBoxList/strided_slice_3/stack", "shape": [1], "dtype": "int32"}, {"name": "Postprocessor/BatchMultiClassNonMaxSuppression/map/while/PadOrClipBoxList/strided_slice_3/stack_1", "shape": [1], "dtype": "int32"}, {"name": "Postprocessor/BatchMultiClassNonMaxSuppression/map/while/PadOrClipBoxList/strided_slice_3/stack_2", "shape": [1], "dtype": "int32"}, {"name": "Postprocessor/BatchMultiClassNonMaxSuppression/map/while/PadOrClipBoxList/zeros_11", "shape": [1], "dtype": "int32"}, {"name": "Postprocessor/BatchMultiClassNonMaxSuppression/map/while/PadOrClipBoxList/sub_19/x", "shape": [], "dtype": "int32"}, {"name": "Postprocessor/BatchMultiClassNonMaxSuppression/map/while/PadOrClipBoxList/zeros_10", "shape": [1], "dtype": "int32"}, {"name": "Postprocessor/BatchMultiClassNonMaxSuppression/map/while/MultiClassNonMaxSuppression/add_1/y", "shape": [], "dtype": "float32"}, {"name": "Postprocessor/BatchMultiClassNonMaxSuppression/map/while/MultiClassNonMaxSuppression/add_3/y", "shape": [], "dtype": "float32"}, {"name": "Postprocessor/BatchMultiClassNonMaxSuppression/map/while/MultiClassNonMaxSuppression/add_5/y", "shape": [], "dtype": "float32"}, {"name": "Postprocessor/BatchMultiClassNonMaxSuppression/map/while/MultiClassNonMaxSuppression/add_7/y", "shape": [], "dtype": "float32"}, {"name": "Postprocessor/BatchMultiClassNonMaxSuppression/map/while/MultiClassNonMaxSuppression/add_9/y", "shape": [], "dtype": "float32"}, {"name": "Postprocessor/BatchMultiClassNonMaxSuppression/map/while/MultiClassNonMaxSuppression/add_11/y", "shape": [], "dtype": "float32"}, {"name": "Postprocessor/BatchMultiClassNonMaxSuppression/map/while/MultiClassNonMaxSuppression/Concatenate/concat_5/axis", "shape": [], "dtype": "int32"}, {"name": "Postprocessor/BatchMultiClassNonMaxSuppression/map/while/MultiClassNonMaxSuppression/SortByField/Gather/GatherV2_5/axis", "shape": [], "dtype": "int32"}, {"name": "Postprocessor/BatchMultiClassNonMaxSuppression/map/while/MultiClassNonMaxSuppression/ClipToWindow/Gather/GatherV2_5/axis", "shape": [], "dtype": "int32"}, {"name": "Postprocessor/BatchMultiClassNonMaxSuppression/map/while/MultiClassNonMaxSuppression/SortByField_1/Gather/GatherV2_5/axis", "shape": [], "dtype": "int32"}, {"name": "Postprocessor/BatchMultiClassNonMaxSuppression/map/while/MultiClassNonMaxSuppression/Gather_6/GatherV2_5/axis", "shape": [], "dtype": "int32"}, {"name": "Postprocessor/BatchMultiClassNonMaxSuppression/map/while/MultiClassNonMaxSuppression/Gather_7/GatherV2_5/axis", "shape": [], "dtype": "int32"}, {"name": "Postprocessor/BatchMultiClassNonMaxSuppression/map/while/PadOrClipBoxList/strided_slice_18/stack", "shape": [1], "dtype": "int32"}, {"name": "Postprocessor/BatchMultiClassNonMaxSuppression/map/while/PadOrClipBoxList/strided_slice_18/stack_1", "shape": [1], "dtype": "int32"}, {"name": "Postprocessor/BatchMultiClassNonMaxSuppression/map/while/PadOrClipBoxList/strided_slice_18/stack_2", "shape": [1], "dtype": "int32"}, {"name": "Postprocessor/BatchMultiClassNonMaxSuppression/map/while/PadOrClipBoxList/sub_18/y", "shape": [], "dtype": "int32"}, {"name": "Postprocessor/BatchMultiClassNonMaxSuppression/map/while/PadOrClipBoxList/Greater_9/y", "shape": [], "dtype": "int32"}, {"name": "Postprocessor/BatchMultiClassNonMaxSuppression/map/while/PadOrClipBoxList/Select_9/t", "shape": [], "dtype": "int32"}, {"name": "Postprocessor/BatchMultiClassNonMaxSuppression/map/while/PadOrClipBoxList/Select_9/e", "shape": [], "dtype": "int32"}, {"name": "Postprocessor/BatchMultiClassNonMaxSuppression/map/while/PadOrClipBoxList/strided_slice_19/stack", "shape": [1], "dtype": "int32"}, {"name": "Postprocessor/BatchMultiClassNonMaxSuppression/map/while/PadOrClipBoxList/strided_slice_19/stack_1", "shape": [1], "dtype": "int32"}, {"name": "Postprocessor/BatchMultiClassNonMaxSuppression/map/while/PadOrClipBoxList/strided_slice_19/stack_2", "shape": [1], "dtype": "int32"}, {"name": "Postprocessor/BatchMultiClassNonMaxSuppression/map/while/PadOrClipBoxList/zeros_9", "shape": [2], "dtype": "int32"}, {"name": "Postprocessor/BatchMultiClassNonMaxSuppression/map/while/PadOrClipBoxList/sub_16/x", "shape": [], "dtype": "int32"}, {"name": "Postprocessor/BatchMultiClassNonMaxSuppression/map/while/PadOrClipBoxList/strided_slice_16/stack", "shape": [1], "dtype": "int32"}, {"name": "Postprocessor/BatchMultiClassNonMaxSuppression/map/while/PadOrClipBoxList/strided_slice_16/stack_1", "shape": [1], "dtype": "int32"}, {"name": "Postprocessor/BatchMultiClassNonMaxSuppression/map/while/PadOrClipBoxList/strided_slice_16/stack_2", "shape": [1], "dtype": "int32"}, {"name": "Postprocessor/BatchMultiClassNonMaxSuppression/map/while/PadOrClipBoxList/sub_17/x", "shape": [], "dtype": "int32"}, {"name": "Postprocessor/BatchMultiClassNonMaxSuppression/map/while/PadOrClipBoxList/zeros_8", "shape": [2], "dtype": "int32"}, {"name": "Postprocessor/BatchMultiClassNonMaxSuppression/map/while/PadOrClipBoxList/strided_slice_14/stack", "shape": [1], "dtype": "int32"}, {"name": "Postprocessor/BatchMultiClassNonMaxSuppression/map/while/PadOrClipBoxList/strided_slice_14/stack_1", "shape": [1], "dtype": "int32"}, {"name": "Postprocessor/BatchMultiClassNonMaxSuppression/map/while/PadOrClipBoxList/strided_slice_14/stack_2", "shape": [1], "dtype": "int32"}, {"name": "Postprocessor/BatchMultiClassNonMaxSuppression/map/while/PadOrClipBoxList/sub_14/y", "shape": [], "dtype": "int32"}, {"name": "Postprocessor/BatchMultiClassNonMaxSuppression/map/while/PadOrClipBoxList/Greater_7/y", "shape": [], "dtype": "int32"}, {"name": "Postprocessor/BatchMultiClassNonMaxSuppression/map/while/PadOrClipBoxList/Select_7/t", "shape": [], "dtype": "int32"}, {"name": "Postprocessor/BatchMultiClassNonMaxSuppression/map/while/PadOrClipBoxList/Select_7/e", "shape": [], "dtype": "int32"}, {"name": "Postprocessor/BatchMultiClassNonMaxSuppression/map/while/MultiClassNonMaxSuppression/Gather/GatherV2_4/axis", "shape": [], "dtype": "int32"}, {"name": "Postprocessor/BatchMultiClassNonMaxSuppression/map/while/MultiClassNonMaxSuppression/Gather_1/GatherV2_4/axis", "shape": [], "dtype": "int32"}, {"name": "Postprocessor/BatchMultiClassNonMaxSuppression/map/while/MultiClassNonMaxSuppression/Gather_2/GatherV2_4/axis", "shape": [], "dtype": "int32"}, {"name": "Postprocessor/BatchMultiClassNonMaxSuppression/map/while/MultiClassNonMaxSuppression/Gather_3/GatherV2_4/axis", "shape": [], "dtype": "int32"}, {"name": "Postprocessor/BatchMultiClassNonMaxSuppression/map/while/MultiClassNonMaxSuppression/Gather_4/GatherV2_4/axis", "shape": [], "dtype": "int32"}, {"name": "Postprocessor/BatchMultiClassNonMaxSuppression/map/while/Slice_4/begin", "shape": [2], "dtype": "int32"}, {"name": "Postprocessor/BatchMultiClassNonMaxSuppression/map/while/stack_4/1", "shape": [], "dtype": "int32"}, {"name": "Postprocessor/BatchMultiClassNonMaxSuppression/map/while/Reshape_4/shape", "shape": [2], "dtype": "int32"}, {"name": "Postprocessor/BatchMultiClassNonMaxSuppression/map/while/MultiClassNonMaxSuppression/Gather_5/GatherV2_4/axis", "shape": [], "dtype": "int32"}, {"name": "Postprocessor/BatchMultiClassNonMaxSuppression/map/while/MultiClassNonMaxSuppression/Concatenate/concat_4/axis", "shape": [], "dtype": "int32"}, {"name": "Postprocessor/BatchMultiClassNonMaxSuppression/map/while/MultiClassNonMaxSuppression/SortByField/Gather/GatherV2_4/axis", "shape": [], "dtype": "int32"}, {"name": "Postprocessor/BatchMultiClassNonMaxSuppression/map/while/MultiClassNonMaxSuppression/ClipToWindow/Gather/GatherV2_4/axis", "shape": [], "dtype": "int32"}, {"name": "Postprocessor/BatchMultiClassNonMaxSuppression/map/while/MultiClassNonMaxSuppression/SortByField_1/Gather/GatherV2_4/axis", "shape": [], "dtype": "int32"}, {"name": "Postprocessor/BatchMultiClassNonMaxSuppression/map/while/MultiClassNonMaxSuppression/Gather_6/GatherV2_4/axis", "shape": [], "dtype": "int32"}, {"name": "Postprocessor/BatchMultiClassNonMaxSuppression/map/while/MultiClassNonMaxSuppression/Gather_7/GatherV2_4/axis", "shape": [], "dtype": "int32"}, {"name": "Postprocessor/BatchMultiClassNonMaxSuppression/map/while/PadOrClipBoxList/strided_slice_15/stack", "shape": [1], "dtype": "int32"}, {"name": "Postprocessor/BatchMultiClassNonMaxSuppression/map/while/PadOrClipBoxList/strided_slice_15/stack_1", "shape": [1], "dtype": "int32"}, {"name": "Postprocessor/BatchMultiClassNonMaxSuppression/map/while/PadOrClipBoxList/strided_slice_15/stack_2", "shape": [1], "dtype": "int32"}, {"name": "Postprocessor/BatchMultiClassNonMaxSuppression/map/while/PadOrClipBoxList/sub_15/y", "shape": [], "dtype": "int32"}, {"name": "Postprocessor/BatchMultiClassNonMaxSuppression/map/while/PadOrClipBoxList/Greater_8/y", "shape": [], "dtype": "int32"}, {"name": "Postprocessor/BatchMultiClassNonMaxSuppression/map/while/PadOrClipBoxList/Select_8/t", "shape": [], "dtype": "int32"}, {"name": "Postprocessor/BatchMultiClassNonMaxSuppression/map/while/PadOrClipBoxList/Select_8/e", "shape": [], "dtype": "int32"}, {"name": "Postprocessor/BatchMultiClassNonMaxSuppression/map/while/PadOrClipBoxList/strided_slice_17/stack", "shape": [1], "dtype": "int32"}, {"name": "Postprocessor/BatchMultiClassNonMaxSuppression/map/while/PadOrClipBoxList/strided_slice_17/stack_1", "shape": [1], "dtype": "int32"}, {"name": "Postprocessor/BatchMultiClassNonMaxSuppression/map/while/PadOrClipBoxList/strided_slice_17/stack_2", "shape": [1], "dtype": "int32"}, {"name": "Postprocessor/BatchMultiClassNonMaxSuppression/map/while/PadOrClipBoxList/zeros_3", "shape": [1], "dtype": "int32"}, {"name": "Postprocessor/BatchMultiClassNonMaxSuppression/map/while/PadOrClipBoxList/sub_5/x", "shape": [], "dtype": "int32"}, {"name": "Postprocessor/BatchMultiClassNonMaxSuppression/map/while/PadOrClipBoxList/zeros_2", "shape": [1], "dtype": "int32"}, {"name": "Postprocessor/BatchMultiClassNonMaxSuppression/map/while/MultiClassNonMaxSuppression/SortByField_1/Gather/GatherV2_1/axis", "shape": [], "dtype": "int32"}, {"name": "Postprocessor/BatchMultiClassNonMaxSuppression/map/while/MultiClassNonMaxSuppression/range_6/start", "shape": [], "dtype": "int32"}, {"name": "Postprocessor/BatchMultiClassNonMaxSuppression/map/while/MultiClassNonMaxSuppression/range_6/delta", "shape": [], "dtype": "int32"}, {"name": "Postprocessor/BatchMultiClassNonMaxSuppression/map/while/MultiClassNonMaxSuppression/Gather_6/GatherV2_1/axis", "shape": [], "dtype": "int32"}, {"name": "Postprocessor/BatchMultiClassNonMaxSuppression/map/while/MultiClassNonMaxSuppression/range_7/start", "shape": [], "dtype": "int32"}, {"name": "Postprocessor/BatchMultiClassNonMaxSuppression/map/while/MultiClassNonMaxSuppression/range_7/delta", "shape": [], "dtype": "int32"}, {"name": "Postprocessor/BatchMultiClassNonMaxSuppression/map/while/MultiClassNonMaxSuppression/Gather_7/GatherV2_1/axis", "shape": [], "dtype": "int32"}, {"name": "Postprocessor/BatchMultiClassNonMaxSuppression/map/while/PadOrClipBoxList/strided_slice_4/stack", "shape": [1], "dtype": "int32"}, {"name": "Postprocessor/BatchMultiClassNonMaxSuppression/map/while/PadOrClipBoxList/strided_slice_4/stack_1", "shape": [1], "dtype": "int32"}, {"name": "Postprocessor/BatchMultiClassNonMaxSuppression/map/while/PadOrClipBoxList/strided_slice_4/stack_2", "shape": [1], "dtype": "int32"}, {"name": "Postprocessor/BatchMultiClassNonMaxSuppression/map/while/PadOrClipBoxList/sub_4/y", "shape": [], "dtype": "int32"}, {"name": "Postprocessor/BatchMultiClassNonMaxSuppression/map/while/PadOrClipBoxList/Greater_2/y", "shape": [], "dtype": "int32"}, {"name": "Postprocessor/BatchMultiClassNonMaxSuppression/map/while/PadOrClipBoxList/Select_2/t", "shape": [], "dtype": "int32"}, {"name": "Postprocessor/BatchMultiClassNonMaxSuppression/map/while/PadOrClipBoxList/Select_2/e", "shape": [], "dtype": "int32"}, {"name": "Postprocessor/BatchMultiClassNonMaxSuppression/map/while/PadOrClipBoxList/strided_slice_5/stack", "shape": [1], "dtype": "int32"}, {"name": "Postprocessor/BatchMultiClassNonMaxSuppression/map/while/PadOrClipBoxList/strided_slice_5/stack_1", "shape": [1], "dtype": "int32"}, {"name": "Postprocessor/BatchMultiClassNonMaxSuppression/map/while/PadOrClipBoxList/strided_slice_5/stack_2", "shape": [1], "dtype": "int32"}, {"name": "Postprocessor/BatchMultiClassNonMaxSuppression/map/while/MultiClassNonMaxSuppression/GreaterEqual/y", "shape": [], "dtype": "float32"}, {"name": "Postprocessor/BatchMultiClassNonMaxSuppression/map/while/MultiClassNonMaxSuppression/Const_1", "shape": [1], "dtype": "int32"}, {"name": "Postprocessor/BatchMultiClassNonMaxSuppression/map/while/MultiClassNonMaxSuppression/Minimum_6/x", "shape": [], "dtype": "int32"}, {"name": "Postprocessor/BatchMultiClassNonMaxSuppression/map/while/MultiClassNonMaxSuppression/ChangeCoordinateFrame/truediv/x", "shape": [], "dtype": "float32"}, {"name": "Postprocessor/BatchMultiClassNonMaxSuppression/map/while/MultiClassNonMaxSuppression/ChangeCoordinateFrame/strided_slice/stack", "shape": [1], "dtype": "int32"}, {"name": "Postprocessor/BatchMultiClassNonMaxSuppression/map/while/MultiClassNonMaxSuppression/ChangeCoordinateFrame/strided_slice/stack_1", "shape": [1], "dtype": "int32"}, {"name": "Postprocessor/BatchMultiClassNonMaxSuppression/map/while/MultiClassNonMaxSuppression/ChangeCoordinateFrame/strided_slice/stack_2", "shape": [1], "dtype": "int32"}, {"name": "Postprocessor/BatchMultiClassNonMaxSuppression/map/while/MultiClassNonMaxSuppression/ChangeCoordinateFrame/strided_slice_1/stack", "shape": [1], "dtype": "int32"}, {"name": "Postprocessor/BatchMultiClassNonMaxSuppression/map/while/MultiClassNonMaxSuppression/ChangeCoordinateFrame/strided_slice_1/stack_1", "shape": [1], "dtype": "int32"}, {"name": "Postprocessor/BatchMultiClassNonMaxSuppression/map/while/MultiClassNonMaxSuppression/ChangeCoordinateFrame/strided_slice_1/stack_2", "shape": [1], "dtype": "int32"}, {"name": "Postprocessor/BatchMultiClassNonMaxSuppression/map/while/MultiClassNonMaxSuppression/ChangeCoordinateFrame/truediv_1/x", "shape": [], "dtype": "float32"}, {"name": "Postprocessor/BatchMultiClassNonMaxSuppression/map/while/MultiClassNonMaxSuppression/ChangeCoordinateFrame/strided_slice_2/stack", "shape": [1], "dtype": "int32"}, {"name": "Postprocessor/BatchMultiClassNonMaxSuppression/map/while/MultiClassNonMaxSuppression/ChangeCoordinateFrame/strided_slice_2/stack_1", "shape": [1], "dtype": "int32"}, {"name": "Postprocessor/BatchMultiClassNonMaxSuppression/map/while/MultiClassNonMaxSuppression/ChangeCoordinateFrame/strided_slice_2/stack_2", "shape": [1], "dtype": "int32"}, {"name": "Postprocessor/BatchMultiClassNonMaxSuppression/map/while/MultiClassNonMaxSuppression/ChangeCoordinateFrame/strided_slice_3/stack", "shape": [1], "dtype": "int32"}, {"name": "Postprocessor/BatchMultiClassNonMaxSuppression/map/while/MultiClassNonMaxSuppression/ChangeCoordinateFrame/strided_slice_3/stack_1", "shape": [1], "dtype": "int32"}, {"name": "Postprocessor/BatchMultiClassNonMaxSuppression/map/while/MultiClassNonMaxSuppression/ChangeCoordinateFrame/strided_slice_3/stack_2", "shape": [1], "dtype": "int32"}, {"name": "Postprocessor/BatchMultiClassNonMaxSuppression/map/while/MultiClassNonMaxSuppression/ChangeCoordinateFrame/Scale/split/split_dim", "shape": [], "dtype": "int32"}, {"name": "Postprocessor/BatchMultiClassNonMaxSuppression/map/while/MultiClassNonMaxSuppression/Area/split/split_dim", "shape": [], "dtype": "int32"}, {"name": "Postprocessor/BatchMultiClassNonMaxSuppression/map/while/MultiClassNonMaxSuppression/SortByField/Gather/GatherV2_1/axis", "shape": [], "dtype": "int32"}, {"name": "Postprocessor/BatchMultiClassNonMaxSuppression/map/while/MultiClassNonMaxSuppression/ClipToWindow/Gather/GatherV2_1/axis", "shape": [], "dtype": "int32"}, {"name": "Postprocessor/BatchMultiClassNonMaxSuppression/map/while/MultiClassNonMaxSuppression/mul_6/x", "shape": [], "dtype": "float32"}, {"name": "Postprocessor/BatchMultiClassNonMaxSuppression/map/while/MultiClassNonMaxSuppression/strided_slice_13/stack", "shape": [1], "dtype": "int32"}, {"name": "Postprocessor/BatchMultiClassNonMaxSuppression/map/while/MultiClassNonMaxSuppression/strided_slice_13/stack_1", "shape": [1], "dtype": "int32"}, {"name": "Postprocessor/BatchMultiClassNonMaxSuppression/map/while/MultiClassNonMaxSuppression/strided_slice_13/stack_2", "shape": [1], "dtype": "int32"}, {"name": "Postprocessor/BatchMultiClassNonMaxSuppression/map/while/MultiClassNonMaxSuppression/ones_6/Reshape/shape", "shape": [1], "dtype": "int32"}, {"name": "Postprocessor/BatchMultiClassNonMaxSuppression/map/while/MultiClassNonMaxSuppression/ones_6/Const", "shape": [], "dtype": "float32"}, {"name": "Postprocessor/BatchMultiClassNonMaxSuppression/map/while/MultiClassNonMaxSuppression/ClipToWindow/Area/split/split_dim", "shape": [], "dtype": "int32"}, {"name": "Postprocessor/BatchMultiClassNonMaxSuppression/map/while/MultiClassNonMaxSuppression/ClipToWindow/strided_slice_2/stack", "shape": [1], "dtype": "int32"}, {"name": "Postprocessor/BatchMultiClassNonMaxSuppression/map/while/MultiClassNonMaxSuppression/ClipToWindow/strided_slice_2/stack_1", "shape": [1], "dtype": "int32"}, {"name": "Postprocessor/BatchMultiClassNonMaxSuppression/map/while/MultiClassNonMaxSuppression/ClipToWindow/strided_slice_2/stack_2", "shape": [1], "dtype": "int32"}, {"name": "Postprocessor/BatchMultiClassNonMaxSuppression/map/while/MultiClassNonMaxSuppression/ClipToWindow/strided_slice/stack", "shape": [1], "dtype": "int32"}, {"name": "Postprocessor/BatchMultiClassNonMaxSuppression/map/while/MultiClassNonMaxSuppression/ClipToWindow/strided_slice/stack_1", "shape": [1], "dtype": "int32"}, {"name": "Postprocessor/BatchMultiClassNonMaxSuppression/map/while/MultiClassNonMaxSuppression/ClipToWindow/strided_slice/stack_2", "shape": [1], "dtype": "int32"}, {"name": "Postprocessor/BatchMultiClassNonMaxSuppression/map/while/MultiClassNonMaxSuppression/ClipToWindow/split/split_dim", "shape": [], "dtype": "int32"}, {"name": "Postprocessor/BatchMultiClassNonMaxSuppression/map/while/MultiClassNonMaxSuppression/range/start", "shape": [], "dtype": "int32"}, {"name": "Postprocessor/BatchMultiClassNonMaxSuppression/map/while/MultiClassNonMaxSuppression/range/delta", "shape": [], "dtype": "int32"}, {"name": "Postprocessor/BatchMultiClassNonMaxSuppression/map/while/MultiClassNonMaxSuppression/zeros_1/Reshape/shape", "shape": [1], "dtype": "int32"}, {"name": "Postprocessor/BatchMultiClassNonMaxSuppression/map/while/MultiClassNonMaxSuppression/zeros_1/Const", "shape": [], "dtype": "float32"}, {"name": "Postprocessor/BatchMultiClassNonMaxSuppression/map/while/MultiClassNonMaxSuppression/concat_1/axis", "shape": [], "dtype": "int32"}, {"name": "Postprocessor/BatchMultiClassNonMaxSuppression/map/while/MultiClassNonMaxSuppression/mul/x", "shape": [], "dtype": "float32"}, {"name": "Postprocessor/BatchMultiClassNonMaxSuppression/map/while/MultiClassNonMaxSuppression/ones/Reshape/shape", "shape": [1], "dtype": "int32"}, {"name": "Postprocessor/BatchMultiClassNonMaxSuppression/map/while/MultiClassNonMaxSuppression/ones/Const", "shape": [], "dtype": "float32"}, {"name": "Postprocessor/BatchMultiClassNonMaxSuppression/map/while/MultiClassNonMaxSuppression/range_1/start", "shape": [], "dtype": "int32"}, {"name": "Postprocessor/BatchMultiClassNonMaxSuppression/map/while/MultiClassNonMaxSuppression/range_1/delta", "shape": [], "dtype": "int32"}, {"name": "Postprocessor/BatchMultiClassNonMaxSuppression/map/while/MultiClassNonMaxSuppression/zeros_3/Reshape/shape", "shape": [1], "dtype": "int32"}, {"name": "Postprocessor/BatchMultiClassNonMaxSuppression/map/while/MultiClassNonMaxSuppression/zeros_3/Const", "shape": [], "dtype": "float32"}, {"name": "Postprocessor/BatchMultiClassNonMaxSuppression/map/while/MultiClassNonMaxSuppression/concat_3/axis", "shape": [], "dtype": "int32"}, {"name": "Postprocessor/BatchMultiClassNonMaxSuppression/map/while/MultiClassNonMaxSuppression/mul_1/x", "shape": [], "dtype": "float32"}, {"name": "Postprocessor/BatchMultiClassNonMaxSuppression/map/while/MultiClassNonMaxSuppression/ones_1/Reshape/shape", "shape": [1], "dtype": "int32"}, {"name": "Postprocessor/BatchMultiClassNonMaxSuppression/map/while/MultiClassNonMaxSuppression/ones_1/Const", "shape": [], "dtype": "float32"}, {"name": "Postprocessor/BatchMultiClassNonMaxSuppression/map/while/MultiClassNonMaxSuppression/range_2/start", "shape": [], "dtype": "int32"}, {"name": "Postprocessor/BatchMultiClassNonMaxSuppression/map/while/MultiClassNonMaxSuppression/range_2/delta", "shape": [], "dtype": "int32"}, {"name": "Postprocessor/BatchMultiClassNonMaxSuppression/map/while/MultiClassNonMaxSuppression/zeros_5/Reshape/shape", "shape": [1], "dtype": "int32"}, {"name": "Postprocessor/BatchMultiClassNonMaxSuppression/map/while/MultiClassNonMaxSuppression/zeros_5/Const", "shape": [], "dtype": "float32"}, {"name": "Postprocessor/BatchMultiClassNonMaxSuppression/map/while/MultiClassNonMaxSuppression/concat_5/axis", "shape": [], "dtype": "int32"}, {"name": "Postprocessor/BatchMultiClassNonMaxSuppression/map/while/MultiClassNonMaxSuppression/mul_2/x", "shape": [], "dtype": "float32"}, {"name": "Postprocessor/BatchMultiClassNonMaxSuppression/map/while/MultiClassNonMaxSuppression/ones_2/Reshape/shape", "shape": [1], "dtype": "int32"}, {"name": "Postprocessor/BatchMultiClassNonMaxSuppression/map/while/MultiClassNonMaxSuppression/ones_2/Const", "shape": [], "dtype": "float32"}, {"name": "Postprocessor/BatchMultiClassNonMaxSuppression/map/while/MultiClassNonMaxSuppression/range_3/start", "shape": [], "dtype": "int32"}, {"name": "Postprocessor/BatchMultiClassNonMaxSuppression/map/while/MultiClassNonMaxSuppression/range_3/delta", "shape": [], "dtype": "int32"}, {"name": "Postprocessor/BatchMultiClassNonMaxSuppression/map/while/MultiClassNonMaxSuppression/zeros_7/Reshape/shape", "shape": [1], "dtype": "int32"}, {"name": "Postprocessor/BatchMultiClassNonMaxSuppression/map/while/MultiClassNonMaxSuppression/zeros_7/Const", "shape": [], "dtype": "float32"}, {"name": "Postprocessor/BatchMultiClassNonMaxSuppression/map/while/MultiClassNonMaxSuppression/concat_7/axis", "shape": [], "dtype": "int32"}, {"name": "Postprocessor/BatchMultiClassNonMaxSuppression/map/while/MultiClassNonMaxSuppression/mul_3/x", "shape": [], "dtype": "float32"}, {"name": "Postprocessor/BatchMultiClassNonMaxSuppression/map/while/MultiClassNonMaxSuppression/ones_3/Reshape/shape", "shape": [1], "dtype": "int32"}, {"name": "Postprocessor/BatchMultiClassNonMaxSuppression/map/while/MultiClassNonMaxSuppression/ones_3/Const", "shape": [], "dtype": "float32"}, {"name": "Postprocessor/BatchMultiClassNonMaxSuppression/map/while/MultiClassNonMaxSuppression/range_4/start", "shape": [], "dtype": "int32"}, {"name": "Postprocessor/BatchMultiClassNonMaxSuppression/map/while/MultiClassNonMaxSuppression/range_4/delta", "shape": [], "dtype": "int32"}, {"name": "Postprocessor/BatchMultiClassNonMaxSuppression/map/while/MultiClassNonMaxSuppression/zeros_9/Reshape/shape", "shape": [1], "dtype": "int32"}, {"name": "Postprocessor/BatchMultiClassNonMaxSuppression/map/while/MultiClassNonMaxSuppression/zeros_9/Const", "shape": [], "dtype": "float32"}, {"name": "Postprocessor/BatchMultiClassNonMaxSuppression/map/while/MultiClassNonMaxSuppression/concat_9/axis", "shape": [], "dtype": "int32"}, {"name": "Postprocessor/BatchMultiClassNonMaxSuppression/map/while/MultiClassNonMaxSuppression/mul_4/x", "shape": [], "dtype": "float32"}, {"name": "Postprocessor/BatchMultiClassNonMaxSuppression/map/while/MultiClassNonMaxSuppression/ones_4/Reshape/shape", "shape": [1], "dtype": "int32"}, {"name": "Postprocessor/BatchMultiClassNonMaxSuppression/map/while/MultiClassNonMaxSuppression/ones_4/Const", "shape": [], "dtype": "float32"}, {"name": "Postprocessor/BatchMultiClassNonMaxSuppression/map/while/MultiClassNonMaxSuppression/range_5/start", "shape": [], "dtype": "int32"}, {"name": "Postprocessor/BatchMultiClassNonMaxSuppression/map/while/MultiClassNonMaxSuppression/range_5/delta", "shape": [], "dtype": "int32"}, {"name": "Postprocessor/BatchMultiClassNonMaxSuppression/map/while/MultiClassNonMaxSuppression/zeros_11/Reshape/shape", "shape": [1], "dtype": "int32"}, {"name": "Postprocessor/BatchMultiClassNonMaxSuppression/map/while/MultiClassNonMaxSuppression/zeros_11/Const", "shape": [], "dtype": "float32"}, {"name": "Postprocessor/BatchMultiClassNonMaxSuppression/map/while/MultiClassNonMaxSuppression/concat_11/axis", "shape": [], "dtype": "int32"}, {"name": "Postprocessor/BatchMultiClassNonMaxSuppression/map/while/MultiClassNonMaxSuppression/mul_5/x", "shape": [], "dtype": "float32"}, {"name": "Postprocessor/BatchMultiClassNonMaxSuppression/map/while/MultiClassNonMaxSuppression/ones_5/Reshape/shape", "shape": [1], "dtype": "int32"}, {"name": "Postprocessor/BatchMultiClassNonMaxSuppression/map/while/MultiClassNonMaxSuppression/ones_5/Const", "shape": [], "dtype": "float32"}, {"name": "Postprocessor/BatchMultiClassNonMaxSuppression/map/while/MultiClassNonMaxSuppression/Concatenate/concat_1/axis", "shape": [], "dtype": "int32"}, {"name": "Postprocessor/BatchMultiClassNonMaxSuppression/map/while/MultiClassNonMaxSuppression/Slice/begin", "shape": [2], "dtype": "int32"}, {"name": "Postprocessor/BatchMultiClassNonMaxSuppression/map/while/MultiClassNonMaxSuppression/stack/1", "shape": [], "dtype": "int32"}, {"name": "Postprocessor/BatchMultiClassNonMaxSuppression/map/while/MultiClassNonMaxSuppression/Reshape/shape", "shape": [1], "dtype": "int32"}, {"name": "Postprocessor/BatchMultiClassNonMaxSuppression/map/while/MultiClassNonMaxSuppression/Minimum/x", "shape": [], "dtype": "int32"}, {"name": "Postprocessor/BatchMultiClassNonMaxSuppression/map/while/MultiClassNonMaxSuppression/strided_slice_1/stack", "shape": [1], "dtype": "int32"}, {"name": "Postprocessor/BatchMultiClassNonMaxSuppression/map/while/MultiClassNonMaxSuppression/strided_slice_1/stack_1", "shape": [1], "dtype": "int32"}, {"name": "Postprocessor/BatchMultiClassNonMaxSuppression/map/while/MultiClassNonMaxSuppression/strided_slice_1/stack_2", "shape": [1], "dtype": "int32"}, {"name": "Postprocessor/BatchMultiClassNonMaxSuppression/map/while/MultiClassNonMaxSuppression/non_max_suppression_with_scores/iou_threshold", "shape": [], "dtype": "float32"}, {"name": "Postprocessor/BatchMultiClassNonMaxSuppression/map/while/MultiClassNonMaxSuppression/non_max_suppression_with_scores/score_threshold", "shape": [], "dtype": "float32"}, {"name": "Postprocessor/BatchMultiClassNonMaxSuppression/map/while/MultiClassNonMaxSuppression/non_max_suppression_with_scores/soft_nms_sigma", "shape": [], "dtype": "float32"}, {"name": "Postprocessor/BatchMultiClassNonMaxSuppression/map/while/MultiClassNonMaxSuppression/strided_slice_2/stack", "shape": [1], "dtype": "int32"}, {"name": "Postprocessor/BatchMultiClassNonMaxSuppression/map/while/MultiClassNonMaxSuppression/strided_slice_2/stack_1", "shape": [1], "dtype": "int32"}, {"name": "Postprocessor/BatchMultiClassNonMaxSuppression/map/while/MultiClassNonMaxSuppression/strided_slice_2/stack_2", "shape": [1], "dtype": "int32"}, {"name": "Postprocessor/BatchMultiClassNonMaxSuppression/map/while/MultiClassNonMaxSuppression/zeros/Reshape/shape", "shape": [1], "dtype": "int32"}, {"name": "Postprocessor/BatchMultiClassNonMaxSuppression/map/while/MultiClassNonMaxSuppression/zeros/Const", "shape": [], "dtype": "int32"}, {"name": "Postprocessor/BatchMultiClassNonMaxSuppression/map/while/MultiClassNonMaxSuppression/concat/axis", "shape": [], "dtype": "int32"}, {"name": "Postprocessor/BatchMultiClassNonMaxSuppression/map/while/MultiClassNonMaxSuppression/Gather/GatherV2_5/axis", "shape": [], "dtype": "int32"}, {"name": "Postprocessor/BatchMultiClassNonMaxSuppression/map/while/MultiClassNonMaxSuppression/Slice_1/begin", "shape": [2], "dtype": "int32"}, {"name": "Postprocessor/BatchMultiClassNonMaxSuppression/map/while/MultiClassNonMaxSuppression/stack_1/1", "shape": [], "dtype": "int32"}, {"name": "Postprocessor/BatchMultiClassNonMaxSuppression/map/while/MultiClassNonMaxSuppression/Reshape_1/shape", "shape": [1], "dtype": "int32"}, {"name": "Postprocessor/BatchMultiClassNonMaxSuppression/map/while/MultiClassNonMaxSuppression/Minimum_1/x", "shape": [], "dtype": "int32"}, {"name": "Postprocessor/BatchMultiClassNonMaxSuppression/map/while/MultiClassNonMaxSuppression/strided_slice_3/stack", "shape": [1], "dtype": "int32"}, {"name": "Postprocessor/BatchMultiClassNonMaxSuppression/map/while/MultiClassNonMaxSuppression/strided_slice_3/stack_1", "shape": [1], "dtype": "int32"}, {"name": "Postprocessor/BatchMultiClassNonMaxSuppression/map/while/MultiClassNonMaxSuppression/strided_slice_3/stack_2", "shape": [1], "dtype": "int32"}, {"name": "Postprocessor/BatchMultiClassNonMaxSuppression/map/while/MultiClassNonMaxSuppression/non_max_suppression_with_scores_1/iou_threshold", "shape": [], "dtype": "float32"}, {"name": "Postprocessor/BatchMultiClassNonMaxSuppression/map/while/MultiClassNonMaxSuppression/non_max_suppression_with_scores_1/score_threshold", "shape": [], "dtype": "float32"}, {"name": "Postprocessor/BatchMultiClassNonMaxSuppression/map/while/MultiClassNonMaxSuppression/non_max_suppression_with_scores_1/soft_nms_sigma", "shape": [], "dtype": "float32"}, {"name": "Postprocessor/BatchMultiClassNonMaxSuppression/map/while/MultiClassNonMaxSuppression/strided_slice_4/stack", "shape": [1], "dtype": "int32"}, {"name": "Postprocessor/BatchMultiClassNonMaxSuppression/map/while/MultiClassNonMaxSuppression/strided_slice_4/stack_1", "shape": [1], "dtype": "int32"}, {"name": "Postprocessor/BatchMultiClassNonMaxSuppression/map/while/MultiClassNonMaxSuppression/strided_slice_4/stack_2", "shape": [1], "dtype": "int32"}, {"name": "Postprocessor/BatchMultiClassNonMaxSuppression/map/while/MultiClassNonMaxSuppression/zeros_2/Reshape/shape", "shape": [1], "dtype": "int32"}, {"name": "Postprocessor/BatchMultiClassNonMaxSuppression/map/while/MultiClassNonMaxSuppression/zeros_2/Const", "shape": [], "dtype": "int32"}, {"name": "Postprocessor/BatchMultiClassNonMaxSuppression/map/while/MultiClassNonMaxSuppression/concat_2/axis", "shape": [], "dtype": "int32"}, {"name": "Postprocessor/BatchMultiClassNonMaxSuppression/map/while/MultiClassNonMaxSuppression/Gather_1/GatherV2_5/axis", "shape": [], "dtype": "int32"}, {"name": "Postprocessor/BatchMultiClassNonMaxSuppression/map/while/MultiClassNonMaxSuppression/Slice_2/begin", "shape": [2], "dtype": "int32"}, {"name": "Postprocessor/BatchMultiClassNonMaxSuppression/map/while/MultiClassNonMaxSuppression/stack_2/1", "shape": [], "dtype": "int32"}, {"name": "Postprocessor/BatchMultiClassNonMaxSuppression/map/while/MultiClassNonMaxSuppression/Reshape_2/shape", "shape": [1], "dtype": "int32"}, {"name": "Postprocessor/BatchMultiClassNonMaxSuppression/map/while/MultiClassNonMaxSuppression/Minimum_2/x", "shape": [], "dtype": "int32"}, {"name": "Postprocessor/BatchMultiClassNonMaxSuppression/map/while/MultiClassNonMaxSuppression/strided_slice_5/stack", "shape": [1], "dtype": "int32"}, {"name": "Postprocessor/BatchMultiClassNonMaxSuppression/map/while/MultiClassNonMaxSuppression/strided_slice_5/stack_1", "shape": [1], "dtype": "int32"}, {"name": "Postprocessor/BatchMultiClassNonMaxSuppression/map/while/MultiClassNonMaxSuppression/strided_slice_5/stack_2", "shape": [1], "dtype": "int32"}, {"name": "Postprocessor/BatchMultiClassNonMaxSuppression/map/while/MultiClassNonMaxSuppression/non_max_suppression_with_scores_2/iou_threshold", "shape": [], "dtype": "float32"}, {"name": "Postprocessor/BatchMultiClassNonMaxSuppression/map/while/MultiClassNonMaxSuppression/non_max_suppression_with_scores_2/score_threshold", "shape": [], "dtype": "float32"}, {"name": "Postprocessor/BatchMultiClassNonMaxSuppression/map/while/MultiClassNonMaxSuppression/non_max_suppression_with_scores_2/soft_nms_sigma", "shape": [], "dtype": "float32"}, {"name": "Postprocessor/BatchMultiClassNonMaxSuppression/map/while/MultiClassNonMaxSuppression/strided_slice_6/stack", "shape": [1], "dtype": "int32"}, {"name": "Postprocessor/BatchMultiClassNonMaxSuppression/map/while/MultiClassNonMaxSuppression/strided_slice_6/stack_1", "shape": [1], "dtype": "int32"}, {"name": "Postprocessor/BatchMultiClassNonMaxSuppression/map/while/MultiClassNonMaxSuppression/strided_slice_6/stack_2", "shape": [1], "dtype": "int32"}, {"name": "Postprocessor/BatchMultiClassNonMaxSuppression/map/while/MultiClassNonMaxSuppression/zeros_4/Reshape/shape", "shape": [1], "dtype": "int32"}, {"name": "Postprocessor/BatchMultiClassNonMaxSuppression/map/while/MultiClassNonMaxSuppression/zeros_4/Const", "shape": [], "dtype": "int32"}, {"name": "Postprocessor/BatchMultiClassNonMaxSuppression/map/while/MultiClassNonMaxSuppression/concat_4/axis", "shape": [], "dtype": "int32"}, {"name": "Postprocessor/BatchMultiClassNonMaxSuppression/map/while/MultiClassNonMaxSuppression/Gather_2/GatherV2_5/axis", "shape": [], "dtype": "int32"}, {"name": "Postprocessor/BatchMultiClassNonMaxSuppression/map/while/MultiClassNonMaxSuppression/Slice_3/begin", "shape": [2], "dtype": "int32"}, {"name": "Postprocessor/BatchMultiClassNonMaxSuppression/map/while/MultiClassNonMaxSuppression/stack_3/1", "shape": [], "dtype": "int32"}, {"name": "Postprocessor/BatchMultiClassNonMaxSuppression/map/while/MultiClassNonMaxSuppression/Reshape_3/shape", "shape": [1], "dtype": "int32"}, {"name": "Postprocessor/BatchMultiClassNonMaxSuppression/map/while/MultiClassNonMaxSuppression/Minimum_3/x", "shape": [], "dtype": "int32"}, {"name": "Postprocessor/BatchMultiClassNonMaxSuppression/map/while/MultiClassNonMaxSuppression/strided_slice_7/stack", "shape": [1], "dtype": "int32"}, {"name": "Postprocessor/BatchMultiClassNonMaxSuppression/map/while/MultiClassNonMaxSuppression/strided_slice_7/stack_1", "shape": [1], "dtype": "int32"}, {"name": "Postprocessor/BatchMultiClassNonMaxSuppression/map/while/MultiClassNonMaxSuppression/strided_slice_7/stack_2", "shape": [1], "dtype": "int32"}, {"name": "Postprocessor/BatchMultiClassNonMaxSuppression/map/while/MultiClassNonMaxSuppression/non_max_suppression_with_scores_3/iou_threshold", "shape": [], "dtype": "float32"}, {"name": "Postprocessor/BatchMultiClassNonMaxSuppression/map/while/MultiClassNonMaxSuppression/non_max_suppression_with_scores_3/score_threshold", "shape": [], "dtype": "float32"}, {"name": "Postprocessor/BatchMultiClassNonMaxSuppression/map/while/MultiClassNonMaxSuppression/non_max_suppression_with_scores_3/soft_nms_sigma", "shape": [], "dtype": "float32"}, {"name": "Postprocessor/BatchMultiClassNonMaxSuppression/map/while/MultiClassNonMaxSuppression/strided_slice_8/stack", "shape": [1], "dtype": "int32"}, {"name": "Postprocessor/BatchMultiClassNonMaxSuppression/map/while/MultiClassNonMaxSuppression/strided_slice_8/stack_1", "shape": [1], "dtype": "int32"}, {"name": "Postprocessor/BatchMultiClassNonMaxSuppression/map/while/MultiClassNonMaxSuppression/strided_slice_8/stack_2", "shape": [1], "dtype": "int32"}, {"name": "Postprocessor/BatchMultiClassNonMaxSuppression/map/while/MultiClassNonMaxSuppression/zeros_6/Reshape/shape", "shape": [1], "dtype": "int32"}, {"name": "Postprocessor/BatchMultiClassNonMaxSuppression/map/while/MultiClassNonMaxSuppression/zeros_6/Const", "shape": [], "dtype": "int32"}, {"name": "Postprocessor/BatchMultiClassNonMaxSuppression/map/while/MultiClassNonMaxSuppression/concat_6/axis", "shape": [], "dtype": "int32"}, {"name": "Postprocessor/BatchMultiClassNonMaxSuppression/map/while/MultiClassNonMaxSuppression/Gather_3/GatherV2_5/axis", "shape": [], "dtype": "int32"}, {"name": "Postprocessor/BatchMultiClassNonMaxSuppression/map/while/MultiClassNonMaxSuppression/Slice_4/begin", "shape": [2], "dtype": "int32"}, {"name": "Postprocessor/BatchMultiClassNonMaxSuppression/map/while/MultiClassNonMaxSuppression/stack_4/1", "shape": [], "dtype": "int32"}, {"name": "Postprocessor/BatchMultiClassNonMaxSuppression/map/while/MultiClassNonMaxSuppression/Reshape_4/shape", "shape": [1], "dtype": "int32"}, {"name": "Postprocessor/BatchMultiClassNonMaxSuppression/map/while/MultiClassNonMaxSuppression/Minimum_4/x", "shape": [], "dtype": "int32"}, {"name": "Postprocessor/BatchMultiClassNonMaxSuppression/map/while/MultiClassNonMaxSuppression/strided_slice_9/stack", "shape": [1], "dtype": "int32"}, {"name": "Postprocessor/BatchMultiClassNonMaxSuppression/map/while/MultiClassNonMaxSuppression/strided_slice_9/stack_1", "shape": [1], "dtype": "int32"}, {"name": "Postprocessor/BatchMultiClassNonMaxSuppression/map/while/MultiClassNonMaxSuppression/strided_slice_9/stack_2", "shape": [1], "dtype": "int32"}, {"name": "Postprocessor/BatchMultiClassNonMaxSuppression/map/while/MultiClassNonMaxSuppression/non_max_suppression_with_scores_4/iou_threshold", "shape": [], "dtype": "float32"}, {"name": "Postprocessor/BatchMultiClassNonMaxSuppression/map/while/MultiClassNonMaxSuppression/non_max_suppression_with_scores_4/score_threshold", "shape": [], "dtype": "float32"}, {"name": "Postprocessor/BatchMultiClassNonMaxSuppression/map/while/MultiClassNonMaxSuppression/non_max_suppression_with_scores_4/soft_nms_sigma", "shape": [], "dtype": "float32"}, {"name": "Postprocessor/BatchMultiClassNonMaxSuppression/map/while/MultiClassNonMaxSuppression/strided_slice_10/stack", "shape": [1], "dtype": "int32"}, {"name": "Postprocessor/BatchMultiClassNonMaxSuppression/map/while/MultiClassNonMaxSuppression/strided_slice_10/stack_1", "shape": [1], "dtype": "int32"}, {"name": "Postprocessor/BatchMultiClassNonMaxSuppression/map/while/MultiClassNonMaxSuppression/strided_slice_10/stack_2", "shape": [1], "dtype": "int32"}, {"name": "Postprocessor/BatchMultiClassNonMaxSuppression/map/while/MultiClassNonMaxSuppression/zeros_8/Reshape/shape", "shape": [1], "dtype": "int32"}, {"name": "Postprocessor/BatchMultiClassNonMaxSuppression/map/while/MultiClassNonMaxSuppression/zeros_8/Const", "shape": [], "dtype": "int32"}, {"name": "Postprocessor/BatchMultiClassNonMaxSuppression/map/while/MultiClassNonMaxSuppression/concat_8/axis", "shape": [], "dtype": "int32"}, {"name": "Postprocessor/BatchMultiClassNonMaxSuppression/map/while/MultiClassNonMaxSuppression/Gather_4/GatherV2_5/axis", "shape": [], "dtype": "int32"}, {"name": "Postprocessor/BatchMultiClassNonMaxSuppression/map/while/MultiClassNonMaxSuppression/Slice_5/begin", "shape": [2], "dtype": "int32"}, {"name": "Postprocessor/BatchMultiClassNonMaxSuppression/map/while/Slice_1/begin", "shape": [2], "dtype": "int32"}, {"name": "Postprocessor/BatchMultiClassNonMaxSuppression/map/while/stack_1/1", "shape": [], "dtype": "int32"}, {"name": "Postprocessor/BatchMultiClassNonMaxSuppression/map/while/Reshape_1/shape", "shape": [2], "dtype": "int32"}, {"name": "Postprocessor/BatchMultiClassNonMaxSuppression/map/while/MultiClassNonMaxSuppression/strided_slice/stack", "shape": [1], "dtype": "int32"}, {"name": "Postprocessor/BatchMultiClassNonMaxSuppression/map/while/MultiClassNonMaxSuppression/strided_slice/stack_1", "shape": [1], "dtype": "int32"}, {"name": "Postprocessor/BatchMultiClassNonMaxSuppression/map/while/MultiClassNonMaxSuppression/strided_slice/stack_2", "shape": [1], "dtype": "int32"}, {"name": "Postprocessor/BatchMultiClassNonMaxSuppression/map/while/MultiClassNonMaxSuppression/stack_5/1", "shape": [], "dtype": "int32"}, {"name": "Postprocessor/BatchMultiClassNonMaxSuppression/map/while/MultiClassNonMaxSuppression/Reshape_5/shape", "shape": [1], "dtype": "int32"}, {"name": "Postprocessor/BatchMultiClassNonMaxSuppression/map/while/MultiClassNonMaxSuppression/Minimum_5/x", "shape": [], "dtype": "int32"}, {"name": "Postprocessor/BatchMultiClassNonMaxSuppression/map/while/Slice/begin", "shape": [3], "dtype": "int32"}, {"name": "Postprocessor/BatchMultiClassNonMaxSuppression/map/while/stack/1", "shape": [], "dtype": "int32"}, {"name": "Postprocessor/BatchMultiClassNonMaxSuppression/map/while/stack/2", "shape": [], "dtype": "int32"}, {"name": "Postprocessor/BatchMultiClassNonMaxSuppression/map/while/Reshape/shape", "shape": [3], "dtype": "int32"}, {"name": "Postprocessor/BatchMultiClassNonMaxSuppression/map/while/MultiClassNonMaxSuppression/strided_slice_11/stack", "shape": [1], "dtype": "int32"}, {"name": "Postprocessor/BatchMultiClassNonMaxSuppression/map/while/MultiClassNonMaxSuppression/strided_slice_11/stack_1", "shape": [1], "dtype": "int32"}, {"name": "Postprocessor/BatchMultiClassNonMaxSuppression/map/while/MultiClassNonMaxSuppression/strided_slice_11/stack_2", "shape": [1], "dtype": "int32"}, {"name": "Postprocessor/BatchMultiClassNonMaxSuppression/map/while/MultiClassNonMaxSuppression/non_max_suppression_with_scores_5/iou_threshold", "shape": [], "dtype": "float32"}, {"name": "Postprocessor/BatchMultiClassNonMaxSuppression/map/while/MultiClassNonMaxSuppression/non_max_suppression_with_scores_5/score_threshold", "shape": [], "dtype": "float32"}, {"name": "Postprocessor/BatchMultiClassNonMaxSuppression/map/while/MultiClassNonMaxSuppression/non_max_suppression_with_scores_5/soft_nms_sigma", "shape": [], "dtype": "float32"}, {"name": "Postprocessor/BatchMultiClassNonMaxSuppression/map/while/MultiClassNonMaxSuppression/strided_slice_12/stack", "shape": [1], "dtype": "int32"}, {"name": "Postprocessor/BatchMultiClassNonMaxSuppression/map/while/MultiClassNonMaxSuppression/strided_slice_12/stack_1", "shape": [1], "dtype": "int32"}, {"name": "Postprocessor/BatchMultiClassNonMaxSuppression/map/while/MultiClassNonMaxSuppression/strided_slice_12/stack_2", "shape": [1], "dtype": "int32"}, {"name": "Postprocessor/BatchMultiClassNonMaxSuppression/map/while/MultiClassNonMaxSuppression/zeros_10/Reshape/shape", "shape": [1], "dtype": "int32"}, {"name": "Postprocessor/BatchMultiClassNonMaxSuppression/map/while/MultiClassNonMaxSuppression/zeros_10/Const", "shape": [], "dtype": "int32"}, {"name": "Postprocessor/BatchMultiClassNonMaxSuppression/map/while/MultiClassNonMaxSuppression/concat_10/axis", "shape": [], "dtype": "int32"}, {"name": "Postprocessor/BatchMultiClassNonMaxSuppression/map/while/MultiClassNonMaxSuppression/Gather_5/GatherV2_5/axis", "shape": [], "dtype": "int32"}, {"name": "Postprocessor/BatchMultiClassNonMaxSuppression/map/while/MultiClassNonMaxSuppression/Concatenate/concat/axis", "shape": [], "dtype": "int32"}, {"name": "Postprocessor/BatchMultiClassNonMaxSuppression/map/while/MultiClassNonMaxSuppression/SortByField/strided_slice/stack", "shape": [1], "dtype": "int32"}, {"name": "Postprocessor/BatchMultiClassNonMaxSuppression/map/while/MultiClassNonMaxSuppression/SortByField/strided_slice/stack_1", "shape": [1], "dtype": "int32"}, {"name": "Postprocessor/BatchMultiClassNonMaxSuppression/map/while/MultiClassNonMaxSuppression/SortByField/strided_slice/stack_2", "shape": [1], "dtype": "int32"}, {"name": "Postprocessor/BatchMultiClassNonMaxSuppression/map/while/MultiClassNonMaxSuppression/SortByField/Gather/GatherV2_6/axis", "shape": [], "dtype": "int32"}, {"name": "Postprocessor/BatchMultiClassNonMaxSuppression/map/while/MultiClassNonMaxSuppression/ClipToWindow/strided_slice_3/stack", "shape": [1], "dtype": "int32"}, {"name": "Postprocessor/BatchMultiClassNonMaxSuppression/map/while/MultiClassNonMaxSuppression/ClipToWindow/strided_slice_3/stack_1", "shape": [1], "dtype": "int32"}, {"name": "Postprocessor/BatchMultiClassNonMaxSuppression/map/while/MultiClassNonMaxSuppression/ClipToWindow/strided_slice_3/stack_2", "shape": [1], "dtype": "int32"}, {"name": "Postprocessor/BatchMultiClassNonMaxSuppression/map/while/MultiClassNonMaxSuppression/ClipToWindow/strided_slice_1/stack", "shape": [1], "dtype": "int32"}, {"name": "Postprocessor/BatchMultiClassNonMaxSuppression/map/while/MultiClassNonMaxSuppression/ClipToWindow/strided_slice_1/stack_1", "shape": [1], "dtype": "int32"}, {"name": "Postprocessor/BatchMultiClassNonMaxSuppression/map/while/MultiClassNonMaxSuppression/ClipToWindow/strided_slice_1/stack_2", "shape": [1], "dtype": "int32"}, {"name": "Postprocessor/BatchMultiClassNonMaxSuppression/map/while/MultiClassNonMaxSuppression/ClipToWindow/concat/axis", "shape": [], "dtype": "int32"}, {"name": "Postprocessor/BatchMultiClassNonMaxSuppression/map/while/MultiClassNonMaxSuppression/ClipToWindow/Greater/y", "shape": [], "dtype": "float32"}, {"name": "Postprocessor/BatchMultiClassNonMaxSuppression/map/while/MultiClassNonMaxSuppression/ClipToWindow/Reshape/shape", "shape": [1], "dtype": "int32"}, {"name": "Postprocessor/BatchMultiClassNonMaxSuppression/map/while/MultiClassNonMaxSuppression/ClipToWindow/Gather/GatherV2_6/axis", "shape": [], "dtype": "int32"}, {"name": "Postprocessor/BatchMultiClassNonMaxSuppression/map/while/MultiClassNonMaxSuppression/SortByField_1/strided_slice/stack", "shape": [1], "dtype": "int32"}, {"name": "Postprocessor/BatchMultiClassNonMaxSuppression/map/while/MultiClassNonMaxSuppression/SortByField_1/strided_slice/stack_1", "shape": [1], "dtype": "int32"}, {"name": "Postprocessor/BatchMultiClassNonMaxSuppression/map/while/MultiClassNonMaxSuppression/SortByField_1/strided_slice/stack_2", "shape": [1], "dtype": "int32"}, {"name": "Postprocessor/BatchMultiClassNonMaxSuppression/map/while/MultiClassNonMaxSuppression/SortByField_1/Gather/GatherV2_6/axis", "shape": [], "dtype": "int32"}, {"name": "Postprocessor/BatchMultiClassNonMaxSuppression/map/while/MultiClassNonMaxSuppression/ChangeCoordinateFrame/strided_slice_4/stack", "shape": [1], "dtype": "int32"}, {"name": "Postprocessor/BatchMultiClassNonMaxSuppression/map/while/MultiClassNonMaxSuppression/ChangeCoordinateFrame/strided_slice_4/stack_1", "shape": [1], "dtype": "int32"}, {"name": "Postprocessor/BatchMultiClassNonMaxSuppression/map/while/MultiClassNonMaxSuppression/ChangeCoordinateFrame/strided_slice_4/stack_2", "shape": [1], "dtype": "int32"}, {"name": "Postprocessor/BatchMultiClassNonMaxSuppression/map/while/MultiClassNonMaxSuppression/ChangeCoordinateFrame/strided_slice_5/stack", "shape": [1], "dtype": "int32"}, {"name": "Postprocessor/BatchMultiClassNonMaxSuppression/map/while/MultiClassNonMaxSuppression/ChangeCoordinateFrame/strided_slice_5/stack_1", "shape": [1], "dtype": "int32"}, {"name": "Postprocessor/BatchMultiClassNonMaxSuppression/map/while/MultiClassNonMaxSuppression/ChangeCoordinateFrame/strided_slice_5/stack_2", "shape": [1], "dtype": "int32"}, {"name": "Postprocessor/BatchMultiClassNonMaxSuppression/map/while/MultiClassNonMaxSuppression/ChangeCoordinateFrame/strided_slice_6/stack", "shape": [1], "dtype": "int32"}, {"name": "Postprocessor/BatchMultiClassNonMaxSuppression/map/while/MultiClassNonMaxSuppression/ChangeCoordinateFrame/strided_slice_6/stack_1", "shape": [1], "dtype": "int32"}, {"name": "Postprocessor/BatchMultiClassNonMaxSuppression/map/while/MultiClassNonMaxSuppression/ChangeCoordinateFrame/strided_slice_6/stack_2", "shape": [1], "dtype": "int32"}, {"name": "Postprocessor/BatchMultiClassNonMaxSuppression/map/while/MultiClassNonMaxSuppression/ChangeCoordinateFrame/strided_slice_7/stack", "shape": [1], "dtype": "int32"}, {"name": "Postprocessor/BatchMultiClassNonMaxSuppression/map/while/MultiClassNonMaxSuppression/ChangeCoordinateFrame/strided_slice_7/stack_1", "shape": [1], "dtype": "int32"}, {"name": "Postprocessor/BatchMultiClassNonMaxSuppression/map/while/MultiClassNonMaxSuppression/ChangeCoordinateFrame/strided_slice_7/stack_2", "shape": [1], "dtype": "int32"}, {"name": "Postprocessor/BatchMultiClassNonMaxSuppression/map/while/MultiClassNonMaxSuppression/ChangeCoordinateFrame/Scale/concat/axis", "shape": [], "dtype": "int32"}, {"name": "Postprocessor/BatchMultiClassNonMaxSuppression/map/while/MultiClassNonMaxSuppression/strided_slice_14/stack", "shape": [1], "dtype": "int32"}, {"name": "Postprocessor/BatchMultiClassNonMaxSuppression/map/while/MultiClassNonMaxSuppression/strided_slice_14/stack_1", "shape": [1], "dtype": "int32"}, {"name": "Postprocessor/BatchMultiClassNonMaxSuppression/map/while/MultiClassNonMaxSuppression/strided_slice_14/stack_2", "shape": [1], "dtype": "int32"}, {"name": "Postprocessor/BatchMultiClassNonMaxSuppression/map/while/add/y", "shape": [], "dtype": "int32"}, {"name": "Postprocessor/BatchMultiClassNonMaxSuppression/map/while/add_1/y", "shape": [], "dtype": "int32"}, {"name": "ConstantFolding/Postprocessor/BatchMultiClassNonMaxSuppression/map/while/PadOrClipBoxList/Slice_1/size_const_axis", "shape": [], "dtype": "int32"}, {"name": "ConstantFolding/Postprocessor/BatchMultiClassNonMaxSuppression/map/while/PadOrClipBoxList/Slice_5/size_const_axis", "shape": [], "dtype": "int32"}, {"name": "ConstantFolding/Postprocessor/BatchMultiClassNonMaxSuppression/map/while/PadOrClipBoxList/stack_1/values_1_const_axis", "shape": [], "dtype": "int32"}, {"name": "ConstantFolding/Postprocessor/BatchMultiClassNonMaxSuppression/map/while/PadOrClipBoxList/stack_5/values_1_const_axis", "shape": [], "dtype": "int32"}]}]}